joinrank/models/ranker/final_model.pt (torch, 900909 bytes, 41 tensors)

encoder.convs.0.nn.0.weight f4 [128, 64]
0.23406622 0.09511874 0.028227527 -0.07208625 -0.09000545 0.005323789 -0.07323719 0.055407174
0.12802678 -0.08366032 -0.024278373 0.009508925 5.18349e-40 5.68994e-40 4.94607e-40 -4.92034e-40
-5.1466e-40 -5.02618e-40 5.82724e-40 5.32229e-40 5.05127e-40 -5.01704e-40 5.37122e-40 5.26482e-40
-5.77754e-40 5.57495e-40 5.80704e-40 4.97122e-40 -4.90973e-40 -5.1221e-40 5.12392e-40 4.99612e-40
-5.00227e-40 5.58431e-40 -4.93012e-40 4.97937e-40 -5.30638e-40 5.02109e-40 -4.92442e-40 -4.91222e-40
5.09399e-40 4.93892e-40 5.00793e-40 -6.0407e-40 5.05602e-40 -4.92433e-40 5.32125e-40 4.96308e-40
5.67495e-40 5.00165e-40 4.95812e-40 4.95911e-40 5.39839e-40 -5.85252e-40 5.02644e-40 -5.01086e-40
4.92362e-40 -5.0077e-40 -5.00136e-40 -5.87976e-40 5.00579e-40 -4.948e-40 5.57868e-40 -5.22312e-40
0.08241683 0.008652725 -0.093382776 0.10214483 0.03597666 -0.06885201 0.07837683 -0.07941231
0.099431366 -0.08845579 0.08241676 -0.09980058 4.99777e-40 5.03634e-40 -5.065e-40 5.44675e-40
-6.06123e-40 4.9909e-40 5.21165e-40 4.9567e-40 -4.95323e-40 -4.99322e-40 -4.95812e-40 -5.06187e-40
-4.96281e-40 5.12717e-40 -4.92841e-40 -5.0812e-40 5.19359e-40 4.9994e-40 4.95227e-40 -5.03955e-40
-4.90701e-40 -6.30102e-40 -5.00924e-40 -5.09675e-40 5.00514e-40 -5.16596e-40 4.9129e-40 -5.2326e-40
4.99613e-40 -5.02263e-40 -4.93491e-40 4.94863e-40 -5.10189e-40 5.57797e-40 -5.06841e-40 5.91449e-40
5.78778e-40 5.03299e-40 -4.94602e-40 -4.92114e-40 5.70925e-40 -4.9828e-40 -5.42438e-40 -4.99829e-40
-4.96857e-40 -4.95735e-40 4.98981e-40 -4.92048e-40 4.96533e-40 5.49062e-40 -5.17783e-40 -4.94078e-40
0.12630178 0.034283444 -0.037289068 -0.002298381 -0.018122828 -0.015850835 -0.13834645 -0.003409897
0.08490401 -0.065289214 -0.05366244 -0.037631802 -6.0569e-40 -5.27991e-40 -4.93806e-40 -5.08733e-40
-4.96488e-40 -4.97981e-40 -5.08987e-40 5.09103e-40 5.15965e-40 5.17617e-40 -5.07473e-40 5.90699e-40
4.94937e-40 -5.04488e-40 4.91329e-40 5.00827e-40 5.11864e-40 -5.94354e-40 -5.8548e-40 -4.97726e-40
5.97666e-40 -5.72195e-40 5.4669e-40 -4.92858e-40 -4.95016e-40 5.04184e-40 4.92987e-40 -4.98574e-40
5.57595e-40 5.09156e-40 -4.94748e-40 4.91318e-40 5.97303e-40 -5.10314e-40 -4.98773e-40 -5.01704e-40
4.98012e-40 5.03883e-40 5.16301e-40 5.18457e-40 -4.90456e-40 5.76553e-40 4.92765e-40 4.91208e-40
4.98662e-40 -5.17841e-40 5.67183e-40 -5.50443e-40 5.01125e-40 4.9482e-40 4.94053e-40 -5.21625e-40
-0.024869492 -0.0037113419 5.05818e-40 4.9376e-40 -4.93345e-40 -5.00778e-40 -5.96945e-40 5.44641e-40
-5.02776e-40 -4.95432e-40 0.010922999 -0.010302737 5.97819e-40 -4.9515e-40 -4.91363e-40 4.90715e-40
5.30834e-40 4.94014e-40 -4.95025e-40 5.3261e-40 -5.02867e-40 -5.4478e-40 -5.18099e-40 4.96294e-40
5.13418e-40 5.31536e-40 4.97612e-40 -4.95596e-40 -4.9432e-40 -5.04238e-40 -5.9283e-40 -6.05389e-40
-5.15318e-40 4.9831e-40 5.02849e-40 -4.98446e-40 4.97786e-40 -5.49053e-40 -4.95084e-40 6.14548e-40
4.92084e-40 -4.93372e-40 5.91097e-40 5.04982e-40 -5.08395e-40 -5.21818e-40 -5.30117e-40 -5.40792e-40
4.94311e-40 -5.29203e-40 4.94625e-40 5.48195e-40 -4.99035e-40 5.1834e-40 -4.94817e-40 6.29742e-40
6.02935e-40 -5.76421e-40 -5.02796e-40 5.9976e-40 -5.06816e-40 -4.97708e-40 -5.73453e-40 5.0013e-40
00000000: 0eaf 6f3e 9dcd c23d 6a3d e73c f5a1 93bd
00000010: c754 b8bd 2e73 ae3b 61fd 95bd a2f2 623d
00000020: 7419 033e 1a56 abbd 70e3 c6bc 52cb 1b3c
00000030: f2a4 0500 2032 0600 c362 0500 975b 0580
00000040: aa9a 0580 1879 0580 6658 0600 a3cb 0500
00000050: 1780 0500 8c76 0580 47d9 0500 9ebb 0500
00000060: 8b4a 0680 1212 0600 c452 0600 c669 0500
00000070: a258 0580 d593 0580 5794 0500 b770 0500
00000080: 6e72 0580 ae14 0600 515e 0580 0c6c 0500
00000090: 34c7 0580 ad77 0500 ba5c 0580 5459 0580
000000a0: ff8b 0500 c560 0500 0274 0500 e793 0680
000000b0: 6a81 0500 b45c 0580 59cb 0500 8167 0500
000000c0: f22d 0600 4272 0500 1f66 0500 6666 0500
000000d0: dae0 0500 725f 0680 2b79 0500 d374 0580
000000e0: 815c 0500 f173 0580 2d72 0580 0a67 0680
000000f0: 6973 0500 4d63 0580 1c13 0600 feaf 0580
00000100: 28ca a83d 29c4 0d3c 783f bfbd 4f31 d13d
00000110: 435c 133d 4802 8dbd 0884 a03d eca2 a2bd
00000120: aca2 cb3d 4f28 b5bd 1eca a83d 3f64 ccbd
00000130: 2d71 0500 ed7b 0500 ea83 0580 55ee 0500
00000140: a099 0680 436f 0500 ccac 0500 ba65 0500
00000150: c264 0580 e86f 0580 1f66 0580 0b83 0580
00000160: 6e67 0580 3f95 0500 d75d 0580 6f88 0580
00000170: c3a7 0500 a171 0500 7e64 0500 d27c 0580
00000180: e057 0580 78dc 0680 5f74 0580 c48c 0580
00000190: 3b73 0500 0fa0 0580 8459 0500 a3b2 0580
000001a0: b870 0500 1b78 0580 a75f 0580 7a63 0500
000001b0: 338e 0580 e912 0600 de84 0580 b870 0600
000001c0: 664d 0600 fe7a 0500 c062 0580 d05b 0580
000001d0: 8237 0600 006d 0580 19e8 0580 5271 0580
000001e0: 0969 0580 e865 0580 f56e 0500 a15b 0580
000001f0: 2268 0500 90fa 0500 5ea3 0580 4a61 0580
00000200: 4155 013e cc6c 0c3d 6cbc 18bd 6fa0 16bb
00000210: 5376 94bc 9cd9 81bc b1aa 0dbe 9478 5fbb
00000220: 27e2 ad3d 5ab6 85bd 26cd 5bbd ce23 1abd
00000230: 6b98 0680 d3bf 0580 8860 0580 248a 0580
00000240: 0268 0580 2b6c 0580 d98a 0580 2c8b 0500
00000250: 4d9e 0500 e8a2 0500 a186 0580 a16e 0600
00000260: af63 0500 4f7e 0580 a059 0500 1a74 0500
00000270: de92 0500 d178 0680 1460 0680 756b 0580
00000280: 0d82 0600 0c3b 0680 f3f3 0500 e35d 0580
00000290: e763 0580 767d 0500 3f5e 0500 d26d 0580
000002a0: 5912 0600 528b 0500 2863 0580 9859 0500
000002b0: 0a81 0600 8c8e 0580 606e 0580 8c76 0580
000002c0: 416c 0500 9f7c 0500 3d9f 0500 3fa5 0500
000002d0: 3157 0580 3247 0600 a15d 0500 4a59 0500
000002e0: 116e 0500 88a3 0580 132d 0600 69fe 0580
000002f0: ef74 0500 5b63 0500 3861 0500 14ae 0580
00000300: 1bbb cbbc fc39 73bb 0482 0500 6760 0500
00000310: 3f5f 0580 f773 0580 0a80 0680 3dee 0500
00000320: 8979 0580 1065 0580 61f6 323c d0cc 28bc
00000330: 7a82 0600 4764 0580 b859 0580 ea57 0500
00000340: c0c7 0500 1c61 0500 ee63 0580 b3cc 0500
00000350: ca79 0580 a0ee 0580 40a4 0580 7767 0500
00000360: 3397 0500 b5c9 0500 246b 0500 8565 0580
00000370: f761 0580 9c7d 0580 9274 0680 9497 0680
00000380: 7f9c 0580 166d 0500 bd79 0500 776d 0580
00000390: a06b 0500 89fa 0580 1864 0580 1cb1 0600
000003a0: bb5b 0500 525f 0580 bd6f 0600 af7f 0500
000003b0: 3389 0580 9eae 0580 c0c5 0580 82e3 0580
000003c0: f061 0500 34c3 0580 d062 0500 25f8 0500
000003d0: 1b6f 0580 eca4 0500 5963 0580 77db 0600
000003e0: bd90 0600 d446 0680 9779 0580 e387 0600
000003f0: cc84 0580 686b 0580 8e3e 0680 2972 0500

encoder.convs.0.nn.0.bias f4 [128]
7.4033153e-07 0.06360212 3.0859392e-06 0.014273141 0.038367968 4.90537e-40 -0.04325261 -0.07765651
-1.636738e-06 -0.093529314 -0.0040392047 0.086437225 -4.95956e-40 0.035359263 5.5714454e-06 0.07772989
0.024732191 0.0173804 0.006616191 0.0069439053 4.92198e-40 0.02950755 4.9677e-40 0.07440702
0.0012846272 0.0026142425 0.00045748055 -0.015138549 -0.019450065 -2.245121e-39 1.40864e-06 -0.012624208
-1.1805274e-06 -2.1655994e-27 6.8139633e-07 0.0017929646 2.8004122e-06 0.014873301 0.18007396 0.044633035
0.020560328 -0.004329758 -0.04960887 0.024739768 0.178635 0.112155885 -0.08120053 0.16104507
0.044604745 -0.11082582 0.14444661 2.6667535e-06 -2.4860008e-06 0.10900686 -7.5601305e-23 0.08665278
7.151293e-06 -3.4989607e-06 4.4860353e-06 -0.054369256 -4.96407e-40 0.02800095 0.050086815 -4.90986e-40
0.12811041 -0.033207517 -5.2989286e-13 3.4746105e-07 -0.0002602559 -0.06429381 -0.009114685 0.04725667
-1.0562756e-36 -0.014700556 -7.908976e-06 -3.0473082e-06 0.00428404 -0.04181804 0.010102495 -2.1106309e-16
-3.9232887e-06 0.03983893 2.2627687e-06 0.19081134 0.024888752 -0.015928112 0.00010164269 -0.13798824
-2.1635821e-13 0.024912436 0.020691535 -2.1587728e-06 0.0018522654 7.702186e-07 9.723726e-07 0.0059250137
-0.01964821 -0.10719414 -1.305184e-29 0.117608316 -1.0311861e-05 -0.00070540054 -2.4810214e-07 1.1635018e-06
1.3140785e-24 -7.0892966e-05 -5.3696017e-06 -0.046287283 -0.049520675 0.091106646 1.7534375e-06 4.94116e-40
0.033190697 -4.0619334e-06 0.038424354 0.0020645086 4.97219e-40 0.057157073 -4.91228e-40 0.04464883
-0.03391248 -6.447089e-06 0.12571616 -2.2673175e-13 -0.0009797993 -3.2069431e-06 0.04292651 -0.027311979
00000000: 32bb 4635 d441 823d 0818 4f36 e4d9 693c
00000010: bb27 1d3d 6b57 0500 a629 31bd 600a 9fbd
00000020: e4ad dbb5 4c8c bfbd 4e5b 84bb 0006 b13d
00000030: 8666 0580 e0d4 103d 5af2 ba36 d930 9f3d
00000040: 2a9b ca3c 5761 8e3c a2cc d83b b389 e33b
00000050: 0c5c 0500 d1b9 f13c cb68 0500 b562 983d
00000060: f060 a83a b653 2b3b 00da ef39 ad07 78bc
00000070: be55 9fbc 7c72 1880 8010 bd35 c4d5 4ebc
00000080: 9d72 9eb5 9393 2b93 33e9 3635 e901 eb3a
00000090: b7ee 3b36 25af 733c 4f65 383e 21d1 363d
000000a0: 226e a83c a5e0 8dbb ac32 4bbd 0eab ca3c
000000b0: 18ec 363e fcb1 e53d 774c a6bd 00e9 243e
000000c0: 77b3 363d a6f8 e2bd d0e9 133e 7af6 3236
000000d0: 2bd5 26b6 fd3e df3d f1ca b69a 0377 b13d
000000e0: 24f5 ef36 b0cf 6ab6 c086 9636 4cb2 5ebd
000000f0: c867 0580 4062 e53c d527 4d3d ab58 0580
00000100: 602f 033e 9b04 08bd ce26 15ab af8a ba34
00000110: f572 88b9 79ac 83bd c255 15bc 3690 413d
00000120: 4bb7 b383 9ada 70bc cbb0 04b7 5b80 4cb6
00000130: 2261 8c3b 6549 2bbd ef84 253c d456 73a5
00000140: cba4 83b6 252e 233d 12da 1736 0c64 433e
00000150: 7fe3 cb3c ac7b 82bc 0129 d538 ca4c 0dbe
00000160: 0299 73aa 2a15 cc3c 4b81 a93c 6fdf 10b6
00000170: b7c7 f23a 05c1 4e35 7882 8235 9e26 c23b
00000180: 48f5 a0bc 9a88 dbbd 845c 848f a1dc f03d
00000190: 1b01 2db7 a1ea 38ba e632 85b4 9e29 9c35
000001a0: 0358 cb17 5fac 94b8 872c b4b6 bc97 3dbd
000001b0: 31d6 4abd 1f96 ba3d a757 eb35 6561 0500
000001c0: f8f2 073d be4b 88b6 db62 1d3d b54c 073b
000001d0: 0b6a 0500 891d 6a3d 5859 0580 b1e1 363d
000001e0: d0e7 0abd 1354 d8b6 bdbb 003e fa46 7faa
000001f0: 9c6c 80ba dd36 57b6 b5d3 2f3d 5fbd dfbc

encoder.convs.0.nn.2.weight f4 [128, 128]
0.05487144 0.071672544 0.108008385 2.8249022e-07 -1.6866592e-05 4.92867e-40 0.0773703 -0.025573118
0.097518414 0.06908432 -6.0950406e-08 -0.05217954 -4.94398e-40 0.050458472 0.010550221 -0.012710244
-0.018383149 0.013718907 -0.018807683 0.032971784 4.97203e-40 -0.02074367 4.97626e-40 1.8984515e-07
0.0026256891 -0.046690643 -0.014977607 -0.0368442 0.042356294 -9.67864e-40 -0.028853003 0.018528933
8.999304e-05 3.1890804e-27 -4.9338e-40 0.002130587 0.08659073 0.026016623 0.0134389 -0.017821485
0.006959902 0.058972348 -0.06324257 0.041553106 0.03484916 0.036330458 0.02534784 -0.0023395712
0.06863006 0.0354933 -0.016678793 0.056796223 -0.007891381 -0.0008309106 5.08977e-40 0.0022243615
5.47534e-40 -0.0063248156 0.0147490455 0.05157995 -5.4107e-40 -0.028458413 0.05700647 4.91399e-40
0.015002533 -0.05696015 -5.03013e-40 -4.94839e-40 0.00032748005 -0.01619057 -0.023673223 0.037342258
5.01878e-40 0.018674148 4.9641e-40 -0.00812652 -4.212978e-05 0.013811865 0.013110593 -4.92013e-40
0.009102838 -0.0015357935 -0.030969849 -0.009848303 0.057826158 0.08958073 0.00025110244 0.026542535
5.13132e-40 0.013265316 0.09385298 -0.043936763 -3.4058794e-05 -0.005312884 -0.030829614 0.11396916
0.07941617 -0.013826184 -5.10406e-40 0.0019867087 0.09732695 -0.01705162 -0.034048818 0.044038877
-4.91173e-40 -8.019916e-38 -0.031161824 0.07308332 0.026253445 0.020615295 0.048120163 5.41009e-40
-2.7284988e-05 -0.01558654 0.029919716 -0.03515703 -4.99794e-40 -0.025108116 -4.95411e-40 -0.0006922046
0.011947994 0.091205746 0.040627446 5.05517e-40 2.3939789e-05 0.070337564 -0.035753835 -0.001319566
0.0019743189 -0.06703561 -0.025163464 6.548243e-33 0.0041940953 -4.90632e-40 -0.028123198 0.044116095
-0.071822695 0.023371771 -4.256307e-25 0.009356629 -5.13523e-40 -0.1453016 0.018845096 -0.0052063745
-0.039825354 -0.0663253 -0.04109658 -0.0013718649 -4.94273e-40 -0.0012252755 5.3437e-40 0.001013564
-0.0031507004 -0.03580812 0.077324174 0.017205594 0.07788837 8.14453e-40 0.037867405 -0.054932624
-0.052773703 -6.9075663e-28 -5.01396e-40 -0.014610235 -0.07826558 -0.05132545 0.08602417 0.014350796
-0.016892403 0.011968266 -0.059255324 -0.00096467574 0.087168574 -0.06576083 -0.005060537 0.04755492
-0.038768888 0.012662912 0.097118504 0.012713281 -0.03234025 0.012806889 -4.9607e-40 0.02946173
-5.32105e-40 -0.085778624 -0.12049326 -0.029643351 5.02116e-40 0.0852433 -0.029730853 4.90625e-40
0.06391758 -0.007499922 5.00114e-40 5.74265e-40 -0.00025170442 0.026509708 0.019353058 -0.01748339
-4.98722e-40 -0.007775169 -4.9152e-40 -0.028331142 -0.0177496 -0.08044463 -0.07855796 -2.1957532e-26
-0.049314052 0.08332537 0.055715416 0.039726406 -0.033631753 0.013311631 -0.008552897 -0.063808255
-5.89388e-40 -0.008351292 -0.12068737 -0.08691702 3.2716423e-17 -0.07982636 0.019904157 -0.097723044
0.018446432 0.016769033 4.94406e-40 0.07552375 -0.078344636 0.0142105725 -0.08105767 0.05725041
-5.02363e-40 -4.94622e-40 -0.093625344 0.020629318 0.048755076 -0.00824577 -0.032664344 5.01638e-40
-8.9765475e-14 -0.03096128 0.076825164 0.025527196 -5.03594e-40 -0.018845763 -4.9336e-40 6.476091e-07
0.038734537 0.047840346 -0.0024072276 4.984e-40 -3.3267013e-05 -0.03882759 0.03056298 -0.08445123
00000000: e0c0 603d 0ec9 923d 8033 dd3d 29a9 9734
00000010: bb7c 8db7 ea5d 0500 5274 9e3d b77e d1bc
00000020: bcb7 c73d 147c 8d3d d7e3 82b3 37ba 55bd
00000030: 2e62 0580 8bad 4e3d d6da 2c3c a13e 50bc
00000040: 4298 96bc 44c5 603c 9212 9abc 6c0d 073d
00000050: 006a 0500 a1ee a9bc 2e6b 0500 3dd8 4b34
00000060: c113 2c3b b03e 3fbd a364 75bc f2e9 16bd
00000070: cb7d 2d3d 038a 0a80 225d ecbc fdc9 973c
00000080: a5ba bc38 3caa 7c13 585f 0580 51a1 0b3b
00000090: 7b56 b13d d020 d53c d52e 5c3c 5dfe 91bc
000000a0: e40f e43b fd8c 713d 5285 81bd 9733 2a3d
000000b0: febd 0e3d 3fcf 143d 46a6 cf3c 7e53 19bb
000000c0: eb8d 8c3d 6c61 113d f7a1 88bc 28a3 683d
000000d0: da4a 01bc 77d1 59ba d28a 0500 98c6 113b
000000e0: 4df6 0500 6640 cfbb fba5 713c 7f45 533d
000000f0: 48e4 0580 9e21 e9bc 9e7f 693d d259 0500
00000100: 2fcd 753c 0c4f 69bd 327a 0580 6963 0580
00000110: a1b1 ab39 16a2 84bc 59ee c1bc 32f4 183d
00000120: 0877 0500 87fa 983c ca67 0500 1825 05bc
00000130: 82b4 30b8 294b 623c d0cd 563c 885b 0580
00000140: 1224 153c ae4c c9ba 7bb4 fdbc c75a 21bc
00000150: 1fdb 6c3d 1a76 b73d 66a6 8339 bb6f d93c
00000160: 6796 0500 c556 593c fe35 c03d 09f7 33bd
00000170: 5ada 0eb8 b417 aebb 638e fcbc aa68 e93d
00000180: f2a4 a23d 3887 62bc ce8e 0580 7133 023b
00000190: 5a53 c73d d7af 8bbc c676 0bbd 1c62 343d
000001a0: 3159 0580 a852 da81 1547 ffbc b5ac 953d
000001b0: 7711 d73c 68e1 a83c a619 453d 1de4 0500
000001c0: 11e2 e4b7 b05e 7fbc 311a f53c d100 10bd
000001d0: 3971 0580 89af cdbc 0165 0580 1075 35ba
000001e0: 85c1 433c 14ca ba3d f768 263d 2d81 0500
000001f0: 4ed2 c837 240d 903d 9d72 12bd 4af5 acba
00000200: 9363 013b f749 89bd 9c23 cebc 6f00 080a
00000210: 9f6e 893b af57 0580 9f62 e6bc 14b3 343d
00000220: c717 93bd 2876 bf3c f0b9 0397 8c4c 193c
00000230: 7e97 0580 f1c9 14be 0861 9a3c 3c9a aabb
00000240: e91f 23bd 8fd5 87bd e354 28bd 26d0 b3ba
00000250: d561 0580 6c99 a0ba 9bd1 0500 90d9 843a
00000260: fb7b 4ebb 89ab 12bd 235c 9e3d bff2 8c3c
00000270: f083 9f3d 5dde 0800 da1a 1b3d 0801 61bd
00000280: 3d29 58bd d6e8 5a92 b075 0580 c45f 6fbc
00000290: b449 a0bd a33a 52bd 712d b03d 9a1f 6b3c
000002a0: f061 8abc 8c16 443c b6b5 72bd 4be2 7cba
000002b0: 7085 b23d 9dad 86bd dcd2 a5bb f3c8 423d
000002c0: 20cc 1ebd 1a78 4f3c 11e6 c63d 5e4b 503c
000002d0: 3677 04bd fcd3 513c d766 0580 ba59 f13c
000002e0: 4bcb 0580 b4ac afbd 2cc5 f6bd 9dd6 f2bc
000002f0: b277 0500 0a94 ae3d 1e8e f3bc aa57 0500
00000300: 38e7 823d e8c1 f5bb 1d72 0500 d140 0600
00000310: 32f7 83b9 e32a d93c 4e8a 9e3c 5439 8fbc
00000320: 3c6e 0580 d8c6 febb 285a 0580 b616 e8bc
00000330: 9c67 91bc 27c0 a4bd ffe2 a0bd f574 d994
00000340: 88fd 49bd 7ea6 aa3d d935 643d 28b8 223d
00000350: 73c1 09bd 0719 5a3c 7321 0cbc e7ad 82bd
00000360: f96a 0680 dcd3 08bc f12a f7bd 8d01 b2bd
00000370: bce0 1624 017c a3bd 0b0e a33c 0523 c8bd
00000380: f91c 973c 365f 893c 3462 0500 32ac 9a3d
00000390: 2773 a0bd 76d3 683c 9001 a6bd 687f 6a3d
000003a0: 6278 0580 ce62 0580 a5be bfbd d1fe a83c
000003b0: 67b3 473d 4419 07bc 0ccb 05bd 5d76 0500
000003c0: 4622 caa9 83a2 fdbc 8356 9d3d 691e d13c
000003d0: d17b 0580 6e62 9abc 495f 0580 5cd7 2d35
000003e0: 1ba8 1e3d 3df4 433d 94c2 1dbb 566d 0500
000003f0: 2f88 0bb8 ae09 1fbd 375f fa3c c4f4 acbd

encoder.convs.0.nn.2.bias f4 [128]
-3.6868546e-06 -1.8063673e-06 4.0046794e-07 -9.446118e-06 -6.199767e-06 -4.346249e-07 -1.1757046e-06 -2.7327387e-06
-3.670468e-06 -7.2673004e-07 -1.1411184e-06 1.8076615e-06 -3.752709e-06 1.4420799e-07 -1.5676136e-06 7.0043427e-07
-2.1987803e-06 -1.7652792e-07 2.6715094e-08 -3.9191514e-06 -3.250819e-07 -6.13862e-06 -1.1987224e-06 -1.77384e-06
-5.5266446e-06 6.313105e-07 -2.9898715e-06 -5.9977424e-06 2.9164396e-06 -2.0301143e-06 -3.5769656e-07 7.444218e-07
-1.0650082e-06 -1.190653e-06 -8.994008e-06 -4.9056916e-06 -4.737807e-06 -1.4418367e-07 -5.7199964e-07 1.5477455e-06
-1.7451493e-06 -4.1915527e-07 1.723279e-06 -6.9578425e-07 5.2818154e-06 4.3508277e-07 4.4456135e-07 1.4500934e-06
9.15638e-08 -4.363083e-06 -9.227708e-07 3.5835183e-06 -2.052053e-07 5.445124e-06 -2.9386435e-06 -1.3861108e-05
1.3846046e-06 -8.9814955e-07 1.0026282e-06 -1.3922064e-06 6.9447724e-06 -6.08862e-07 3.498186e-06 -1.7295794e-06
-3.6631893e-06 1.5106739e-06 2.8761167e-07 3.4718782e-06 -3.3575526e-07 -7.4323145e-07 -5.588416e-07 -2.2934717e-06
-4.171997e-06 1.6991185e-08 -3.4725045e-07 -5.592664e-07 2.1969518e-06 2.0584382e-06 -2.6914674e-06 1.8860914e-06
-6.4777723e-06 9.614563e-08 3.1798313e-06 4.2780216e-06 3.1863904e-06 2.8217826e-06 -1.586296e-07 1.3284862e-05
6.3762836e-06 -1.2422918e-06 7.3709845e-07 -6.8489703e-07 3.5261312e-06 -1.9823124e-06 -2.5641967e-07 1.7773315e-06
-7.913403e-06 -2.8247066e-06 -2.7829228e-06 -9.932073e-07 1.7205683e-06 -4.8543834e-06 -7.149647e-06 -1.244064e-07
-2.8675738e-06 -7.119423e-06 1.3976563e-06 -8.9782213e-07 -4.8071074e-06 3.2004502e-06 -2.6361087e-07 4.8643466e-07
4.0948667e-06 -9.742726e-07 -1.0666629e-08 3.4711744e-07 4.673656e-06 -9.781286e-06 -1.0509809e-06 5.2968215e-07
-6.3782377e-06 8.010703e-06 1.146699e-06 1.5833384e-06 4.978168e-07 2.7320777e-07 -1.1991328e-05 -8.51734e-07
00000000: ae6b 77b6 4f72 f2b5 e5ff d634 c57a 1eb7
00000010: 9807 d0b6 6456 e9b4 e7cc 9db5 1864 37b6
00000020: 2952 76b6 8214 43b5 8828 99b5 c79e f235
00000030: 0dd7 7bb6 97d7 1a34 cb66 d2b5 7a05 3c35
00000040: c28e 13b6 a08b 3db4 1d7b e532 4181 83b6
00000050: eb86 aeb4 58fa cdb6 cae3 a0b5 ae14 eeb5
00000060: 8471 b9b6 5477 2935 9aa5 48b6 3740 c9b6
00000070: 0db8 4336 193d 08b6 7109 c0b4 47d4 4735
00000080: 67f1 8eb5 87ce 9fb5 f8e4 16b7 929b a4b6
00000090: 74f9 9eb6 e8d0 1ab4 848b 19b5 21bc cf35
000000a0: e03a eab5 4308 e1b4 6a4b e735 eec5 3ab5
000000b0: 733a b136 5295 e934 0cac ee34 d4a0 c235
000000c0: bba1 c433 9966 92b6 54b4 77b5 607c 7036
000000d0: 6756 5cb4 42b5 b636 8335 45b6 018d 68b7
000000e0: a7d6 b935 5e18 71b5 0b92 8635 d9db bab5
000000f0: 2407 e936 ae70 23b5 61c2 6a36 e523 e8b5
00000100: 1dd5 75b6 5cc2 ca35 0c69 9a34 6afe 6836
00000110: da41 b4b4 7a82 47b5 4d03 16b5 8be9 19b6
00000120: 2efd 8bb6 03f4 9132 bd6d bab4 7f20 16b5
00000130: 586f 1336 b323 0a36 0f9f 34b6 9b25 fd35
00000140: a45b d9b6 9e78 ce33 1665 5536 ed8b 8f36
00000150: c5d5 5536 db5d 3d36 c653 2ab4 0ce2 5e37
00000160: dcf3 d536 d2bc a6b5 05dd 4535 c4d9 37b5
00000170: 79a2 6c36 de07 05b6 0daa 89b4 a58c ee35
00000180: cfc3 04b7 1790 3db6 40c2 3ab6 584e 85b5
00000190: 47ee e635 d6e2 a2b6 00e7 efb6 9294 05b4
000001a0: 8b70 40b6 61e3 eeb6 1b97 bb35 de01 71b5
000001b0: bd4c a1b6 51c7 5636 6786 8db4 8993 0235
000001c0: a366 8936 c0c3 82b5 5540 37b2 755b ba34
000001d0: 66d2 9c36 4e1a 24b7 6e0f 8db5 7b2f 0e35
000001e0: a504 d6b6 b565 0637 47e8 9935 1883 d435
000001f0: b6a1 0535 64ad 9234 5d2e 49b7 b7a2 64b5

encoder.convs.1.nn.0.weight f4 [128, 128]
-0.052225374 -0.042418357 0.0034106928 -0.026017817 0.051843274 0.04709059 -0.051149603 -0.018294116
-0.04994368 -0.016488923 -0.016073043 -0.016730007 -0.039206263 0.03094823 0.016379545 -0.0050010993
-0.0072348723 -0.0019477693 0.033149205 0.023898775 -0.010988971 0.007019087 0.05098223 -0.0049476027
0.02829488 0.040371254 -0.048906837 0.020829078 -0.033527665 -0.042468004 -0.04037979 -0.008723423
0.038089216 -0.006815493 -0.02300605 -0.055931564 -0.013676121 -0.013338834 0.054005165 0.0018643517
-0.039277148 0.030385558 0.040224012 0.02170246 -0.042066425 -0.03214678 0.06989151 -0.030796628
-0.057402153 0.024732 -0.057987947 0.0003049298 0.010472121 -0.05632038 -0.046578202 -0.031338982
0.043405194 0.039214764 -0.0048602726 -0.012065146 -0.0019768563 -0.042672884 -0.041121934 0.033051077
-0.063528374 -0.030178014 -0.02258628 0.0070875827 -0.016885845 0.03741435 -0.04826269 0.006157461
-0.060072076 0.027209273 -0.020200802 -0.021623941 -0.02709774 0.030396206 -0.031961266 0.027310027
0.04325377 -0.023328112 -0.054490313 0.045676928 0.028444113 -0.020898852 -0.016858002 0.027648998
0.03870925 0.030942729 0.037754033 0.00566249 -0.030547021 0.030897511 -0.036803044 0.027179288
0.054184735 0.035090894 0.038646966 0.05059968 0.023304721 -0.04167049 -0.022954596 -0.063318685
0.03364596 -0.01871429 -0.070016906 0.01161584 -0.03406676 -0.07082187 0.0742042 0.018190604
-0.040453434 -0.01701747 -0.030878998 0.005743704 -0.042932454 -0.014976204 0.0468265 -0.015809167
-0.008478679 0.04558881 -0.040584214 -0.04604994 0.031763673 -0.04296765 0.014307857 -0.05483543
-0.013208976 -0.047336098 -0.0004309375 0.01866883 0.013460731 0.005598361 0.028121814 0.032547392
0.0439878 0.018667342 -0.031425525 -0.038969226 -0.029832529 -0.026395867 -0.010327532 0.012162787
-0.00023859323 -0.04752575 -0.025295438 -0.00011165681 0.0015495897 -0.0007210409 -0.014053698 0.047186106
-0.0035533512 0.044566285 -0.03883596 0.0028027787 0.006229826 -0.041579906 0.0074317297 -0.00044874634
-0.040980417 -0.012343695 -7.4063624e-05 -0.030430805 0.022936668 -0.0042641866 0.00082278065 -0.0013778511
0.03622431 -0.00095995545 -0.00039092376 -0.002464014 -0.00016138823 -0.00046518308 0.0016672054 -0.027128039
-0.00023440193 0.041461613 -0.0014329057 -0.034228235 -0.0004042588 4.622395e-05 -0.02574232 0.026128821
-0.010571853 -4.539828e-05 0.0013899745 -0.004045164 0.02332934 -0.0005738832 -3.2518987e-05 0.0337163
0.012415878 -0.04291932 -0.00918457 -0.004924695 -0.0054202294 -0.018735928 -0.03001473 0.03939435
-0.00044741965 -0.015777167 -0.014898533 -0.014047697 -0.00027288377 -0.052405674 0.032807387 -0.017412633
2.9105098e-07 -0.0073720748 -0.03271222 0.0026257834 -0.0005290181 0.005998329 -0.029787004 0.004849532
0.007837905 -0.01435348 -0.030406335 -0.031824343 0.0011393327 -0.0040440196 -0.018959438 0.0005949903
-0.0066924472 -0.0043343757 -0.000703476 -0.008558834 -0.0014851842 3.5139386e-05 0.0073701665 8.206805e-05
-0.016727526 1.888858e-05 -0.024819296 -0.001831476 -0.053458966 -0.009321669 -3.885958e-05 3.4605146e-05
-0.00029602743 0.0032141055 -0.0005507197 0.047883537 -0.027545715 -0.00042930487 0.0017004434 0.034334626
-0.00015066244 -7.868505e-05 -0.0005097125 0.03211156 0.00083242805 -0.0002931181 -0.01110471 -0.0011383233
00000000: 46ea 55bd dfbe 2dbd ee85 5f3b 5123 d5bc
00000010: 9d59 543d 10e2 403d 3f82 51bd 8bdd 95bc
00000020: bf91 4cbd c713 87bc 9dab 83bc 5e0d 89bc
00000030: bf96 20bd 2487 fd3c 652e 863c 43e0 a3bb
00000040: 8212 edbb 4b4c ffba 76c7 073d 5dc7 c33c
00000050: 160b 34bc 5f00 e63b bed2 503d 801f a2bb
00000060: aaca e73c 545c 253d 8952 48bd bea1 aa3c
00000070: 4e54 09bd eef2 2dbd 4765 25bd b0ec 0ebc
00000080: 7003 1c3d 8054 dfbb 2f77 bcbc 7f18 65bd
00000090: cf11 60bc 208b 5abc 8534 5d3d 435d f43a
000000a0: 13e1 20bd 22eb f83c efc1 243d 5bc9 b13c
000000b0: d84d 2cbd 58ac 03bd 4823 8f3d 3649 fcbc
000000c0: 851e 6bbd c39a ca3c c584 6dbd fcde 9f39
000000d0: 4293 2b3c 33b0 66bd c9c8 3ebd 4e5d 00bd
000000e0: a5c9 313d a99f 203d ec42 9fbb e4ac 45bc
000000f0: 258e 01bb c3c9 2ebd 796f 28bd 9160 073d
00000100: 2a1b 82bd e237 f7bc dd06 b9bc f43e e83b
00000110: 2f54 8abc ca3f 193d 19af 45bd 87c4 c93b
00000120: 230e 76bd fbe5 de3c 277c a5bc b124 b1bc
00000130: 14fc ddbc 7701 f93c d1e9 02bd 47b9 df3c
00000140: dd2a 313d 991a bfbc 3c31 5fbd bb17 3b3d
00000150: a103 e93c 1234 abbc cb19 8abc 2780 e23c
00000160: 978d 1e3d 9b7b fd3c f9a3 1a3d 698c b93b
00000170: bf3d fabc c71c fd3c cabe 16bd 19a7 de3c
00000180: d0f0 5d3d 78bb 0f3d 484c 1e3d 9c41 4f3d
00000190: 8be9 be3c adae 2abd 470b bcbc 3aad 81bd
000001a0: 59d0 093d b64e 99bc 0665 8fbd 5d50 3e3c
000001b0: 9689 0bbd 0e0b 91bd 5ff8 973d 7604 953c
000001c0: 80b2 25bd 3968 8bbc f4f5 fcbc ae35 bc3b
000001d0: f1d9 2fbd c15e 75bc 25cd 3f3d 3a82 81bc
000001e0: 28ea 0abc 55bb 3a3d a23b 26bd dd9e 3cbd
000001f0: a01a 023d d9fe 2fbd 806b 6a3c 1e9b 60bd
00000200: 766a 58bc 7fe3 41bd 74ef e1b9 60ef 983c
00000210: 668a 5c3c 7572 b73b b85f e63c 6a50 053d
00000220: 8d2c 343d 41ec 983c 0db8 00bd 329e 1fbd
00000230: 5963 f4bc 253c d8bc cf34 29bc 6d46 473c
00000240: e22e 7ab9 5caa 42bd 6138 cfbc 4b29 eab8
00000250: 9a1b cb3a 3c04 3dba 7b41 66bc 3846 413d
00000260: 57df 68bb 238b 363d 7512 1fbd d3ae 373b
00000270: 9123 cc3b b14f 2abd de85 f33b b745 ebb9
00000280: 15db 27bd 363d 4abc 9b52 9bb8 064a f9bc
00000290: aee5 bb3c 97ba 8bbb e0af 573a 0399 b4ba
000002a0: f15f 143d 85a5 7bba e6f4 ccb9 4c7b 21bb
000002b0: 533a 29b9 d1e3 f3b9 2186 da3a 9f3b debc
000002c0: cac9 75b9 a7d3 293d 56d0 bbba e832 0cbd
000002d0: b3f2 d3b9 97e0 4138 8fe1 d2bc 1c0c d63c
000002e0: 9135 2dbc 086a 3eb8 ce2f b63a 4c8d 84bb
000002f0: 2c1d bf3c a670 16ba ff64 08b8 1a1a 0a3d
00000300: f76b 4b3c 2bcc 2fbd e17a 16bc 565f a1bb
00000310: 2e9c b1bb 177c 99bc 73e1 f5bc f85b 213d
00000320: a693 eab9 1e3f 81bc fa18 74bc 5028 66bc
00000330: d711 8fb9 55a7 56bd 0a61 063d f0a4 8ebc
00000340: be41 9c34 7291 f1bb 40fd 05bd 5615 2c3b
00000350: cead 0aba a18d c43b e003 f4bc d3e8 9e3b
00000360: 8e6a 003c dc2a 6bbc b516 f9bc 3e5a 02bd
00000370: a955 953a b283 84bb d350 9bbc 20f9 1b3a
00000380: 514c dbbb 6107 8ebb 7a69 38ba 5a3a 0cbc
00000390: 83aa c2ba a162 1338 7081 f13b f31b ac38
000003a0: 2a08 89bc eb72 9e37 d651 cbbc 230e f0ba
000003b0: caf7 5abd eab9 18bc 28fd 22b8 fe24 1138
000003c0: 2134 9bb9 bea3 523b 2c5e 10ba 8721 443d
000003d0: 8da7 e1bc 5314 e1b9 6ae1 de3a 77a2 0c3d
000003e0: 24fb 1db9 b703 a5b8 3a9e 05ba 6987 033d
000003f0: 4d37 5a3a a5ad 99b9 88f0 35bc cb33 95ba

encoder.convs.1.nn.0.bias f4 [128]
-0.03813125 -0.0058318283 0.07307141 0.031182133 0.035901785 0.026043069 -0.0063130576 -0.017019454
0.04080137 0.057400193 0.0066741593 0.07284067 0.018447863 -0.03799133 0.027513748 -0.0065808482
-0.011371684 0.02364594 -0.016838467 -0.06820933 0.047768287 0.03722915 0.12166517 0.03577
0.028971283 0.078083254 -0.03146821 -0.019241283 0.062759005 -0.052275144 -0.08043473 0.017817033
-0.06584697 0.020408493 -0.07185144 0.10863715 -0.0113143325 0.015878322 -0.07142853 0.07059036
0.035338473 0.013071533 -0.07153412 -0.031129753 0.042604554 0.08778875 -0.01116773 -0.075799786
-0.030560933 0.00015737061 -0.01572224 0.005930243 -8.0073456e-05 0.010905111 0.026070667 -0.014982612
0.009388336 0.03999158 0.014622152 -0.038079143 -0.007844323 -0.017958725 -0.07270646 0.04183627
0.0036833903 0.0015485381 0.031744953 0.0761404 0.05107053 -0.0047655315 0.024683673 0.016717114
0.009440829 -0.06146973 -0.041351277 0.06593807 -0.057812203 0.011615816 0.079859376 0.03851298
0.018329982 -0.066378586 -0.0113015305 -0.025487864 0.06450757 -0.0060223048 0.060542203 -0.03848442
-0.053220946 0.068676464 0.022399357 -0.041052982 -0.012866429 -0.06267275 -0.047118045 -0.013793439
-0.043990098 0.010402798 0.087968856 0.028551517 -0.04700249 0.06984851 0.016967418 -0.055865694
-0.0135626905 0.06415152 -0.0055023157 0.024679933 0.006830196 0.009909639 0.10034691 0.00842575
-0.024552975 0.039260082 -0.007244232 -0.057106312 0.008787738 0.012046832 -0.037612867 0.0037709752
-0.033121355 -0.04583441 -0.022549639 -0.0029283913 -0.006940274 -0.011641281 0.03241983 0.074736245
00000000: 832f 1cbd ec18 bfbb 77a6 953d ac71 ff3c
00000010: c00d 133d 4658 d53c c4dd cebb 626c 8bbc
00000020: 561f 273d 771c 6b3d e8b2 da3b 7d2d 953d
00000030: f91f 973c cc9c 1bbd 8364 e13c 28a4 d7bb
00000040: 4d50 3abc 21b5 c13c d3f0 89bc 55b1 8bbd
00000050: aea8 433d 987d 183d 972b f93d 9083 123d
00000060: 2f55 ed3c 1dea 9f3d cfe4 00bd e59f 9dbc
00000070: cb87 803d 761e 56bd f7ba a4bd 07f5 913c
00000080: c7da 86bd b62f a73c d926 93bd 277d de3d
00000090: c05f 39bc 4113 823c 1f49 92bd ae91 903d
000000a0: 13bf 103d fc29 563c 7b80 92bd d303 ffbc
000000b0: 1d82 2e3d 97ca b33d dbf8 36bc eb3c 9bbd
000000c0: ec5a fabc da03 2539 edcb 80bc 7c52 c23b
000000d0: 1ced a7b8 5aab 323c 2792 d53c a179 75bc
000000e0: 89d1 193c 36ce 233d c091 6f3c e0f8 1bbd
000000f0: 7a85 00bc 2d1e 93bc 20e7 94bd 825c 2b3d
00000100: 0965 713b 51f8 ca3a ff06 023d 7fef 9b3d
00000110: 552f 513d 2d28 9cbb 6a35 ca3c 54f2 883c
00000120: b5ad 1a3c afc7 7bbd f55f 29bd 8a0a 873d
00000130: 7dcc 6cbd 4350 3e3c 508d a33d c9bf 1d3d
00000140: c228 963c 7ff1 87bd 0e2a 39bc edcb d0bc
00000150: 8b1c 843d c156 c5bb 1afb 773d d7a1 1dbd
00000160: 35fe 59bd 3fa6 8c3d db7e b73c 2c27 28bd
00000170: b7cd 52bc 925a 80bd dafe 40bd e0fd 61bc
00000180: f62e 34bd 7f70 2a3c 0429 b43d dfe4 e93c
00000190: af85 40bd bc0c 8f3d 41ff 8a3c 6dd3 64bd
000001a0: 0c36 5ebc df61 833d c54c b4bb 922d ca3c
000001b0: d6cf df3b 0a5c 223c ae82 cd3d 280c 0a3c
000001c0: 5223 c9bc 2ecf 203d 0661 edbb 4fe8 69bd
000001d0: 72fa 0f3c 1360 453c f30f 1abd 7722 773b
000001e0: 42aa 07bd ddbc 3bbd 05ba b8bc 41ea 3fbb
000001f0: 3d6b e3bb 12bb 3ebc a8ca 043d 510f 993d

encoder.convs.1.nn.2.weight f4 [128, 128]
0.0075190463 -6.883255e-06 -0.046570465 0.036584496 -0.06093722 -0.06789678 0.010978789 0.02374542
-0.03498448 0.00030584508 -0.00014976751 0.005561548 -0.0007038719 6.932089e-05 -0.046526827 0.0012386884
0.0022656547 -0.07838597 -0.07249893 -0.001372904 0.028061304 -0.03804717 -0.046049614 0.02145439
-0.006075258 0.023081448 0.010348396 -0.12646794 -0.029627645 0.020239811 -0.019218622 -0.016329631
-0.020061297 0.001730727 -0.0521516 -0.06224366 0.07710824 -0.009853742 0.0029879976 0.06985447
0.033533208 -0.07585243 -0.06880081 -0.05119951 0.10248775 -0.016767127 0.07348745 0.037041843
0.02020414 6.3117113e-06 0.02734328 -0.07079773 -0.021005247 -0.0018787254 0.0799791 0.016634291
-0.0064363726 0.0011358525 0.016788365 -0.014883029 -0.10516655 0.008347348 -0.06416954 -0.062550396
-0.04543856 0.0027025042 -0.03383755 -0.084115006 0.014071666 -0.00033547878 -0.01990237 -0.04990495
-0.062585324 -0.0033839433 -0.05345559 -0.112167 0.004791424 -0.00034799872 0.014358465 0.04466554
0.05599434 -0.027429856 0.00060562626 0.024373395 0.06562968 -0.0094784945 0.06464844 0.005212958
-0.0427473 0.053979862 -0.028618224 0.0047472366 -0.008107133 -0.0039571323 -0.056980476 -0.113019764
-0.020559203 0.030990029 0.0066758906 -0.06180539 -0.07076532 -0.004568386 0.03432576 -0.034626912
-6.042019e-06 0.075821295 0.11479301 -0.019878944 0.011645576 -0.025182432 0.003599761 -0.05177288
-0.04015594 -0.04480362 -0.01284718 0.024288138 0.019802626 0.0063983807 -0.044518054 -0.013371953
0.035908815 0.046449523 0.040782668 -0.07424709 -0.045302667 -0.010504227 -0.038389225 -0.0090729315
-0.00591908 -1.8576877e-05 -0.03705374 -0.008374529 -0.037582606 0.0357313 0.017519327 -0.002273684
0.07723218 0.055588998 4.4952827e-05 -0.021856466 0.06271347 0.022205282 -0.019199701 0.019685812
1.5204742e-09 -0.07132925 0.05051511 -0.020295065 0.100148335 0.020466214 -0.0014488986 -0.020339848
0.045957755 -0.076870166 -0.01477936 0.07168476 0.01312759 -0.022179509 -0.008974054 -0.009009818
-0.02086567 0.050871782 0.12658083 -0.060520563 -0.026975758 -0.032890677 0.116145514 0.10783548
0.07898046 -0.0007036232 -0.030679252 0.041443896 0.0027182987 -0.006559958 -0.039145306 0.052360974
0.0037190889 2.0509577e-32 0.0032023375 -0.0060085156 0.1360236 -0.049000695 -0.05248652 -0.0015710078
0.08694965 -0.035733692 0.077375494 -0.009302737 0.08912829 0.002964592 -0.03548976 0.036087163
0.09525552 0.0201331 -0.033854 0.112953015 0.015863733 -3.6538872e-06 0.016803715 0.05541335
0.010875504 -0.0040466827 0.021518003 0.017656505 0.038144846 -0.0051530697 0.067434676 0.07015353
-0.017998047 0.034964487 -8.85405e-05 0.0027831288 -0.0066935793 0.008061477 0.0069213384 -0.044870384
0.046452776 0.078586794 -0.02079284 0.037174057 0.0496331 0.027637625 -0.02261547 0.033524945
0.02899163 0.028819619 -0.06835356 0.07656192 -0.015200216 0.005829177 0.077567786 -0.03193257
0.060709734 -0.003858201 -0.081787094 0.002017815 0.0022115326 -0.018694755 0.021280115 0.12376226
0.061093833 0.07013092 -0.004367526 -6.2772892e-06 0.010016782 0.010514036 0.010710632 0.033991855
-0.0002759975 0.08631802 0.017703686 -0.007206728 0.04141603 -0.00016881405 -0.0021718368 -0.012469018
00000000: 5562 f63b b6f6 e6b6 acc0 3ebd a0d9 153d
00000010: 4e99 79bd 780d 8bbd 61e0 333c c185 c23c
00000020: e34b 0fbd d559 a039 e90a 1db9 a53d b63b
00000030: 0b84 38ba 5f60 9138 ea92 3ebd 7c5b a23a
00000040: 617b 143b d388 a0bd 527a 94bd 04f3 b3ba
00000050: d2e0 e53c 59d7 1bbd 859e 3cbd 1ec1 af3c
00000060: f512 c7bb 4e15 bd3c 528c 293c d080 01be
00000070: adb5 f2bc f6cd a53c 5f70 9dbc b8c5 85bc
00000080: 9757 a4bc 90d9 e23a eb9c 55bd 35f3 7ebd
00000090: edea 9d3d 9771 21bc 48d2 433b dc0f 8f3d
000000a0: 1e5a 093d 8558 9bbd 70e7 8cbd 94b6 51bd
000000b0: 19e5 d13d 375b 89bc 9780 963d 30b9 173d
000000c0: 2783 a53c 30c9 d336 04ff df3c 66fe 90bd
000000d0: 3213 acbc 903f f6ba 15cc a33d a344 883c
000000e0: 35e8 d2bb e3e0 943a c187 893c f3d7 73bc
000000f0: 8f61 d7bd 51c3 083c 526b 83bd 6c1a 80bd
00000100: c91d 3abd 7f1c 313b 3e99 0abd 7d44 acbd
00000110: d88c 663c 33e3 afb9 4c0a a3bc 2269 4cbd
00000120: bc2c 80bd 26c5 5dbb 40f4 5abd d0b7 e5bd
00000130: 6101 9d3b 9973 b6b9 c43f 6b3c 37f3 363d
00000140: 525a 653d 94b4 e0bc e4c2 1e3a b7aa c73c
00000150: db68 863d b04b 1bbc 6766 843d 76d1 aa3b
00000160: cb17 2fbd fd19 5d3d c470 eabc b58e 9b3b
00000170: c8d3 04bc d5aa 81bb 5c64 69bd e876 e7bd
00000180: c66b a8bc cdde fd3c 6ec1 da3b a627 7dbd
00000190: 68ed 90bd 66b2 95bb 2b99 0c3d f3d4 0dbd
000001a0: 8cbc cab6 3248 9b3d 9918 eb3d 2bd9 a2bc
000001b0: 16cd 3e3c 634b cebc f8e9 6b3b cd0f 54bd
000001c0: 8e7a 24bd 0084 37bd fa7c 52bc ebf7 c63c
000001d0: 1e39 a23c 82a9 d13b 9058 36bd 0916 5bbc
000001e0: 1f15 133d db41 3e3d ba0b 273d dc0e 98bd
000001f0: 4a8f 39bd ec19 2cbc 053e 1dbd a2a6 14bc
00000200: d8f4 c1bb 8ad5 9bb7 aac5 17bd 5235 09bc
00000210: 38f0 19bd fc5a 123d b184 8f3c 1602 15bb
00000220: e82b 9e3d 4ab1 633d bb8b 3c38 550c b3bc
00000230: eb6f 803d dae7 b53c b148 9dbc 2444 a13c
00000240: eef8 d030 1215 92bd efe8 4e3d d641 a6bc
00000250: 921a cd3d c3a8 a73c f8e8 bdba c19f a6bc
00000260: 333e 3c3d 1b6e 9dbd 2125 72bc 76cf 923d
00000270: 1a15 573c cdb1 b5bc e907 13bc ea9d 13bc
00000280: 7bee aabc ee5e 503d 689e 013e 69e4 77bd
00000290: 44fc dcbc 60b8 06bd b3dd ed3d d9d8 dc3d
000002a0: 82c0 a13d 5b73 38ba 0e53 fbbc 13c1 293d
000002b0: 7c25 323b ebf4 d6bb d456 20bd 7678 563d
000002c0: f5bb 733b cffb d40a 4fde 513b 15e3 c4bb
000002d0: c549 0b3e f4b4 48bd 1bfc 56bd 46ea cdba
000002e0: a812 b23d 7e5d 12bd 0b77 9e3d 826a 18bc
000002f0: e588 b63d 9a49 423b b65d 11bd 22d0 133d
00000300: 5315 c33d 2cee a43c 7eaa 0abd e953 e73d
00000310: a9f4 813c 4e35 75b6 f2a7 893c 1cf9 623d
00000320: 2c2f 323c 099a 84bb 8646 b03c 60a4 903c
00000330: c53d 1c3d 15db a8bb 311b 8a3d a7ac 8f3d
00000340: a470 93bc ec36 0f3d d2ae b9b8 2765 363b
00000350: d055 dbbb 4914 043c 65cc e23b 02ca 37bd
00000360: 4445 3e3d 1df2 a03d bf55 aabc d343 183d
00000370: 144c 4b3d 4d68 e23c 1444 b9bc 7451 093d
00000380: db7f ed3c 1f17 ec3c f4fc 8bbd 7fcc 9c3d
00000390: 540a 79bc ae02 bf3b dcdb 9e3d bacb 02bd
000003a0: c5aa 783d dfd9 7cbb fe7f a7bd 513d 043b
000003b0: 5cef 103b be25 99bc a353 ae3c 1177 fd3d
000003c0: 873d 7a3d cda0 8f3d 771d 8fbb 81a1 d2b6
000003d0: 6e1d 243c 1043 2c3c a67b 2f3c 0b3b 0b3d
000003e0: c2b3 90b9 81c7 b03d 5207 913c 6b26 ecbb
000003f0: dba3 293d ad03 31b9 6055 0ebb da4a 4cbc

encoder.convs.1.nn.2.bias f4 [128]
1.3510149e-06 -4.2437708e-07 1.0758429e-06 -5.165754e-06 -3.3927943e-09 -2.5292422e-07 8.495262e-07 1.547702e-06
3.672324e-07 1.2377093e-07 3.026963e-06 -1.4156565e-07 -4.298018e-06 7.826427e-07 3.3563914e-08 3.9015612e-07
4.062396e-08 -4.3250557e-07 -1.4539022e-06 1.9070457e-07 -5.213156e-07 -3.523943e-09 1.8809804e-07 -2.9281776e-07
2.6380687e-07 -8.872156e-08 -3.1932235e-08 -6.738086e-07 -4.0042537e-06 2.4690652e-07 -8.38689e-07 -2.6921208e-07
-7.500737e-07 -1.3506525e-06 3.8458427e-07 -6.706124e-07 1.5633319e-06 -8.428095e-09 1.6207827e-06 1.067792e-06
5.5585394e-07 -3.4736684e-07 7.33871e-07 -3.2798914e-07 -7.1414913e-10 -7.090177e-07 -1.2252751e-08 4.5321752e-07
4.7009468e-07 1.8961823e-07 -3.965721e-06 1.3482187e-06 -3.3964986e-07 2.7993457e-07 6.191712e-07 1.7305865e-07
1.6189578e-06 -1.2104206e-06 2.9115125e-07 1.4740012e-07 1.5268806e-07 -2.8524906e-07 3.2485687e-07 -1.2536694e-06
-6.684513e-07 -1.7972965e-06 7.929153e-08 1.059737e-08 3.2305462e-07 5.9371683e-07 5.968424e-07 -1.2411776e-06
-6.620245e-07 -2.4159042e-06 8.388835e-07 3.3426565e-07 8.5546833e-07 6.091406e-07 2.5146005e-07 -6.9989346e-07
1.7224428e-07 2.4156197e-06 -3.7333675e-07 -3.029504e-07 -2.2669799e-07 5.450161e-07 -1.6607711e-07 -9.708452e-07
-1.0976325e-06 2.7535322e-07 -1.3980876e-06 -5.699551e-07 -7.8543835e-06 -5.3208873e-07 1.2422338e-07 8.7810884e-07
-5.354113e-07 -1.1946726e-07 -2.04878e-07 1.7375021e-07 -9.188209e-07 -1.5308359e-08 -1.3421305e-06 -2.6384117e-07
-3.0443977e-07 -6.5494015e-07 -3.2332798e-07 -7.9750214e-07 -3.0669942e-06 2.1869939e-08 -1.4769744e-06 8.142505e-07
3.97382e-07 -7.577354e-08 7.6372686e-07 2.9921928e-08 1.6481052e-06 -2.369607e-07 -1.5208894e-07 -7.1915565e-06
-2.1198637e-06 7.966679e-07 -3.1875956e-08 -7.808996e-07 2.2946595e-06 1.6258028e-07 4.6036814e-07 2.5127198e-07
00000000: 8554 b535 f1d5 e3b4 ae65 9035 7d55 adb6
00000010: ab26 69b1 a4c9 87b4 ff0a 6435 a3ba cf35
00000020: 0928 c534 e5e5 0434 d422 4b36 4501 18b4
00000030: b237 90b6 cc16 5235 ea27 1033 a676 d134
00000040: 847a 2e33 1d33 e8b4 b323 c3b5 79c4 4c34
00000050: 89f0 0bb5 dc29 72b1 fff7 4934 9134 9db4
00000060: 57a1 8d34 3287 beb3 dd25 09b3 c6df 34b5
00000070: 475c 86b6 938e 8434 4522 61b5 3a88 90b4
00000080: ac58 49b5 1148 b5b5 dc78 ce34 2204 34b5
00000090: add3 d135 27cb 10b2 ab89 d935 0e51 8f35
000000a0: fe35 1535 bc7d bab4 3bff 4435 7c16 b0b4
000000b0: c74d 44b0 5353 3eb5 2b80 52b2 be51 f334
000000c0: 5261 fc34 dd99 4b34 4911 85b6 71f4 b435
000000d0: 1f59 b6b4 ea49 9634 1f35 2635 00d2 3934
000000e0: f74a d935 bc75 a2b5 864f 9c34 0945 1e34
000000f0: 93f2 2334 5524 99b4 fd67 ae34 c143 a8b5
00000100: a06f 33b5 a33a f1b5 fb46 aa33 ba0f 3632
00000110: 4a70 ad34 e95f 1f35 b336 2035 8a96 a6b5
00000120: fab5 31b5 eb20 22b6 a32f 6135 1f75 b334
00000130: 56a3 6535 d383 2335 6800 8734 50e0 3bb5
00000140: 26f2 3834 081c 2236 036f c8b4 30a5 a2b4
00000150: 456a 73b4 394d 1235 ee52 32b4 fd4d 82b5
00000160: 5e52 93b5 42d4 9334 eda5 bbb5 04ff 18b5
00000170: 52c6 03b7 dcd4 0eb5 4362 0534 2eb7 6b35
00000180: 2fb9 0fb5 e946 00b4 70fc 5bb4 1890 3a34
00000190: e4a4 76b5 707f 83b2 4123 b4b5 0ea6 8db4
000001a0: e271 a3b4 25cf 2fb5 dc95 adb4 ee13 56b5
000001b0: 8fd2 4db6 81dc bb32 743c c6b5 de92 5a35
000001c0: c457 d534 f2b8 a2b3 e902 4d35 8283 0033
000001d0: 7734 dd35 436f 7eb4 e44d 23b4 004f f1b6
000001e0: fb42 0eb6 9ada 5535 fce7 08b3 039f 51b5
000001f0: f3fd 1936 ba91 2e34 8428 f734 8fe6 8634

encoder.convs.2.nn.0.weight f4 [128, 128]
0.07759755 -0.04228519 0.014861726 -0.0024543665 0.05707465 -0.069640525 -0.05646294 0.034712043
0.013287032 0.006954648 0.08379997 -0.004873703 -0.09509497 -0.057018593 0.1103787 -0.0726504
0.065810375 0.050868418 0.032855418 -0.009247643 -0.000105721374 0.049008437 0.046203267 -0.037614774
0.0015028144 0.110719025 -0.07435107 -0.09802962 0.018507522 -0.0055858837 0.05807204 0.024099324
0.071205474 0.016160285 -0.05483981 0.044176873 -0.04638599 -0.054950517 0.032808464 -0.029667811
0.055627346 0.038628347 -0.09977109 0.10507943 -0.027889952 -0.03202977 -0.043034535 -0.060620278
-0.040119804 0.0128083015 -0.05263096 0.010812619 0.012912598 0.095238075 -0.080923796 -0.021397676
-0.005979221 0.07916238 0.0531652 0.0046579186 -0.04405954 -0.017116962 0.0062356577 0.0545188
0.051243875 0.062399108 -0.014730794 0.02652056 -0.018272063 0.02126722 -0.0007878687 0.08552051
-0.017592447 -0.017366288 -0.04603351 -0.027045283 0.064363845 -0.06994932 -0.10117254 0.012540137
0.024294356 0.079387166 0.049074117 -0.09022498 0.031826075 0.067299664 0.006226599 0.032381304
-0.06946743 0.048277937 0.011689662 -0.022027008 0.019036163 -0.03507448 0.009765447 0.033106033
0.07621398 -0.09733661 0.08305709 0.10467077 0.012363716 0.021651935 -0.032154437 0.022840844
0.08826002 0.031494003 0.108706504 -0.047207594 -0.0569936 -0.024227245 -0.032379683 0.093411915
-0.043388154 0.06500884 -0.056535244 -0.03714721 -0.024393078 0.050232336 -0.022397464 -0.056647673
-0.0049190884 -0.03624058 -0.028762018 -0.084575035 0.07098793 -0.021467362 -0.053009976 0.022783358
-0.009112166 -0.067346744 -0.04929836 -0.03673768 -0.040686503 -0.049515788 -0.0060602706 -0.007936245
-0.0071157813 -0.046654474 0.031797796 -0.036053438 0.026236743 -0.0014926167 -0.028371878 -0.03682522
-0.06660373 -0.0028422312 0.0061654896 -0.008274374 0.047412567 0.039993647 -0.035235524 0.031603828
0.0018716118 0.031558022 -0.026128123 -0.09366698 -0.05583706 -0.08132959 -0.069928035 -0.04978441
-0.04019808 0.013173706 0.07767081 0.02502392 -0.1240616 0.06632691 -0.03651471 -0.036267348
0.07939735 -0.03735308 -0.041490123 -0.03600519 0.043168526 0.0019172892 -0.020471022 -0.010412858
-0.03438775 0.042953335 0.039749958 -0.025104715 0.011027847 -0.036302704 -0.04567367 0.027361752
-0.080380596 0.009160898 -0.05737577 0.034615435 0.02124084 0.08417245 -0.07517948 0.08812777
0.04777239 0.07379547 -0.015811682 0.030457683 0.039716 -0.039724857 -0.0074211806 -0.06040173
0.0032923033 -0.03293564 -0.064976916 0.023632886 0.05966972 -0.027343249 0.050972734 -0.018425804
-0.04225175 0.0804817 0.021714484 -0.09317529 -0.063831404 0.058209702 -0.036611643 0.06922563
-0.071311414 -0.019681264 -0.06095525 0.03520137 -0.0012533659 -0.043826424 -0.038424652 -0.04819178
0.110860035 -0.05602233 0.03172241 0.050697483 0.031123318 0.022605024 -0.016362702 -0.02775738
-0.053325374 0.07929859 -0.013659948 0.008326757 -0.0512242 0.016848614 -0.07259133 0.0038654022
0.037087668 -0.026928987 -0.029293932 -0.003960473 0.051837455 0.06037434 -0.017502489 0.048492502
0.0027583921 -0.11514693 0.068695866 -0.022011986 0.05833929 -0.09197957 -0.08132301 0.008607277
00000000: 77eb 9e3d 3c33 2dbd 997e 733c 70d9 20bb
00000010: 1cc7 693d b19f 8ebd af45 67bd 372e 0e3d
00000020: dab1 593c d1e3 e33b 529f ab3d 95b3 9fbb
00000030: 27c1 c2bd 548c 69bd 3a0e e23d bcc9 94bd
00000040: 97c7 863d 675b 503d 6793 063d 6d83 17bc
00000050: bbb6 ddb8 12bd 483d a33f 3d3d f311 1abd
00000060: 15fa c43a a8c0 e23d 6045 98bd c1c3 c8bd
00000070: 169d 973c ca09 b7bb f3dc 6d3d f26b c53c
00000080: 2dd4 913d 9362 843c b59f 60bd cff2 343d
00000090: 3cff 3dbd cb13 61bd 2b62 063d e909 f3bc
000000a0: 80d9 633d c238 1e3d c954 ccbd e233 d73d
000000b0: 7879 e4bc a631 03bd fb44 30bd f84c 78bd
000000c0: aa54 24bd e9d9 513c 9093 57bd 6927 313c
000000d0: 5d8f 533c 2e0c c33d 60bb a5bd 2e4a afbc
000000e0: 57ed c3bb e31f a23d c1c3 593d 74a1 983b
000000f0: c777 34bd df38 8cbc 7d54 cc3b 1b4f 5f3d
00000100: 19e5 513d 3596 7f3d 6e59 71bc a541 d93c
00000110: 4baf 95bc 9838 ae3c f988 4eba 6125 af3d
00000120: 091e 90bc bf43 8ebc a28d 3cbd 128e ddbc
00000130: 31d1 833d 9741 8fbd 8c33 cfbd 2675 4d3c
00000140: f504 c73c bd95 a23d f101 493d e0c7 b8bd
00000150: 0f5c 023d 68d4 893d 8008 cc3b 42a2 043d
00000160: f144 8ebd 16bf 453d ff85 3f3c fc71 b4bc
00000170: baf1 9b3c 42aa 0fbd 41ff 1f3c 319a 073d
00000180: 1316 9c3d 6b58 c7bd d619 aa3d a15d d63d
00000190: 2f91 4a3c 665f b13c 5fb4 03bd b91c bb3c
000001a0: abc1 b43d dbff 003d 84a1 de3d c05c 41bd
000001b0: 1f72 69bd 3778 c6bc 8fa0 04bd bf4e bf3d
000001c0: c7b7 31bd 5b23 853d 8091 67bd ac27 18bd
000001d0: fed3 c7bc 6cc0 4d3d e37a b7bc 6407 68bd
000001e0: 4e30 a1bb 0171 14bd 539e ebbc ad35 adbd
000001f0: 1f62 913d 52dc afbc fd20 59bd 2aa4 ba3c
00000200: 324b 15bc 17ed 89bd 14ed 49bd 407a 16bd
00000210: e4a6 26bd 11d1 4abd 3c95 c6bb 0607 02bc
00000220: 802b e9bb c318 3fbd 683e 023d c5ac 13bd
00000230: 70ee d63c e8a3 c3ba 246c e8bc 0bd6 16bd
00000240: 8967 88bd ba44 3abb e007 ca3b 3d91 07bc
00000250: ae33 423d 61d0 233d 2053 10bd 0473 013d
00000260: df50 f53a fc42 013d a50a d6bc 79d4 bfbd
00000270: 67b5 64bd 2190 a6bd 6e36 8fbd bdea 4bbd
00000280: bea6 24bd 87d6 573c e011 9f3d f7fe cc3c
00000290: 0214 febd 67d6 873d 7390 15bd 128d 14bd
000002a0: 149b a23d 8bff 18bd 8cf1 29bd 2e7a 13bd
000002b0: 7bd1 303d 8d4d fb3a d8b2 a7bc b19a 2abc
000002c0: 2bda 0cbd d6ef 2f3d dad0 223d 67a8 cdbc
000002d0: 25ae 343c 25b2 14bd 5014 3bbd c125 e03c
000002e0: 959e a4bd 9717 163c db02 6bbd eac8 0d3d
000002f0: 4501 ae3c 9b62 ac3d b3f7 99bd 557c b43d
00000300: fbac 433d 1422 973d 8087 81bc 6482 f93c
00000310: 3fad 223d 88b6 22bd 602d f3bb ce67 77bd
00000320: afc3 573b 86e7 06bd 9e12 85bd c199 c13c
00000330: 3c68 743d f3fe dfbc c9c8 503d b6f1 96bc
00000340: 2c10 2dbd 97d3 a43d 93e2 b13c b0d2 bebd
00000350: 0aba 82bd 4c6d 6e3d 17f6 15bd 2bc6 8d3d
00000360: b80b 92bd 9a3a a1bc 36ac 79bd 502f 103d
00000370: fb47 a4ba 5683 33bd 2b63 1dbd be64 45bd
00000380: 960a e33d ac77 65bd 5cef 013d 2aa8 4f3d
00000390: 54f6 fe3c 2c2e b93c 130b 86bc 7263 e3bc
000003a0: b56b 5abd 4d67 a23d f9cd 5fbc f36c 083c
000003b0: 77d0 51bd 1b06 8a3c c3aa 94bd b052 7d3b
000003c0: 3de9 173d 2e9a dcbc d4f9 efbc dbc6 81bb
000003d0: 8353 543d 154b 773d 6161 8fbc 13a0 463d
000003e0: 24c6 343b 27d2 ebbd 6bb0 8c3d 7b52 b4bc
000003f0: 2ef5 6e3d c95f bcbd ae8c a6bd 8905 0d3c

encoder.convs.2.nn.0.bias f4 [128]
0.008888703 0.08508257 -0.06494068 0.06107963 -0.009146845 -0.046810225 0.048295733 0.078433536
0.04770896 0.049963426 0.042631526 0.041301247 0.023269096 0.101875134 0.008349456 -0.014537811
0.02530532 0.00020203352 0.0031463122 0.0039180624 0.00986959 -0.06901388 0.033922445 -0.049313776
0.037390687 -0.028919922 0.014825458 0.015400063 0.01508316 0.046042792 0.018775055 -0.010487069
0.05033752 0.052380342 0.105266124 0.052360356 0.10325219 0.02396873 0.072523825 0.10196332
0.10224988 0.0039066435 0.06354915 0.026342055 -0.0054322686 0.056954984 -0.0047614076 0.084292844
0.11768469 -0.0019819026 -0.052035008 0.10061384 0.042228404 -0.00562755 -0.029393638 0.06664791
0.04762603 -0.004525819 0.042439234 0.018185409 0.004981053 -0.0047710687 0.09265217 -0.008801883
-0.020347208 0.060976893 -0.03244912 -0.028369375 0.12616003 0.054439716 -0.06668508 -0.052787118
0.035673887 -0.09023675 -0.026642049 -0.024170728 0.0115276575 -0.03565119 -0.022083547 0.013456631
0.041489407 -0.009680483 0.017168041 0.00042289356 0.01586025 -0.054077443 0.05700511 -0.04945347
0.004517475 0.06283964 0.11753623 0.005099005 0.10565551 0.13304046 0.08179431 -0.007339521
0.022902567 0.01998182 0.016981987 -0.03858348 0.016683726 -0.010885608 0.02630663 0.0048837536
0.092705704 0.029831098 -0.012378266 0.048139326 -0.028608194 0.028425839 -0.0061855344 0.027506474
-0.053328995 0.13237788 -0.014809805 0.009111384 -0.0108640725 -0.04591237 0.07449544 -0.091834836
0.04413799 0.0032797607 -0.009140364 0.07446285 -0.011337022 -0.045622274 0.0012994884 -0.025037743
00000000: eca1 113c c53f ae3d 9fff 84bd a22e 7a3d
00000010: a6dc 15bc 14bc 3fbd bfd1 453d c3a1 a03d
00000020: 786a 433d 73a6 4c3d 659e 2e3d 7f2b 293d
00000030: d59e be3c e9a3 d03d 28cc 083c 0030 6ebc
00000040: 1a4d cf3c f6d8 5339 5c32 4e3b 1763 803b
00000050: 10b4 213c 2657 8dbd 43f2 0a3d 3efd 49bd
00000060: fa26 193d 79e9 ecbc 7ae6 723c 8c50 7c3c
00000070: 5c1f 773c 5e97 3c3d 25ce 993c f5d1 2bbc
00000080: b72e 4e3d c58c 563d c495 d73d d077 563d
00000090: e275 d33d 125a c43c 5f87 943d 25d2 d03d
000000a0: 6368 d13d 4d03 803b 0f26 823d 4bcb d73c
000000b0: 2c01 b2bb a149 693d 9505 9cbb baa1 ac3d
000000c0: ac04 f13d cfe2 01bb a922 55bd a10e ce3d
000000d0: b1f7 2c3d 5067 b8bb edca f0bc b37e 883d
000000e0: 8313 433d 524d 94bb c3d4 2d3d 91f9 943c
000000f0: 1a38 a33b a056 9cbb 6cc0 bd3d c635 10bc
00000100: 30af a6bc e8c2 793d 5ee9 04bd e466 e8bc
00000110: 1830 013e 2efc 5e3d 3092 88bd 4e37 58bd
00000120: c81e 123d 0cce b8bd 6d40 dabc b101 c6bc
00000130: 80de 3c3c fb06 12bd 8ee8 b4bc 3479 5c3c
00000140: ccf0 293d e39a 1ebc fea3 8c3c d0b7 dd39
00000150: 5bed 813c 4f80 5dbd 317e 693d b98f 4abd
00000160: 5407 943b 12b2 803d d6b6 f03d 8e15 a73b
00000170: eb61 d83d c23b 083e c683 a73d 5d80 f0bb
00000180: 2a9e bb3c eab0 a33c cf1d 8b3c b609 1ebd
00000190: 4fac 883c 8d59 32bc 0081 d73c e507 a03b
000001a0: 7ddc bd3d 5960 f43c 36ce 4abc be2d 453d
000001b0: bb5b eabc 4edd e83c 06b0 cabb 4255 e13c
000001c0: 816f 5abd 118e 073e d3a4 72bc ea47 153c
000001d0: 39ff 31bc 9c0e 3cbd 1191 983d e713 bcbd
000001e0: 09ca 343d 41f1 563b 77c1 15bc fb7f 983d
000001f0: ebbe 39bc 6cde 3abd 9853 aa3a f41b cdbc
