joinrank/models/ranker_regularized/best_model.pt (torch, 532597 bytes, 67 tensors)

encoder.convs.0.nn.0.weight f4 [64, 64]
0.067091346 0.12052733 -0.04899784 -0.08377488 -0.026916916 -0.046237744 -0.065287456 -0.012878928
-0.0067382907 -0.08062422 0.09053914 -0.0886508 1.4475619e-08 4.7884705e-16 -0.010204771 -0.002372155
1.4351814e-06 -0.006552368 0.009800981 -1.0703778e-16 6.1918016e-17 -3.1210312e-10 0.0111884205 0.0084450925
-0.007748756 1.3596146e-05 0.0046436065 0.002026519 8.209395e-14 5.7508385e-07 1.1981305e-08 2.0736546e-14
8.907915e-12 -8.389858e-05 -1.1312273e-12 8.6897406e-11 0.00013007727 0.008688017 9.4082814e-08 -4.5088157e-16
0.00039520406 0.0014141124 0.0011864257 -1.2994643e-16 3.8328542e-07 6.477014e-07 -1.8627821e-05 8.778463e-06
-0.0039590118 -0.009222821 -0.0016041823 -0.010313003 3.9052245e-16 -6.020354e-16 -3.8964174e-10 0.009104151
0.00047028548 -3.0468523e-09 -1.1440984e-07 4.9665516e-05 -0.0006569714 7.477447e-06 -4.4442514e-15 -2.7890677e-15
-0.007965175 0.01239611 -1.5682711e-15 -0.0009285235 -0.00020199822 -0.0038456777 -0.00036010318 -0.0014534174
-1.9911982e-10 -2.122426e-12 0.043116495 0.005461965 -0.00021062946 -1.1848835e-15 5.0999694e-11 -0.00083673216
-1.0542905e-11 1.4326239e-10 0.008734475 -5.1124225e-14 -0.00024646937 -0.005597352 5.187772e-15 -0.0053860527
0.0031291242 0.0048085577 1.4369516e-16 -0.011355499 -2.231047e-07 1.5607216e-17 1.4281685e-16 0.0032204525
-4.7400746e-08 -0.0046981145 -4.715383e-16 7.441287e-17 0.0001503089 -1.3837587e-15 -0.0068178205 0.0076014004
-3.3900752e-14 -3.126213e-10 1.4666576e-12 2.8650632e-07 -2.6128163e-14 0.010382754 -3.8598942e-16 0.0042701424
3.462677e-14 -0.008022425 1.2734178e-13 -4.5049208e-05 8.784751e-09 7.377282e-12 0.011923034 -0.008627943
7.144116e-14 -0.0058181286 -1.9626569e-16 -5.2494506e-05 0.002501777 -0.009766207 0.0045247343 0.013557157
-0.009111862 0.0045809527 -0.0017097462 1.6497208e-15 -7.073366e-09 -6.2778344e-07 -0.0047688303 -2.6455181e-12
-2.0647084e-10 0.00011009808 -0.0076491702 -1.3094103e-13 0.0009772318 0.0042927344 0.00010220036 6.547941e-15
0.00035859458 -1.2559202e-16 0.010901876 -0.00053118245 -9.1891726e-17 0.0034475191 -0.001829394 1.7519063e-05
1.9965774e-11 3.606828e-15 1.3696565e-16 0.0065902853 -0.0072353506 5.975844e-05 -1.4434475e-12 -0.0008026543
-0.00096323556 -3.1883437e-11 0.0030842607 0.00042341495 5.1776364e-11 1.22686505e-14 0.000100511636 -0.009988791
0.0013611146 -2.7433206e-08 -0.0067514786 2.996317e-14 -6.7933614e-14 -0.0060650534 1.8821131e-14 -0.013431129
-9.032568e-17 -1.0779313e-06 0.012502921 -0.0044136806 0.006759743 -0.009230745 -1.2408465e-12 -0.005925146
6.747572e-14 -0.011742013 1.4032915e-05 -0.013095717 -0.0006224481 -4.493999e-16 0.0003370453 1.0772415e-15
-0.00928612 -5.807125e-17 0.002457065 0.00022106632 -1.8240045e-16 -0.0011865915 -0.006215753 -4.2850302e-12
0.002838902 2.4807098e-15 0.0035306192 -1.9547196e-16 0.011942398 -1.697027e-15 -0.0037552845 -0.00021986102
-0.00011352469 -1.935211e-15 -4.4515663e-16 -0.011699231 0.008207451 3.4516158e-06 -2.0867569e-10 3.6520584e-14
0.006941033 0.0019959721 0.008724998 -1.4997689e-14 -2.3915642e-05 0.00051714637 0.0016314372 2.1081604e-07
0.007952545 2.677865e-10 -0.014416753 -0.008127873 -4.003527e-15 -8.629326e-18 -0.004952069 -8.0121953e-16
-4.3648856e-06 2.6802121e-05 -0.003730336 -4.3958236e-05 0.003940401 0.00547645 -0.0026323127 2.6326694e-17
-0.0015563028 -3.4637975e-07 -0.00018959018 8.732002e-05 4.851048e-17 2.857489e-16 1.2798201e-11 -2.6920625e-06
0.00049018394 -1.8769841e-16 -1.8542568e-15 -0.00068175164 0.0010290355 -0.0012975705 0.0001313037 -0.0001566755
00000000: 3067 893d 08d7 f63d f6b1 48bd 2a92 abbd
00000010: dd80 dcbc ca63 3dbd 6eb5 85bd 2402 53bc
00000020: e1cc dcbb 501e a5bd 966c b93d 8d8e b5bd
00000030: 72b0 7832 ad04 0a26 e931 27bc 2876 1bbb
00000040: 75a0 c035 3fb5 d6bb 4b94 203c f4cf f6a4
00000050: f2c5 8e24 9c94 abaf a34f 373c 495d 0a3c
00000060: 47e9 fdbb 011b 6437 6529 983b 59cf 043b
00000070: f1db b829 765f 1a35 56d6 4d32 38c7 ba28
00000080: afb5 1c2d b5f2 afb8 c234 9fab e416 bf2e
00000090: 5a65 0839 2f58 0e3c 930a ca33 30f5 01a6
000000a0: 6433 cf39 bd59 b93a d781 9b3a 6bd1 15a5
000000b0: 59c6 cd34 b4dd 2d35 f142 9cb7 3647 1337
000000c0: 99ba 81bb 511b 17bc 6d43 d2ba dff7 28bc
000000d0: f11e e125 5f86 2da6 3335 d6af 9429 153c
000000e0: a690 f639 cb60 51b1 7ab1 f5b3 f14f 5038
000000f0: 9b38 2cba c8e6 fa36 fc1e a0a7 38f9 48a7
00000100: 5e80 02bc 0e19 4b3c fe02 e2a6 2868 73ba
00000110: 7ccf 53b9 c407 7cbb 3bcc bcb9 9880 beba
00000120: 3fef 5aaf 3a5a 15ac ec9a 303d 49fa b23b
00000130: 6adc 5cb9 7cc2 aaa6 8d4c 602e 2558 5bba
00000140: 0679 39ad c784 1d2f 0b1b 0f3c 383e 66a9
00000150: 8f38 81b9 fe69 b7bb c0e8 ba27 7c7d b0bb
00000160: fe11 4d3b 1b91 9d3b 53ab 2525 6a0c 3abc
00000170: 8e8e 6fb4 7ff3 8f23 18a8 2425 3a0e 533b
00000180: ac95 4bb3 a4f2 99bb 63e9 07a6 9b95 ab24
00000190: 3d9c 1d39 af6b c7a6 0668 dfbb 2b15 f93b
000001a0: e8ac 18a9 89dd abaf e969 ce2b 21d1 9934
000001b0: 7157 eba8 6d1c 2a3c fc81 dea5 8dec 8b3b
000001c0: f3f1 1b29 7d70 03bc c55f 0f2a 38f3 3cb8
000001d0: beeb 1632 53c8 012d d458 433c 375c 0dbc
000001e0: 06df a029 00a6 bebb 6847 62a5 8c2d 5cb8
000001f0: daf4 233b 7102 20bc 3944 943b d61e 5e3c
00000200: eb49 15bc d11b 963b 9019 e0ba f4bf ed26
00000210: fc09 f3b1 f384 28b5 d943 9cbb 6b29 3aac
00000220: 6004 63af 75e4 e638 e4a5 fabb 2f6d 13aa
00000230: 7516 803a 11aa 8c3b 6754 d638 19ea eb27
00000240: c001 bc39 39cc 10a5 c89d 323c 0d3f 0bba
00000250: 4de3 d3a4 c6ef 613b 47c8 efba e7f5 9237
00000260: ed9e af2d 1ef3 8127 20e9 1d25 52f3 d73b
00000270: 8516 edbb 23a5 7a38 ad25 cbab 3869 52ba
00000280: a581 7cba 8f39 0cae 4f21 4a3b cbfd dd39
00000290: 01b7 632e 2a03 5d28 c6c9 d238 07a8 23bc
000002a0: 6d67 b23a 42a6 ebb2 823b ddbb 2ff1 0629
000002b0: 10f9 98a9 5bbd c6bb 9386 a928 3d0e 5cbc
000002c0: df46 d0a4 70ad 90b5 0dd9 4c3c a3a0 90bb
000002d0: d680 dd3b 8d3c 17bc 35a2 aeab ba27 c2bb
000002e0: 1bf1 9729 9261 40bc e96e 6b37 6b8f 56bc
000002f0: c92b 23ba dc87 01a6 74b5 b039 323f 9b26
00000300: cf24 18bc 37e7 85a4 b606 213b 0ace 6739
00000310: 1c4b 52a5 6787 9bba 84ad cbbb 1fc4 96ac
00000320: df0c 3a3b 05c1 3227 f661 673b 245d 61a5
00000330: 0caa 433c 3f91 f4a6 381b 76bb 7e8a 66b9
00000340: 1b14 eeb8 5872 0ba7 c34e 00a6 22ae 3fbc
00000350: 8b78 063c 4fa2 6736 fc70 65af 5e79 2429
00000360: 9b71 e33b dbce 023b 4bf3 0e3c 5116 87a8
00000370: 739e c8b7 1b91 073a f3d5 d53a ac5c 6234
00000380: 644b 023c 9937 932f 3f34 6cbc c52a 05bc
00000390: 053e 90a7 d72e 1fa3 f744 a2bb 91ef 66a6
000003a0: 1576 92b6 1ed5 e037 a778 74bb cc5f 38b8
000003b0: 7b1e 813b cb73 b33b e182 2cbb 26d2 f223
000003c0: dbfc cbba 12f6 b9b4 bacc 46b9 941f b738
000003d0: 11b7 5f24 18b9 a425 f925 612d 48a9 34b6
000003e0: b07f 003a cb66 58a5 009d 05a7 94b7 32ba
000003f0: b4e0 863a 3e13 aaba 92ae 0939 4249 24b9

encoder.convs.0.nn.0.bias f4 [64]
-0.043853205 -0.020157129 0.011539794 -3.7486167e-15 -1.1300616e-07 1.0503246e-06 -0.010949469 4.2429238e-07
-0.062944934 0.10352809 -0.0603068 0.09786692 -0.0080756545 -1.7465552e-05 -6.237337e-07 -0.08926555
-0.106141135 -0.01805287 0.00091309607 0.04962246 -0.0016334928 -0.029382244 -0.0032327827 -0.05051958
0.09229817 -0.002581394 -0.054067463 0.035704914 -0.100256026 -0.00020578472 7.7056335e-09 0.011061404
-5.7902184e-07 0.008587332 3.0097056e-06 0.066925704 -8.2737797e-16 -0.0024768114 -9.0552913e-07 0.010061965
0.08139363 -0.08989741 0.02628439 -1.9283892e-08 -0.0658181 0.012833506 0.0055063865 0.038886283
1.1259107e-06 0.028638473 0.0037539222 0.020764614 3.911267e-16 -0.02027205 0.014539657 -7.466423e-08
3.0261017e-05 0.017182747 -0.0002486336 -0.07311749 0.09226183 -0.06308699 1.3417461e-13 0.013605791
00000000: 6b9f 33bd 9020 a5bc 6711 3d3c e30e 87a7
00000010: cbad f2b3 e1f8 8c35 6765 33bc 4dca e334
00000020: 46e9 80bd 8906 d43d 4304 77bd 746e c83d
00000030: c04f 04bc fd82 92b7 a76e 27b5 dbd0 b6bd
00000040: 8660 d9bd 9de3 93bc d75c 6f3a ec40 4b3d
00000050: ec1a d6ba 08b3 f0bc 18dd 53bb 9eed 4ebd
00000060: d306 bd3d 9b2c 29bb d875 5dbd 513f 123d
00000070: 0853 cdbd eac7 57b9 bc61 0432 e43a 353c
00000080: 146e 1bb5 e2b1 0c3c 59fa 4936 5810 893d
00000090: b879 6ea6 0052 22bb 7d13 73b5 f1da 243c
000000a0: b4b1 a63d 221c b8bd 5c52 d73c baa5 a5b2
000000b0: a4cb 86bd a043 523c eb6e b43b 3947 1f3d
000000c0: ff1d 9735 3b9b ea3c 5d04 763b 8d1a aa3c
000000d0: 1d78 e125 9211 a6bc be37 6e3c 1857 a0b3
000000e0: 0ad9 fd37 d5c2 8c3c 095b 82b9 9fbe 95bd
000000f0: c5f3 bc3d c033 81bd 3311 172a d3ea 5e3c

encoder.convs.0.nn.2.weight f4 [64, 64]
-0.06548187 -1.7544334e-12 2.5118493e-10 -0.010317264 -0.029785356 0.007237477 0.06054789 0.010066556
-0.033417497 0.07076262 -0.0011351309 -0.05734894 0.1077777 0.00065391365 -0.0945098 0.121416695
-0.05881836 -0.0009951148 -0.019835493 -0.08124394 -8.403219e-05 -0.028593812 1.0900464e-07 0.106889114
-0.046906617 6.500639e-05 -0.062489998 -0.0099091325 0.08020296 -0.00016754655 0.00013211866 -0.03735253
0.0014051067 -0.004241439 -2.1449795e-08 0.04180727 -0.0024253996 0.0027597619 0.07146735 -0.03704997
0.031655904 0.10894209 0.013699618 -0.06639758 0.026642404 0.0069371634 0.0072121844 -0.00039333216
-0.02829125 0.013560031 0.0040892474 0.010759146 7.514587e-09 -0.006804765 -0.00015078297 -2.077262e-16
-0.06875539 -0.08608871 -0.069580145 0.09439243 0.03642328 -0.045718618 2.2135077e-05 0.0035220517
0.104403436 -0.0027537227 3.142037e-10 2.206924e-12 0.06355053 0.11858499 0.035774253 -0.008019469
0.031824943 -0.06838466 -0.0009818194 -0.10005463 -0.081385635 -0.0029593476 -0.04462083 -0.09650314
-0.009254355 0.008701867 -0.037891287 0.09277215 -0.0021998342 0.04100015 5.202779e-16 -0.07850901
0.11300197 0.01294817 -0.081056915 -0.07369613 0.12256973 0.0007027127 -2.5904444e-06 0.07465338
0.074888535 -0.015437068 6.5388024e-09 5.2558316e-05 -0.010924627 -0.04554024 -0.048336193 -0.026160374
0.085582815 0.04700364 -0.06332251 -0.084669106 -0.007954614 0.0036448825 -0.00012866904 -0.010825412
0.05374511 0.030822385 -0.035985164 0.00028503902 1.165308e-17 -0.05299706 0.00031144137 -0.00047504134
-0.0151252225 -0.03415454 -0.017519478 0.020081086 0.08851039 0.04216449 -2.1005669e-13 -0.02884647
-0.025788577 -1.7064438e-06 0.0028958663 0.0024509353 0.027575465 0.054825597 -0.04860975 -3.5748033e-17
-0.032001622 0.097365245 -0.035542544 -0.00034295794 0.04966919 -3.0327464e-15 -0.1034508 0.06819477
0.06558862 0.0006381955 0.011798867 -0.005381758 8.386258e-07 -0.12010408 -0.014073321 0.087470405
-0.07563025 -0.011307234 -0.07548224 -0.0152209895 -0.08685004 5.9569138e-05 2.0943145e-09 -0.0026323332
0.011107483 0.009762873 -0.013650179 0.00014987982 -0.00044016825 0.08130223 0.060271464 -0.09366519
-0.09058889 0.07624242 0.10972081 0.098196976 0.030184884 -3.238927e-13 1.9786998e-05 1.9827308e-08
0.06727504 0.08159002 0.01223381 0.014860737 0.010368282 0.035625633 -6.5959225e-18 1.260468e-05
-0.04156613 -0.013583789 -0.08237033 -0.07372895 0.044890005 -0.08585418 -0.0018553707 0.0070371814
0.057476785 -3.62479e-05 -0.006561514 0.0009125445 -0.09776323 0.014522267 -0.007661683 1.4846979e-05
-0.0017953673 -0.0030341987 -0.023579024 0.06700362 0.0024867342 -0.0015467319 -0.08479204 0.042552855
-0.04856108 -0.007728332 0.035453282 -0.1096442 3.974587e-07 0.071406186 -2.145155e-07 0.010158658
0.052225906 -0.0088357 0.036348622 0.03855685 -0.10969113 1.5935485e-06 0.005314974 0.017300665
-0.019905323 -0.019350851 -0.00055070146 0.028312718 -0.0028142475 0.084807 0.121397056 0.048008434
-0.09466181 0.030012175 -0.023872327 -0.03613873 0.029997563 2.3590472e-13 -5.064868e-07 0.0013820124
-0.013595604 0.05582201 0.08888347 -1.6292214e-08 -2.6856183e-16 -0.05784099 -1.1319462e-14 0.0044407197
0.008029439 0.0055451957 0.12813947 0.114699684 -0.07575961 0.013349294 0.0020604106 -0.00036287273
00000000: 5c1b 86bd 20ea f6ab 2317 8a2f be09 29bc
00000010: 6b00 f4bc 5c28 ed3b 1001 783d 32ee 243c
00000020: c9e0 08bd feeb 903d acc8 94ba b9e6 6abd
00000030: 8eba dc3d 676b 2b3a 5b8e c1bd 51a9 f83d
00000040: 85eb 70bd 836e 82ba 0b7e a2bc 3963 a6bd
00000050: 703a b0b8 923d eabc ef15 ea33 aee8 da3d
00000060: 2721 40bd 0a54 8838 83f5 7fbd ea59 22bc
00000070: 7341 a43d 6faf 2fb9 5589 0a39 f7fe 18bd
00000080: 8f2b b83a c5fb 8abb 9940 b8b2 1a3e 2b3d
00000090: 74f3 1ebb 1fdd 343b 795d 923d b6c1 17bd
000000a0: 9fa9 013d 081d df3d 5d74 603c 74fb 87bd
000000b0: 2c41 da3c 2551 e33b 3054 ec3b 2638 ceb9
000000c0: 0dc3 e7bc e42a 5e3c 18ff 853b 2147 303c
000000d0: 8119 0132 82fa debb 7f1b 1eb9 f47d 6fa5
000000e0: a0cf 8cbd 474f b0bd 0980 8ebd d150 c13d
000000f0: 9430 153d 7243 3bbd b7ae b937 39d2 663b
00000100: 78d1 d53d cd77 34bb 3dbc ac2f 694c 1b2c
00000110: c826 823d b0dc f23d 0688 123d 1764 03bc
00000120: df5a 023d 420d 8cbd 64b0 80ba 71e9 ccbd
00000130: 83ad a6bd 9df1 41bb 55c4 36bd 70a3 c5bd
00000140: 949f 17bc 4792 0e3c e533 1bbd 53ff bd3d
00000150: 182b 10bb c6ef 273d bcf5 1526 55c9 a0bd
00000160: 946d e73d 9024 543c 2b01 a6bd ffed 96bd
00000170: d705 fb3d 4036 383a 7fd7 2db6 dfe3 983d
00000180: 295f 993d c2eb 7cbc eaab e031 1072 5c38
00000190: 35fd 32bc 6788 3abd 2cfc 45bd 484e d6bc
000001a0: 0b46 af3d e486 403d 3baf 81bd ff66 adbd
000001b0: 1254 02bc fbde 6e3b 55eb 06b9 125d 31bc
000001c0: d523 5c3d 3a7f fc3c 2e65 13bd 4a71 9539
000001d0: 1df6 5623 7213 59bd f448 a339 f80e f9b9
000001e0: c8cf 77bc a2e5 0bbd 0285 8fbc 1781 a43c
000001f0: ef44 b53d acb4 2c3d b880 6caa 6f4f ecbc
00000200: 9142 d3bc f608 e5b5 93c8 3d3b df9f 203b
00000210: f1e5 e13c ce90 603d 041b 47bd d4db 24a4
00000220: 2214 03bd 6e67 c73d 0f95 11bd 09cf b3b9
00000230: ec71 4b3d 4c88 5aa7 03de d3bd b3a9 8b3d
00000240: 5453 863d 934c 273a 0950 413c 7559 b0bb
00000250: ed1d 6135 21f9 f5bd c993 66bc af23 b33d
00000260: 08e4 9abd fa41 39bc 6f96 9abd 7561 79bc
00000270: 6fde b1bd e0d9 7938 92eb 0f31 3983 2cbb
00000280: 29fc 353c 75f4 1f3c 00a5 5fbc 0f29 1d39
00000290: 62c6 e6b9 c981 a63d 36df 763d 89d3 bfbd
000002a0: ab86 b9bd fc24 9c3d 4eb5 e03d 7f1b c93d
000002b0: 4a46 f73c db55 b6aa 41fc a537 b650 aa32
000002c0: 7fc7 893d ab18 a73d 5170 483c 737a 733c
000002d0: badf 293c 2fec 113d ba58 f3a2 b078 5337
000002e0: 3f41 2abd 8a8e 5ebc c7b1 a8bd 34ff 96bd
000002f0: 95de 373d 51d4 afbd e92f f3ba 2898 e63b
00000300: c76c 6b3d e308 18b8 f801 d7bb d337 6f3a
00000310: 1738 c8bd cdee 6d3c db0e fbbb 4a17 7937
00000320: 8852 ebba 68d9 46bb cc28 c1bc 3239 893d
00000330: 7af8 223b b6bb caba 73a7 adbd e74b 2e3d
00000340: fce7 46bd f33d fdbb 7637 113d 238d e0bd
00000350: 4f62 d534 683d 923d 9255 66b4 8070 263c
00000360: d5ea 553d 9dc3 10bc 4be2 143d caed 1d3d
00000370: bea5 e0bd e9e1 d535 3c29 ae3b 20ba 8d3c
00000380: 7d10 a3bc ad85 9ebc f35c 10ba 13f0 e73c
00000390: 3d6f 38bb 4baf ad3d 059f f83d 7ea4 443d
000003a0: 0dde c1bd 18dc f53c e68f c3bc 3406 14bd
000003b0: 73bd f53c 74cd 842a 82f5 07b5 a424 b53a
000003c0: 19c0 5ebc 9fa5 643d 8908 b63d f5f2 8bb2
000003d0: bbd0 9aa5 adea 6cbd cee9 4ba8 7583 913b
000003e0: e88d 033c 79b4 b53b fe36 033e abe7 ea3d
000003f0: db27 9bbd ffb6 5a3c f407 073b f43f beb9

encoder.convs.0.nn.2.bias f4 [64]
0.00094847503 -0.00013152824 2.7642673e-05 0.011761151 1.0505879e-06 0.0035422374 0.00018382071 -0.0055202143
0.012708424 3.7224565e-06 2.2776532e-05 -1.4891963e-06 8.438934e-05 -1.558301e-06 4.868875e-07 2.1095357e-07
-2.464144e-07 -3.5276864e-07 -1.6544985e-06 -0.007309644 0.0077839936 1.8445454e-07 -0.009158614 0.0016241639
-0.0136557715 -0.0035856273 -2.5786383e-06 0.00035304463 -7.1666506e-08 -5.504813e-07 5.050367e-05 0.0091017
0.0027576599 -2.0059683e-06 7.658749e-07 -1.6341822e-06 -2.055284e-07 -3.5255612e-06 -1.3278219e-06 0.0019798367
-6.0560673e-05 0.0063953903 -0.0004888484 0.007517697 7.4013094e-08 -0.006552285 1.3705361e-06 -2.2028803e-06
0.0001013764 0.002215202 -8.150108e-08 -0.0016724133 1.9739264e-06 0.01291918 0.001303467 -0.00186241
7.6358646e-07 -0.0014979104 0.0007241614 0.001984696 0.00017061249 -2.3009262e-07 0.0059606335 -0.0012343443
00000000: 15a3 783a d8ea 09b9 30e2 e737 d8b1 403c
00000010: ed01 8d35 e224 683b ffbf 4039 eae2 b4bb
00000020: fe36 503c 51cf 7936 3b10 bf37 65e0 c7b5
00000030: 2ffa b038 d126 d1b5 a7b2 0235 7a82 6234
00000040: f04a 84b4 2764 bdb4 2310 deb5 bd85 efbb
00000050: df10 ff3b 7a0e 4634 030e 16bc e6e1 d43a
00000060: 75bc 5fbc d8fc 6abb ab0c 2db6 d918 b939
00000070: 14e7 99b3 c9c4 13b5 e7d3 5338 4c1f 153c
00000080: dbb9 343b 469e 06b6 8696 4d35 1356 dbb5
00000090: 37af 5cb4 ae98 6cb6 9d37 b2b5 26c0 013b
000000a0: 8702 7eb8 6c90 d13b 1026 00ba 0357 f63b
000000b0: 21f1 9e33 8db4 d6bb 43f3 b735 32d5 13b6
000000c0: 0a9a d438 ec2c 113b b105 afb3 e134 dbba
000000d0: cc77 0436 f8aa 533c 18d9 aa3a 1c1c f4ba
000000e0: 43f9 4c35 8855 c4ba a6d5 3d3a ac11 023b
000000f0: 71e6 3239 610f 77b4 6b51 c33b b9c9 a1ba

encoder.convs.1.nn.0.weight f4 [64, 64]
-0.010055278 -0.10519847 0.004106849 -0.0319576 0.07547887 -0.04927546 -0.009561312 0.019113656
-0.09624373 0.096298486 0.09545328 0.06337239 -0.01165363 -0.06208374 0.06364907 -0.055865675
0.11078194 -0.0067103324 -0.047785334 -0.10395922 0.08286387 -0.078592665 0.09534641 0.012130766
0.111458674 0.11699999 -0.061173663 0.05367953 0.07186091 0.0035206531 0.10758467 -0.02028261
0.03867821 -0.060873188 0.08118649 0.08672151 -0.005714987 -0.0931676 0.1028973 -0.034813333
0.08739348 -0.086715564 0.09271782 -0.0075371806 -0.10602573 0.024518391 0.11740756 0.120842904
-0.06258289 0.024939064 0.120065905 0.030018572 0.004104193 -0.0971434 0.09043709 0.1064005
0.11221407 0.06431459 0.024528641 -0.043963965 0.0058967555 -0.0011612035 0.107737824 0.00858512
0.04954281 -0.013061255 -0.090781905 0.04473809 -0.056903813 0.098501116 0.037558973 0.0009806944
0.08124805 -0.023686124 0.04543852 -0.040662695 -0.059882954 -0.08964255 0.08268159 0.066239975
-0.02900484 0.03832581 0.11710112 0.009923759 -0.08946776 0.03838392 0.03886072 0.12142493
0.13329893 -0.035409827 -0.027233895 -0.029887155 -0.13073735 -0.10251295 0.055106986 0.061988078
0.07211325 0.094980314 0.09777715 -0.1103205 0.03918346 0.111624144 -0.11696629 -0.102016404
0.10741768 -0.064150356 -0.053111155 0.11000063 0.021615928 -0.09358694 -0.018257132 0.04770842
-0.020687837 -0.1189675 0.08013468 -0.07438999 -0.036396604 0.078375354 -0.012206354 -0.057386845
-0.10528814 -0.025596142 0.056778964 0.05656894 0.07322855 0.010211145 0.059976302 0.021274945
-0.04355523 -0.02741785 0.010459404 -0.071648076 0.04150137 -0.0015686451 -0.07319931 -0.10297188
-0.09066253 -0.10500383 -0.10714929 0.061700013 -0.049757756 -0.055094995 -0.06589399 -0.019307284
0.07848909 -0.00023178947 0.06926203 0.09176334 -0.0463745 0.10643975 -0.085450366 -0.10638332
0.10347612 0.06476366 -0.07374266 0.09782087 -0.069020174 0.00037899573 -0.06723077 -0.04914843
-0.012979594 -0.004997387 -0.043707807 0.09389341 0.039285213 0.08172429 -0.026791248 0.0786207
-0.051197853 0.05181037 0.106874906 -0.019001033 -0.06718011 0.03389396 -0.036605757 0.068940476
0.038000777 -0.07418869 -0.051685397 0.035680957 -0.048319202 0.057183135 -0.020637862 -0.056261767
-0.017355336 0.078502685 0.020598283 -0.024352748 0.050077613 -0.09674551 0.060588032 0.12077076
0.04260882 0.10692353 0.031942144 -0.11360975 -0.104105 0.025168883 -0.055154204 -0.10360014
0.00066261675 0.0738396 -0.10574396 -0.07866274 0.06967588 0.019559968 -0.027546342 0.04654394
-0.044333827 0.04191119 0.007174817 0.09319092 0.13280404 -0.070471056 0.1073834 -0.076605424
-0.08895035 -0.025401019 0.078304306 0.13164945 0.11375814 0.018393597 -0.04296478 -0.1258331
-0.10575918 -0.05781341 0.091571316 -0.023326633 0.027720945 0.047776636 0.035009213 0.045244195
0.040687513 -0.09108412 0.102365665 -0.010580327 -0.036494765 0.056321148 -0.014863345 0.12125567
0.104510434 -0.038941927 0.038332466 -0.08260764 -0.0440699 0.04298395 0.03715111 -0.056010455
-0.009405814 -0.0873343 -0.014683615 -0.0028955806 -0.057845373 0.022204256 -0.06830479 -0.019479506
00000000: e5be 24bc 4c72 d7bd bf92 863b f9e5 02bd
00000010: aa94 9a3d 11d5 49bd 0da7 1cbc 3e94 9c3c
00000020: 6f1b c5bd 2438 c53d 027d c33d 62c9 813d
00000030: deee 3ebc 854b 7ebd 725a 823d 68d3 64bd
00000040: a4e1 e23d 59e2 dbbb 8eba 43bd 92e8 d4bd
00000050: 88b4 a93d 31f5 a0bd fb44 c33d 1fc0 463c
00000060: 7244 e43d b19d ef3d 3c91 7abd 11df 5b3d
00000070: d02b 933d c2ba 663b 5a55 dc3d b727 a6bc
00000080: 0b6d 1e3d 2a56 79bd 1a45 a63d 0c9b b13d
00000090: c944 bbbb a8ce bebd d2bb d23d 6d98 0ebd
000000a0: 5afb b23d ee97 b1bd d7e2 bd3d 74fa f6bb
000000b0: 0524 d9bd cbda c83c 6073 f03d 7c7c f73d
000000c0: 752b 80bd 024d cc3c 1de5 f53d 82e9 f53c
000000d0: 777c 863b 1ef3 c6bd 1537 b93d 81e8 d93d
000000e0: 7ed0 e53d 5eb7 833d 4af0 c83c 8f13 34bd
000000f0: 9239 c13b 8633 98ba a6a5 dc3d 9aa8 0c3c
00000100: 67ed 4a3d e0fe 55bc ddeb b9bd 4a3f 373d
00000110: f913 69bd f4ba c93d 70d7 193d a58a 803a
00000120: 6165 a63d 6709 c2bc be1d 3a3d ed8d 26bd
00000130: d447 75bd 8396 b7bd f754 a93d d3a8 873d
00000140: 8f9b edbc 86fb 1c3d b6d2 ef3d 4397 223c
00000150: df3a b7bd 7538 1d3d 6b2c 1f3d a2ad f83d
00000160: 847f 083e e509 11bd 9e19 dfbc e8d5 f4bc
00000170: 03e0 05be 4ff2 d1bd ddb7 613d 36e7 7d3d
00000180: 1db0 933d 0a85 c23d 633f c83d b7ef e1bd
00000190: d67e 203d 339b e43d 068c efbd faed d0bd
000001a0: cdfd db3d 4361 83bd 158b 59bd 0348 e13d
000001b0: e313 b13c 82aa bfbd fb8f 95bc e769 433d
000001c0: 8a79 a9bc 3ca5 f3bd a71d a43d c759 98bd
000001d0: 9b14 15bd 4283 a03d 29fd 47bc 780e 6bbd
000001e0: 4fa1 d7bd 00af d1bc 0f91 683d d5b4 673d
000001f0: daf8 953d a54c 273c b6a9 753d cb48 ae3c
00000200: f866 32bd 669b e0bc ec5d 2b3c 3abc 92bd
00000210: 57fd 293d ff9a cdba 85e9 95bd ece2 d2bd
00000220: 47ad b9bd 3f0c d7bd 1671 dbbd 27b9 7c3d
00000230: cace 4bbd 4aab 61bd 6ef3 86bd 4f2a 9ebc
00000240: e3be a03d 830c 73b9 40d9 8d3d 6bee bb3d
00000250: 30f3 3dbd 15fd d93d 9a00 afbd 80df d9bd
00000260: 4aeb d33d cfa2 843d 6406 97bd 4f56 c83d
00000270: 735a 8dbd f2b3 c639 49b0 89bd dd4f 49bd
00000280: 5da8 54bc 1fc1 a3bb f506 33bd 304b c03d
00000290: 88e9 203d 115f a73d 5279 dbbc e403 a13d
000002a0: d7b4 51bd 1c37 543d 3be1 da3d 0ea8 9bbc
000002b0: ba95 89bd 65d4 0a3d ebef 15bd aa30 8d3d
000002c0: b4a6 1b3d 3df0 97bd 11b4 53bd 3226 123d
000002d0: 5bea 45bd dd38 6a3d bc10 a9bc bd72 66bd
000002e0: c72c 8ebc 04c6 a03d bbbd a83c 6a7f c7bc
000002f0: 2f1e 4d3d 8322 c6bd 282b 783d a956 f73d
00000300: 9686 2e3d b9fa da3d c4d5 023d 3bac e8bd
00000310: 0135 d5bd f92e ce3c 60e9 61bd 4f2c d4bd
00000320: 75b3 2d3a 3739 973d 4a90 d8bd ee19 a1bd
00000330: 3ab2 8e3d 3a3c a03c dea8 e1bc dca4 3e3d
00000340: 6397 35bd 11ab 2b3d ba1a eb3b e2da be3d
00000350: c8fd 073e 2153 90bd d4eb db3d 4ee3 9cbd
00000360: 9a2b b6bd cc15 d0bc 025e a03d 1dcf 063e
00000370: 07fa e83d 2bae 963c d6fb 2fbd 64da 00be
00000380: 4598 d8bd c1cd 6cbd be89 bb3d 7f17 bfbc
00000390: 0917 e33c 6fb1 433d d265 0f3d fa51 393d
000003a0: f3a7 263d 508a babd 17a5 d13d 1c59 2dbc
000003b0: 897b 15bd 01b1 663d 6385 73bc e554 f83d
000003c0: 9109 d63d 9281 1fbd 8102 1d3d 322e a9bd
000003d0: a482 34bd f00f 303d c32b 183d 386b 65bd
000003e0: d81a 1abc 53dc b2bd 8c93 70bc c8c3 3dbb
000003f0: 45ef 6cbd b3e5 b53c 62e3 8bbd 7c93 9fbc

encoder.convs.1.nn.0.bias f4 [64]
0.016116828 0.008408326 -0.054977726 0.11387777 -0.09126932 0.062331494 0.028611861 0.039031867
0.036012407 0.11288588 0.00084030424 0.083618894 0.049862903 -0.012756151 -0.0072066216 -0.07564427
0.011871 -0.05900034 0.06672141 -0.098223105 0.1053216 -0.030221732 0.005421207 0.1119216
-0.05196045 0.04796337 0.106597036 0.08564939 -0.064587414 0.051889166 -0.059183776 -0.09136205
0.05338584 -0.10279917 0.04243564 -0.08145248 -0.012897202 -0.0011835251 0.0011389644 0.12000832
-0.045769695 0.04534682 -0.05901868 -0.022580542 0.003872725 0.09291155 -0.022978315 -0.05458707
-0.09147232 0.021728091 0.06314775 -0.040626373 0.068059914 -0.033253644 0.10310776 -0.06641258
-0.033776682 0.049282167 -0.07673905 -0.035281874 0.092054404 -0.045701645 -0.062869646 0.11488219
00000000: 7007 843c 13c3 093c 5330 61bd c038 e93d
00000010: 69eb babd 4f4f 7f3d 6c63 ea3c e1df 1f3d
00000020: bf81 133d b630 e73d dd47 5c3a 6240 ab3d
00000030: 0b3d 4c3d 2dff 50bc 8625 ecbb 62eb 9abd
00000040: 957e 423c 57aa 71bd 3ca5 883d 3229 c9bd
00000050: dab2 d73d 9193 f7bc 61a4 b13b 2737 e53d
00000060: 7bd4 54bd 3d75 443d 8c4f da3d f368 af3d
00000070: 6846 84bd bc89 543d b06a 72bd 071c bbbd
00000080: 1cab 5a3d 5f88 d2bd fed0 2d3d 8fd0 a6bd
00000090: c94e 53bc 8320 9bba 4e49 953a ecc6 f53d
000000a0: 0179 3bbd 96bd 393d 92bd 71bd d4fa b8bc
000000b0: 8bcd 7d3b 6948 be3d 053d bcbc b196 5fbd
000000c0: d755 bbbd 1cff b13c 9c53 813d d767 26bd
000000d0: ff62 8b3d f934 08bd 292a d33d 5203 88bd
000000e0: 6b59 0abd 19dc 493d 5d29 9dbd ba83 10bd
000000f0: 0587 bc3d a631 3bbd cdc1 80bd 5b47 eb3d

encoder.convs.1.nn.2.weight f4 [64, 64]
0.10089648 -0.028284453 -0.011733981 0.03991794 0.025535071 -0.08773923 -0.1041157 -0.046476003
-0.08073939 0.0989102 0.0685723 -0.0120267235 0.07736174 -0.057500806 0.0960227 0.08763788
0.10235208 0.049127363 -0.10014883 -0.10219927 0.011222208 0.01394701 0.02312943 0.020054638
0.025713967 0.078208975 -0.06699897 -0.05875577 0.044756804 0.10530166 0.11962422 0.08658609
-0.041275952 0.019368974 0.004347769 0.090236075 0.04343833 0.0015130669 -0.06907625 0.06819026
-0.063050255 -0.0680503 0.051305786 0.08013484 0.039792795 -0.06425038 0.003400016 -0.064062946
-0.030257396 0.046593 -0.106391825 -0.0753154 -0.03100435 0.05852673 0.091776915 -0.011590335
0.11243323 0.10627613 -0.13003783 0.05522751 0.05129745 -0.04280827 -0.032074336 -0.08417131
0.109389745 -0.113841586 0.0062412177 -0.0049280645 -0.046078198 -0.018743357 -0.11471253 0.0896146
0.08770144 0.1167248 -0.052546054 -0.08965301 -0.037724823 0.07080513 -0.08991187 0.0066355965
-0.025821583 -0.027858384 0.008848888 -0.108391084 -0.006631108 -0.021962665 -0.029563822 -0.035255447
0.07678941 -0.07933932 0.03771935 0.093123294 -0.0061349357 0.10082508 -0.06728839 -0.10889588
0.042294078 0.09909554 -0.034051307 -0.079375766 -0.041885685 -0.080049604 0.084385395 0.023675073
-0.01708864 -0.04085529 0.08145364 0.12682095 -0.09545885 -0.06779747 0.007655005 -0.09524908
-0.004635945 -0.06064124 -0.028301507 0.014935673 0.082976244 0.09199183 -0.0755611 -0.122262016
0.06763892 -0.07562881 -0.025540626 -0.060350895 -0.07109384 -0.031002715 0.03290475 0.05681912
0.05306565 -0.07422559 -0.08831814 0.053208895 0.0844787 0.109449446 -0.020431986 -0.093752146
-0.06887841 -0.025509352 0.002664953 -0.07396377 0.016544914 -0.044579614 -0.06865751 0.108862415
0.06731283 -0.11382817 -0.010769171 -0.0044503943 -0.032159626 0.052432492 -0.07744037 0.023380028
-0.060375426 0.041860435 -0.040927432 -0.09514492 0.020605566 -0.05737313 0.054565743 0.02126845
0.107673846 0.009924034 0.04541524 0.10182193 0.105091214 0.07322133 -0.021390524 0.018840736
0.0067188637 0.11552612 -0.04878934 0.07096257 -0.061180558 0.050639674 -0.036124706 -0.08636531
-0.051636882 -0.05322174 -0.095072456 0.047176592 -0.030159337 -0.009734126 -0.04065985 0.029965127
0.036459547 -0.05390208 0.021909256 0.048189983 0.06169136 0.028654616 0.043799277 -0.051577
-0.12088173 -0.062067255 0.008603095 0.12833592 -0.05467761 -0.05699546 -0.07084494 -0.023303477
0.046777397 -0.1279013 -0.08674569 -0.027721355 0.10400382 -0.08388103 0.0054061897 0.09538851
0.07744478 -0.03860682 0.04479734 -0.10647379 -0.039429523 0.032741603 0.09629803 0.06479406
-0.041650224 -0.062658824 0.100581676 0.08043043 -0.030321183 0.010839951 -0.09267631 -0.09104372
-0.0012350348 -0.004255408 -0.062242806 -0.10881947 0.115884446 -0.042410452 0.093510404 0.07679795
-0.025420632 -0.019280419 0.017739093 -0.06264066 0.038016167 0.044330437 -0.009145943 0.03358889
-0.0577147 -0.038455557 0.037247006 0.008411076 -0.001957212 -0.05585365 -0.06943657 0.08342635
-0.11697951 -0.027074285 0.015023742 -0.048474073 0.014568736 -0.06391325 0.00040001536 0.09799371
00000000: d0a2 ce3d ccb4 e7bc e23f 40bc fe80 233d
00000010: ed2e d13c a0b0 b3bd 9d3a d5bd 9f5d 3ebd
00000020: b15a a5bd 6e91 ca3d a26f 8c3d bc0b 45bc
00000030: d56f 9e3d f785 6bbd 8da7 c43d 7d7b b33d
00000040: f89d d13d c639 493d d41a cdbd da4d d1bd
00000050: 5add 373c 0082 643c ee79 bd3c a049 a43c
00000060: 19a6 d23c 072c a03d c236 89bd e4a9 70bd
00000070: e952 373d 66a8 d73d 8bfd f43d 0c54 b13d
00000080: f910 29bd afab 9e3c bb77 8e3b b1cd b83d
00000090: 64ec 313d 1a52 c63a d977 8dbd 56a7 8b3d
000000a0: 7e20 81bd f55d 8bbd 0426 523d bc1d a43d
000000b0: c5fd 223d b495 83bd ced2 5e3b 6f33 83bd
000000c0: 5cde f7bc 4dd8 3e3d f5e3 d9bd f63e 9abd
000000d0: d6fc fdbc b9b9 6f3d 89f5 bb3d 63e5 3dbc
000000e0: 6543 e63d 4da7 d93d a328 05be 3e36 623d
000000f0: 461d 523d b957 2fbd 6160 03bd 0262 acbd
00000100: bb07 e03d c725 e9bd 2183 cc3b 9a7b a1bb
00000110: 7ebc 3cbd ab8b 99bc 67ee eabd dc87 b73d
00000120: d09c b33d 690d ef3d 883a 57bd ff9b b7bd
00000130: 5885 1abd 4802 913d b723 b8bd 6b6f d93b
00000140: c987 d3bc 4437 e4bc edfa 103c 25fc ddbd
00000150: c449 d9bb 0ceb b3bc d42f f2bc 0468 10bd
00000160: c443 9d3d a77c a2bd 9b7f 1a3d 6db7 be3d
00000170: 9207 c9bb 617d ce3d 7fce 89bd ce04 dfbd
00000180: 8e3c 2d3d 9af2 ca3d 6279 0bbd c38f a2bd
00000190: 5390 2bbd 0cf1 a3bd 40d2 ac3d 3af2 c13c
000001a0: 7afd 8bbc e057 27bd 2ad1 a63d 5add 013e
000001b0: ee7f c3bd 66d9 8abd d6d6 fa3b f311 c3bd
000001c0: 20e9 97bb f362 78bd 90d8 e7bc c1b4 743c
000001d0: 73ef a93d 3666 bc3d c7bf 9abd 8264 fabd
000001e0: 4686 8a3d 47e3 9abd 933a d1bc 8032 77bd
000001f0: a699 91bd 68f9 fdbc 22c7 063d 2abb 683d
00000200: 5e5b 593d 9603 98bd 24e0 b4bd 92f1 593d
00000210: 2b03 ad3d 0827 e03d fb60 a7bc 2001 c0bd
00000220: 2010 8dbd fdf8 d0bc 7ea6 2e3b 517a 97bd
00000230: 3389 873c 1d99 36bd 4f9c 8cbd 42f3 de3d
00000240: 4fdb 893d be1e e9bd 2d71 30bc 9dd4 91bb
00000250: d0b9 03bd 74c3 563d 0f99 9ebd 7987 bf3c
00000260: 394c 77bd d975 2b3d 86a3 27bd 57db c2bd
00000270: 01cd a83c 1600 6bbd 5480 5f3d 2c3b ae3c
00000280: 1b84 dc3d 6a98 223c 5505 3a3d 0488 d03d
00000290: 103a d73d 11f5 953d 2e3b afbc e357 9a3c
000002a0: ea29 dc3b f598 ec3d 55d7 47bd d354 913d
000002b0: 7798 7abd 8c6b 4f3d 80f7 13bd 4ce0 b0bd
000002c0: 3281 53bd 0aff 59bd 59b5 c2bd 3e3c 413d
000002d0: b710 f7bc e27b 1fbc f18a 26bd 6d79 f53c
000002e0: 9b56 153d 6dc8 5cbd 0a7b b33c dc62 453d
000002f0: 14b0 7c3d 16bd ea3c df66 333d 6842 53bd
00000300: d790 f7bd 3c3a 7ebd fff3 0c3c 7e6a 033e
00000310: a1f5 5fbd 1274 69bd 2717 91bd efe6 bebc
00000320: a899 3f3d 8ff8 02be b9a7 b1bd e517 e3bc
00000330: f4ff d43d d1c9 abbd 6826 b13b 0d5b c33d
00000340: 5e9b 9e3d 2f22 1ebd 6a7d 373d ee0e dabd
00000350: da80 21bd 0f1c 063d e737 c53d c0b2 843d
00000360: 6d99 2abd 4553 80bd c4fd cd3d b6b8 a43d
00000370: 2164 f8bc 0d9a 313c 14cd bdbd 2175 babd
00000380: e4e0 a1ba f370 8bbb 50f2 7ebd bedc debd
00000390: d354 ed3d 95b6 2dbd 6282 bf3d 3e48 9d3d
000003a0: ee3e d0bc f8f1 9dbc 9351 913c bf49 80bd
000003b0: d7b6 1b3d d593 353d ded8 15bc 8194 093d
000003c0: 4066 6cbd 9383 1dbd 5190 183d 9cce 093c
000003d0: 9244 00bb ccc6 64bd c334 8ebd 6fdb aa3d
000003e0: f492 efbd e4ca ddbc 2426 763c c08c 46bd
000003f0: b5b1 6e3c f3e4 82bd 27b9 d139 edb0 c83d

encoder.convs.1.nn.2.bias f4 [64]
-0.0011243285 1.2276541e-07 0.0021516248 3.7830787e-08 0.0072918897 -1.6145103e-07 -4.2259897e-05 -0.0009772212
-0.0003746382 -0.0008802671 -0.0030381759 3.8615633e-07 5.8700105e-05 -1.0866861e-07 0.00038990477 1.1151766e-06
-4.315227e-07 0.0024270054 4.227458e-07 -0.0026934317 -0.0048904093 0.005118116 -3.6322872e-05 -4.7155243e-08
9.8033976e-05 -5.6682853e-07 5.9305883e-08 3.1325624e-07 -0.00020626112 1.7463917e-07 4.0045315e-06 -2.06805e-09
-0.0039652837 3.8885383e-07 1.5404915e-07 -6.8188187e-06 -6.2019956e-07 0.009330492 -0.012159861 0.014490537
-0.0023668525 0.013779687 -1.845255e-05 -0.00990381 0.0019806628 -1.4205922e-05 -2.4517822e-08 9.6858734e-05
-0.012637714 -0.0050130733 -0.010493348 0.00021832866 0.0017936325 -0.00028154385 0.0011043063 -0.0053852075
-0.004855981 0.00318962 0.0067601865 -1.4149113e-05 0.0005006897 4.0945935e-05 -4.7615754e-07 1.5553182e-07
00000000: 345e 93ba 80d1 0334 4602 0d3b 647b 2233
00000010: cef0 ee3b 525b 2db4 3840 31b8 1a16 80ba
00000020: 176b c4b9 bac1 66ba 221c 47bb ec50 cf34
00000030: c234 7638 335d e9b3 226c cc39 2dad 9535
00000040: 07ac e7b4 650e 1f3b bef5 e234 4984 30bb
00000050: ba3f a0bb deb5 a73b 6359 18b8 bd87 4ab3
00000060: 9797 cd38 2928 18b5 82b7 7e33 9c2d a834
00000070: cc47 58b9 7384 3b34 aa5e 8636 851d 0eb1
00000080: 36ef 81bb aac3 d034 b568 2534 35cd e4b6
00000090: ca7b 26b5 ebde 183c 273a 47bc b869 6d3c
000000a0: 321d 1bbb 32c4 613c 8dca 9ab7 9743 22bc
000000b0: 02ce 013b f855 6eb7 439b d2b2 a320 cb38
000000c0: 6a0e 4fbc b544 a4bb 4bec 2bbc 27ef 6439
000000d0: 5218 eb3a 2d9c 93b9 5fbe 903a 6576 b0bb
000000e0: ec1e 9fbb f208 513b 8e84 dd3b fa61 6db7
000000f0: b840 033a 5dbd 2b38 98a2 ffb4 4300 2734

encoder.batch_norms.0.weight f4 [64]
0.93106574 0.947001 0.94660103 0.93332165 0.9237507 0.9504144 0.94481647 0.9638637
0.9497656 0.98234254 0.96806204 0.91818494 0.9397346 0.9498759 0.94579077 0.9443877
0.94170904 0.95904714 0.9163505 0.9442352 0.97073317 0.9375722 0.9396601 0.9474899
0.9151961 0.9352571 0.92986196 0.9359155 0.9606386 0.9341188 0.94491106 0.94598335
0.9545566 0.914485 0.94533014 0.9118031 0.9107138 0.9581916 0.94585246 0.9339362
0.9551993 0.9568689 0.93371844 0.9467393 0.9181282 0.9202408 0.9590904 0.95690787
0.95213205 0.9558745 0.9498082 0.92044467 0.9740133 0.922481 0.9172495 0.89974487
0.9625344 0.9507542 0.904477 0.94931924 0.93618095 0.90676844 0.95737815 0.94162184
00000000: 535a 6e3f a86e 723f 7254 723f 2bee 6e3f
00000010: ed7a 6c3f 5c4e 733f 7edf 713f c5bf 763f
00000020: d723 733f cd7a 7b3f ead2 773f 2b0e 6b3f
00000030: 7292 703f 112b 733f 581f 723f 64c3 713f
00000040: d813 713f 1d84 753f f295 6a3f 66b9 713f
00000050: f881 783f bb04 703f 908d 703f b38e 723f
00000060: 4b4a 6a3f 026d 6f3f 6f0b 6e3f 2998 6f3f
00000070: 69ec 753f 6922 6f3f b1e5 713f f72b 723f
00000080: d25d 743f b01b 6a3f 2801 723f ee6b 693f
00000090: 8a24 693f 0b4c 753f 6323 723f 7116 6f3f
000000a0: f187 743f 5cf5 743f 2c08 6f3f 825d 723f
000000b0: 730a 6b3f e794 6b3f f386 753f eaf7 743f
000000c0: edbe 733f 31b4 743f a126 733f 43a2 6b3f
000000d0: f058 793f b727 6c3f ddd0 6a3f ae55 663f
000000e0: a868 763f a164 733f ce8b 673f 9606 733f
000000f0: 8ea9 6f3f fa21 683f bc16 753f 210e 713f

encoder.batch_norms.0.bias f4 [64]
-0.005883993 0.0036403546 -0.014742669 0.00030921245 -0.0012268871 -0.0021621017 -0.007834071 0.0040053776
0.0036861561 0.019549586 0.008141046 0.010169578 -0.0032121236 0.017633842 0.003343529 0.010345151
-0.010808312 0.011625404 -0.006457945 0.014983052 0.005948646 0.006972868 -0.0037365416 -0.004180609
-0.004062794 -0.0016200396 0.0021577156 0.004413488 -0.0015736233 -0.0077884826 -0.0076586003 0.0010275884
-0.0092453975 0.0060570347 -0.0096992925 0.0081603695 -0.016039215 0.0004884867 -0.0039302576 -0.00023087832
0.0045551644 -0.0029772238 -0.00033845578 0.00018447608 -0.0011755234 0.0032767518 0.0058948025 -0.001766757
0.0057817725 -0.002220797 -0.008202949 0.0053980136 0.01206962 0.002023198 0.00974999 -0.002851628
0.011284433 0.010147018 0.0013821975 -0.0129499035 -0.008668443 -0.01455198 0.008589267 0.00622216
00000000: 83ce c0bb 0493 6e3b 3c8b 71bc cb1d a239
00000010: 80cf a0ba 0cb2 0dbb 7a5a 00bc 8b3f 833b
00000020: 7093 713b 7426 a03c 0662 053c 4d9e 263c
00000030: 7e82 52bb d974 903c 1c1f 5b3b b57e 293c
00000040: 5915 31bc 7a78 3e3c 2b9d d3bb 7a7b 753c
00000050: dcec c23b a87c e43b c4e0 74bb 7dfd 88bb
00000060: 3021 85bb 8257 d4ba 7668 0d3b 059f 903b
00000070: 0942 ceba 8736 ffbb fff4 fabb 25b0 863a
00000080: 027a 17bc 177a c63b c8e9 1ebc 12b3 053c
00000090: ac64 83bc ca0d 003a 64c9 80bb ed17 72b9
000000a0: 7d43 953b 871d 43bb c472 b1b9 ec6f 4139
000000b0: 0514 9aba c6be 563b 3029 c13b 8792 e7ba
000000c0: 0675 bd3b ca8a 11bb a965 06bc d2e1 b03b
000000d0: a8bf 453c a197 043b 6cbe 1f3c 61e2 3abb
000000e0: 58e2 383c ae3f 263c da2a b53a d52b 54bc
000000f0: 1606 0ebc 6e6b 6ebc ffb9 0c3c 43e3 cb3b

encoder.batch_norms.0.running_mean f4 [64]
-0.0702809 0.100853175 0.14196861 0.25936773 -0.18935251 0.346939 -0.0910037 0.15027264
-0.18338767 0.1299011 0.16197778 -0.38744885 -0.28636646 -0.090829514 -0.05910413 -0.390782
-0.15495352 0.4036068 -0.14856327 -0.18554388 0.28872052 -0.29090342 0.122457474 -0.32565868
-0.34880966 -0.2236614 -0.09984977 -0.063009016 0.49156132 -0.29234937 -0.060403775 -0.32943988
0.38329056 -0.3537969 -0.21342 -0.45909363 -0.33749327 0.29460636 0.30430612 0.13113153
0.05267086 0.39232916 -0.43445465 -0.38520584 -0.44589648 -0.34264803 0.319406 0.49154517
-0.15769562 0.35972413 0.14754824 -0.1297985 -0.27573487 -0.29720795 -0.23133467 -0.4872139
0.15240897 -0.26101765 -0.48455995 0.3055333 0.1482507 -0.4310639 0.16025205 -0.5903921
00000000: 6fef 8fbd 1c8c ce3d 3860 113e d9cb 843e
00000010: a0e5 41be fda1 b13e 2660 babd 12e1 193e
00000020: fac9 3bbe cb04 053e 81dd 253e b25f c6be
00000030: a09e 92be d304 babd 2c17 72bd 9414 c8be
00000040: 23ac 1ebe 8da5 ce3e f820 18be 37ff 3dbe
00000050: 2dd3 933e 4bf1 94be fcca fa3d bcbc a6be
00000060: 2e97 b2be 7e07 65be 097e ccbd df0a 81bd
00000070: edad fb3e d1ae 95be f369 77bd 58ac a8be
00000080: a93e c43e de24 b5be c68a 5abe 520e ebbe
00000090: ebcb acbe a5d6 963e 03ce 9b3e 5847 063e
000000a0: 66bd 573d 5edf c83e d770 debe b339 c5be
000000b0: 8b4c e4be 906f afbe 2f89 a33e cfab fb3e
000000c0: f67a 21be c32d b83e e316 173e e6e9 04be
000000d0: 1f2d 8dbe a42b 98be ffe2 6cbe 1a74 f9be
000000e0: 1911 1c3e 1ba4 85be 3e18 f8be dc6e 9c3e
000000f0: 08cf 173e 68b4 dcbe 1d19 243e f023 17bf

encoder.batch_norms.0.running_var f4 [64]
0.0037737736 0.0024510254 0.015532334 0.04112696 0.02216303 0.04055139 0.001835945 0.011056415
0.016389195 0.01563687 0.01678146 0.044517353 0.036811087 0.019313842 0.012429145 0.04457281
0.015985252 0.034393042 0.0051031457 0.016220018 0.02872869 0.03079011 0.011182477 0.03350309
0.030440608 0.009517742 0.007797153 0.0028943005 0.05347989 0.018738853 0.008468234 0.061053086
0.03498742 0.031733375 0.01718732 0.05823131 0.026266439 0.02640702 0.015309425 0.025253963
0.008878134 0.028444773 0.045160327 0.039457474 0.050791115 0.032564756 0.026741872 0.06144136
0.0031498498 0.036253445 0.015477946 0.009841165 0.024954895 0.027440162 0.018387165 0.053056497
0.013841323 0.021233771 0.046518497 0.02253688 0.011779482 0.06567553 0.015341006 0.10310217
00000000: 6a51 773b 62a1 203b 557b 7e3c be74 283d
00000010: 3e8f b53c 3719 263d 17a4 f03a f725 353c
00000020: a242 863c e518 803c 4679 893c d457 363d
00000030: 39c7 163d 1038 9e3c 9da3 4b3c fb91 363d
00000040: 81f3 823c b8df 0c3d 4a38 a73b d8df 843c
00000050: 6e58 eb3c 8a3b fc3c b536 373c 893a 093d
00000060: 955e f93c 4ef0 1b3c 437f ff3b 4eae 3d3b
00000070: bb0d 5b3d 3982 993c 59be 0a3c cd12 7a3d
00000080: f84e 0f3d dbfa 013d 6ccc 8c3c f483 6e3d
00000090: b72c d73c 8953 d83c 62d4 7a3c 66e1 ce3c
000000a0: 9875 113c 0305 e93c 09fa 383d 299e 213d
000000b0: 580a 503d 9f62 053d c511 db3c efa9 7b3d
000000c0: b66d 4e3b 7e7e 143d 3697 7d3c d63c 213c
000000d0: 356e cc3c 31ca e03c aea0 963c c551 593d
000000e0: b7c6 623c 72f2 ad3c 2e8a 3e3d 439f b83c
000000f0: bafe 403c e480 863d d858 7b3c 3b27 d33d

encoder.batch_norms.1.weight f4 [64]
0.9311736 0.93629825 0.9387091 0.91679657 0.9268253 0.9307426 0.93193036 0.9427097
0.9450047 0.9336735 0.9388597 0.933543 0.94197613 0.9463073 0.9213955 0.94209
0.93237686 0.93684196 0.934838 0.93222135 0.93692595 0.9254804 0.957201 0.9204838
0.9400356 0.932794 0.92963094 0.9417102 0.93392026 0.9238973 0.940061 0.9372647
0.92601043 0.93585646 0.9347701 0.91827077 0.925378 0.945934 0.93021697 0.9320118
0.93123895 0.9305435 0.9362593 0.9334234 0.92733055 0.9274719 0.9405019 0.9447019
0.9367785 0.9203389 0.926906 0.91026175 0.9259789 0.9270121 0.9261961 0.940014
0.9384911 0.93560934 0.9390086 0.9412246 0.94507366 0.9472571 0.930369 0.9288629
00000000: 6561 6e3f 3eb1 6f3f 3d4f 703f 2eb3 6a3f
00000010: 6c44 6d3f 2645 6e3f fd92 6e3f 6c55 713f
00000020: d4eb 713f 3a05 6f3f 1c59 703f adfc 6e3f
00000030: 5925 713f 3241 723f 93e0 6b3f cf2c 713f
00000040: 40b0 6e3f e0d4 6f3f 8b51 6f3f 0fa6 6e3f
00000050: 61da 6f3f 49ec 6c3f 200b 753f d4a4 6b3f
00000060: 2ca6 703f 96cb 6e3f 4bfc 6d3f eb13 713f
00000070: 6615 6f3f 8984 6c3f d6a7 703f 94f0 6f3f
00000080: 050f 6d3f 4a94 6f3f 184d 6f3f cb13 6b3f
00000090: 93e5 6c3f bb28 723f b322 6e3f 5398 6e3f
000000a0: ad65 6e3f 1938 6e3f b1ae 6f3f d6f4 6e3f
000000b0: 8965 6d3f cc6e 6d3f bcc4 703f fcd7 713f
000000c0: b7d0 6f3f 559b 6b3f b649 6d3f ea06 693f
000000d0: f40c 6d3f aa50 6d3f 301b 6d3f c2a4 703f
000000e0: f440 703f 1884 6f3f de62 703f 18f4 703f
000000f0: 59f0 713f 717f 723f aa2c 6e3f f6c9 6d3f

encoder.batch_norms.1.bias f4 [64]
-0.0062357616 0.00418395 0.0017778622 -0.0006100402 0.009458784 -0.0014268967 -0.0067094956 0.0054396745
0.0044052773 -0.008055743 -0.013485193 -0.02003674 -4.8095026e-05 0.0075811534 0.0018793537 -0.00014391172
0.002593116 0.005415233 0.0027756724 0.0076160333 -0.015255253 0.007384052 -0.008251174 0.0017213043
-0.006520134 -0.0065266653 0.0028909913 0.013111758 -0.0067576836 0.004649831 -0.00808193 -0.006279202
0.00093522586 0.01605888 -0.0025298323 -0.0021033555 0.0046723452 -0.0009644209 0.0030552577 -0.014117526
-0.0013272214 0.0033142094 -0.0052285125 -0.016990703 -0.0016438056 -0.01695165 -0.007690294 0.0038824747
-0.009305916 0.009808045 -0.000973176 0.0017163759 -0.0019080976 0.00754487 -0.008401268 0.0038857078
0.013209141 0.010280695 0.00016727933 -0.019957168 -0.007077796 0.013474114 0.017237518 0.002867136
00000000: 5c55 ccbb 8419 893b 2807 e93a 1beb 1fba
00000010: 04f9 1a3c b506 bbba 54db dbbb 4c3f b23b
00000020: 255a 903b 3cfc 03bc 00f1 5cbc 1724 a4bc
00000030: a4b9 49b8 536b f83b a554 f63a 02e7 16b9
00000040: 44f1 293b 4472 b13b 0ee8 353b eb8f f93b
00000050: 2bf1 79bc ebf5 f13b ef2f 07bc 639d e13a
00000060: d9a6 d5bb a3dd d5bb c976 3d3b b3d2 563c
00000070: 8f6f ddbb 9c5d 983b 126a 04bc c4c1 cdbb
00000080: f229 753a ea8d 833c 8bcb 25bb 73d8 09bb
00000090: 791a 993b 31d1 7cba b83a 483b 324d 67bc
000000a0: 29f6 adba 3533 593b f153 abbb 1630 8bbc
000000b0: f774 d7ba 30de 8abc ddfe fbbb 1e71 7e3b
000000c0: d777 18bc ecb1 203c bc1c 7fba 05f8 e03a
000000d0: 2219 faba f53a f73b 79a5 09bc 5ca7 7e3b
000000e0: 276b 583c 5c70 283c b467 2f39 377d a3bc
000000f0: dbec e7bb 88c2 5c3c b235 8d3c 8fe6 3b3b

encoder.batch_norms.1.running_mean f4 [64]
0.72058636 -0.55758935 0.16315319 -0.36183813 0.14200838 -0.06441581 -0.5525839 -0.015380944
0.30227298 0.28295642 0.4100335 -0.7525803 0.077555634 -0.13447578 -0.06357758 -0.13260077
-0.5040509 0.46536702 0.060544897 -0.32344612 -0.1611388 0.4364476 0.44148305 0.295938
0.7459505 -0.09963008 0.1839019 0.243684 -0.3532793 -0.33579844 -0.39707664 -0.0782139
-0.053907715 0.21707402 -0.36614913 -0.7865493 -0.18471731 -0.6889465 -0.106321536 -0.11088248
-0.09415024 -0.41153228 0.27045226 -0.21674584 0.1581559 -0.56124425 -0.014692029 -0.12225191
-0.5651435 -0.28510374 0.32840917 0.6323684 0.4513077 0.31576723 0.33566692 -0.05086387
0.56029457 -0.5040106 -0.37006888 0.10256747 -0.06565151 0.24722156 -0.37963748 -0.40111765
00000000: 5978 383f 2dbe 0ebf a111 273e d942 b9be
00000010: a56a 113e 70ec 83bd 2376 0dbf 5b00 7cbc
00000020: 86c3 9a3e aadf 903e e9ef d13e 1aa9 40bf
00000030: 7dd5 9e3d 05b4 09be f634 82bd 7fc8 07be
00000040: 7b09 01bf 9644 ee3e edfd 773d bb9a a5be
00000050: 9201 25be 0f76 df3e 110a e23e 2f85 973e
00000060: 9df6 3e3f db0a ccbd c850 3c3e 4c88 793e
00000070: 06e1 b4be c6ed abbe a14d cbbe 9c2e a0bd
00000080: 56ce 5cbd a748 5e3e e677 bbbe 4c5b 49bf
00000090: 8926 3dbe cc5e 30bf 1bbf d9bd 5b16 e3bd
000000a0: d7d1 c0bd 5cb4 d2be b878 8a3e 9ff2 5dbe
000000b0: 9ff3 213e b4ad 0fbf d6b6 70bc 365f fabd
000000c0: 3fad 10bf 1ef9 91be 3f25 a83e e5e2 213f
000000d0: ce11 e73e 3eac a13e 89dc ab3e a256 50bd
000000e0: 776f 0f3f d706 01bf ab79 bdbe e50e d23d
000000f0: 4d74 86bd a627 7d3e d85f c2be 4b5f cdbe

encoder.batch_norms.1.running_var f4 [64]
0.17076644 0.08785322 0.24277441 0.11166397 0.059529375 0.08905151 0.25588143 0.14597724
0.13872373 0.08245232 0.08875687 0.07766041 0.07110999 0.07591825 0.3707107 0.1111815
0.1394189 0.18736558 0.10610988 0.19931531 0.12268147 0.37996715 0.07118374 0.11536311
0.098584324 0.13566771 0.072798364 0.115746915 0.15874636 0.091483876 0.2789581 0.16677214
0.087555274 0.06862563 0.40475205 0.094583146 0.056594603 0.0821298 0.19136344 0.092173286
0.07863897 0.13715136 0.34179583 0.07574025 0.3742776 0.15489833 0.05363794 0.069919296
0.2505844 0.1103668 0.11655661 0.19173302 0.09069026 0.08610115 0.2095012 0.056931056
0.092109166 0.110664405 0.08881279 0.31110662 0.14855328 0.10870977 0.18294704 0.14989413
00000000: 66dd 2e3e 64ec b33d db99 783e 14b0 e43d
00000010: 13d5 733d a360 b63d e402 833e 0f7b 153e
00000020: 980d 0e3e c3dc a83d 29c6 b53d 6c0c 9f3d
00000030: 1da2 913d 077b 9b3d cbcd bd3e 20b3 e33d
00000040: d4c3 0e3e c3dc 3f3e 2350 d93d 5019 4c3e
00000050: 6c40 fb3d 0e8b c23e c8c8 913d 7f43 ec3d
00000060: 94e6 c93d 7aec 0a3e 4f17 953d b80c ed3d
00000070: 688e 223e e65b bb3d 99d3 8e3e 51c6 2a3e
00000080: 2e50 b33d 988b 8c3d a93b cf3e cfb4 c13d
00000090: becf 673d ab33 a83d c7f4 433e 59c5 bc3d
000000a0: 780d a13d 6871 0c3e ddff ae3e b41d 9b3d
000000b0: 50a1 bf3e ab9d 1e3e 75b3 5b3d d931 8f3d
000000c0: 994c 803e fd07 e23d 3bb5 ee3d a955 443e
000000d0: d1bb b93d cd55 b03d 7c87 563e 8a30 693d
000000e0: bba3 bc3d 05a4 e23d 7be3 b53d 5e49 9f3e
000000f0: 5a1e 183e 3aa3 de3d 7856 3b3e d97d 193e
