joinrank/models/ranker_regularized/checkpoint_epoch_10.pt (torch, 532875 bytes, 67 tensors)

encoder.convs.0.nn.0.weight f4 [64, 64]
000000 97 a7 87 3d a0 a8 f5 3d 99 dc 45 bd a4 e3 9e bd
       0.06623762 0.11995053 -0.04830608 -0.07758263
000010 ea b9 a6 bc 6c 8f 09 bd 96 fc 77 bd b4 be 74 bc
       -0.020352323 -0.033584043 -0.06054362 -0.014938045
000020 60 75 5f bc 9c 16 9f bd ac 1b a5 3d 8d 06 95 bd
       -0.013638824 -0.07767984 0.080619186 -0.0727664
000030 33 a0 04 80 39 0e 00 80 d6 c2 23 b2 a9 a7 89 aa
       -4.2481e-40 -5.102e-42 -9.532149e-09 -2.4452426e-13
000040 2b 59 7a 02 fb 63 04 b0 e3 5b fb 31 26 0f 00 80
       1.8392689e-37 -4.81634e-10 7.3155078e-09 -5.434e-42
000050 52 0e 00 00 20 28 00 80 c3 df 94 32 e8 04 3b 31
       5.137e-42 -1.4394e-41 1.7331223e-08 2.721487e-09
000060 33 4a d1 b0 f7 bf 98 89 aa 48 37 2e c3 08 98 29
       -1.522784e-09 -3.677319e-33 4.167392e-11 6.751676e-14
000070 ef 0d 00 80 66 bc 84 02 c0 93 01 80 f5 0d 00 80
       -4.998e-42 1.9503792e-37 -1.44838e-40 -5.007e-42
000080 cd 08 00 80 5b ea 1d 93 c2 0d 00 00 1e 08 00 00
       -3.157e-42 -1.9931732e-27 4.935e-42 2.912e-42
000090 13 7a bf 95 8c 1f 62 31 6f 8c 15 80 d6 10 00 00
       -7.7336885e-26 3.290526e-09 -1.978924e-39 6.04e-42
0000a0 52 80 fa 9c fe 6e 5d 27 8f f9 32 26 13 0f 00 80
       -1.6576782e-21 3.073008e-15 6.209437e-16 -5.408e-42
0000b0 36 63 ea 80 d5 05 85 02 ca 1e 68 0c a8 40 25 09
       -2.1525096e-38 1.954594e-37 1.7881895e-31 1.9891554e-33
0000c0 d5 a5 62 ad 5f 42 a8 b1 60 cf 27 a8 f1 71 2f b2
       -1.2883435e-11 -4.896989e-09 -9.3153295e-15 -1.0212248e-08
0000d0 cc 0d 00 00 de 10 00 80 1d 07 00 80 41 68 9a 31
       4.95e-42 -6.051e-42 -2.552e-42 4.493842e-09
0000e0 a0 be 2b 1e a5 22 00 00 dc 1c 0d 80 41 26 a8 90
       9.092085e-21 1.2428e-41 -1.204214e-39 -6.6323256e-29
0000f0 76 7c ca a1 ae 81 5a 88 b6 0d 00 80 d2 0d 00 80
       -1.3720997e-18 -6.5754426e-34 -4.919e-42 -4.958e-42
000100 6c 93 67 ba 5f 23 a2 3a 1a 0e 00 00 8b 54 86 a4
       -0.0008833918 0.001237016 5.059e-42 -5.825646e-17
000110 33 ad 9c 98 42 7f 36 ad 2a 6a a0 1c 69 45 8d a7
       -4.049994e-24 -1.0373759e-11 1.0615355e-21 -3.9210616e-15
000120 3e 5e 00 80 c7 0d 00 80 82 b8 31 3a b3 29 54 38
       -3.3808e-41 -4.942e-42 0.0006779508 5.0583574e-05
000130 58 d6 cd 98 ac 0e 00 00 62 8d 00 00 8d 25 b9 a3
       -5.320769e-24 5.263e-42 5.0719e-41 -2.0073644e-17
000140 b7 08 00 00 7c 73 00 00 df 53 6a 31 d2 0d 00 80
       3.126e-42 4.1428e-41 3.4099157e-09 -4.958e-42
000150 91 a1 1c 98 ee 56 2f af c5 0d 00 00 e7 5d 05 af
       -2.0244098e-24 -1.5947041e-10 4.94e-42 -1.212964e-10
000160 ac 9b 18 2c 0f 25 6c 2e c3 0d 00 00 87 ce a3 b2
       2.1686914e-12 5.3693102e-11 4.937e-42 -1.9069615e-08
000170 f8 66 4b 00 70 00 00 80 82 10 00 80 00 68 3e 2c
       6.9246e-39 -1.57e-43 -5.922e-42 2.7058356e-12
000180 c0 23 0b 80 85 84 47 ae e2 0d 00 80 d3 0d 00 80
       -1.023015e-39 -4.5365062e-11 -4.98e-42 -4.959e-42
000190 46 b3 6a 94 1b 0e 00 00 7d 49 2e b0 90 b0 b7 30
       -1.1849336e-26 5.06e-42 -6.3405264e-10 1.3365185e-09
0001a0 c6 0d 00 00 d4 2f 00 80 7c 05 00 80 29 f8 57 81
       4.941e-42 -1.7157e-41 -1.967e-42 -3.966731e-38
0001b0 d7 0d 00 80 40 55 37 32 d0 0f 00 80 7c 6b c6 2d
       -4.965e-42 1.06713856e-08 -5.672e-42 2.2557727e-11
0001c0 c0 0d 00 00 e5 5d 04 b1 d8 0d 00 00 84 71 4f 10
       4.933e-42 -1.92619e-09 4.966e-42 4.0911e-29
0001d0 88 5d 02 00 b2 0d 00 80 89 09 e0 32 d8 de 57 b1
       2.17224e-40 -4.913e-42 2.6081368e-08 -3.141329e-09
0001e0 c7 0d 00 00 34 86 66 af 55 11 00 00 44 e6 ad 10
       4.942e-42 -2.0966057e-10 6.218e-42 6.859125e-29
0001f0 e8 f6 d2 2a 57 8d f5 b1 ab b5 17 2e 13 ed 7c 33
       3.747482e-13 -7.146507e-09 3.449478e-11 5.888894e-08
000200 9e 51 32 b5 2d d3 89 b3 f8 3d 56 b1 a7 2d a3 26
       -6.6428936e-07 -6.417972e-08 -3.1176324e-09 1.1322771e-15
000210 13 4f c9 a5 e3 53 ec 25 38 34 44 b1 cc 0f 57 a7
       -3.4921525e-16 4.0996318e-16 -2.8551437e-09 -2.9845807e-15
000220 fb a2 aa a5 a4 2c f5 aa e1 96 65 32 61 78 44 a5
       -2.960074e-16 -4.3551718e-13 1.336386e-08 -1.7041076e-16
000230 ec 6f df 24 a6 48 ce 2d 61 70 17 94 d8 0d 00 80
       9.690044e-17 2.3451751e-11 -7.645715e-27 -4.966e-42
000240 fd 96 9b 9c df 0e 00 80 f8 c1 7b 32 80 c7 c3 9f
       -1.0296069e-21 -5.335e-42 1.4654226e-08 -8.291576e-20
000250 eb 21 00 00 9a 2d a0 2c 70 27 01 a9 9d 31 3b 8c
       1.2167e-41 4.5525363e-12 -2.867796e-14 -1.4420886e-31
000260 f0 92 00 80 f8 0d 00 00 fd 0e 00 80 b3 cc 09 30
       -5.2711e-41 5.011e-42 -5.377e-42 5.0131205e-10
000270 b6 25 83 b0 eb 8d 88 10 fd 0f 00 00 8b e5 6e a3
       -9.542223e-10 5.38612e-29 5.736e-42 -1.29506135e-17
000280 12 bb c1 a4 a7 04 00 00 b2 83 08 2c 50 7e 9e 9c
       -8.401732e-17 1.669e-42 1.9399868e-12 -1.0488214e-21
000290 55 91 00 80 fa 0d 00 00 1d 75 dd 93 aa 5b 0e b2
       -5.2135e-41 5.014e-42 -5.5903726e-27 -8.28633e-09
0002a0 cb 44 1d 27 63 bc 00 00 7c e6 22 b0 af 0d 00 00
       2.182542e-15 6.758e-41 -5.9262795e-10 4.909e-42
0002b0 c3 0d 00 80 8b 68 9a af ba 0d 00 00 d6 80 6e b3
       -4.937e-42 -2.808672e-10 4.924e-42 -5.553087e-08
0002c0 c0 0e 00 00 1f 2d 6b 03 54 a4 17 33 a2 fa fc ad
       5.291e-42 6.911209e-37 3.5306883e-08 -2.8760386e-11
0002d0 82 48 24 30 5d 38 a9 b1 b7 0d 00 00 16 0e 83 af
       5.976589e-10 -4.924955e-09 4.92e-42 -2.383877e-10
0002e0 c0 0d 00 00 fb 1f cb b2 f0 01 84 8a 5a 5c 4b b3
       4.933e-42 -2.3646853e-08 -1.2711866e-32 -4.7348614e-08
0002f0 28 2b 52 a1 cf 0e 00 80 79 eb 38 9c 2d 0e 00 00
       -7.1207884e-19 -5.312e-42 -6.1184834e-22 5.085e-42
000300 21 0f b0 b1 b2 0d 00 00 e5 9d b6 2a 09 42 fc 18
       -5.123994e-09 4.913e-42 3.2439256e-13 6.520715e-24
000310 46 0e 00 80 f4 34 33 a6 38 5d b7 af fb 0d 00 00
       -5.12e-42 -6.2174865e-16 -3.3353742e-10 5.015e-42
000320 24 4e 8f 2b 0e 0e 00 80 b6 e2 bf 2c 73 0e 00 80
       1.018245e-12 -5.042e-42 5.4537165e-12 -5.183e-42
000330 57 5f e2 32 b6 0e 00 00 17 b9 18 ad ce 6c f8 98
       2.6353218e-08 5.277e-42 -8.681298e-12 -6.4216362e-24
000340 0d 22 14 15 d2 0d 00 00 be 0f 00 00 ae 6c c6 b2
       2.9915223e-26 4.958e-42 5.647e-42 -2.3099656e-08
000350 51 5f 1a 31 13 4e 19 06 fa 13 00 00 d3 0d 00 00
       2.246413e-09 2.8833462e-35 7.166e-42 4.959e-42
000360 40 33 45 30 b0 07 86 29 58 a2 68 31 af 0d 00 80
       7.1741013e-10 5.952129e-14 3.3852725e-09 -4.909e-42
000370 fd 52 08 8d 15 fd 80 1f b2 2a 42 28 a5 77 0b 80
       -4.200813e-31 5.46288e-20 1.0778421e-14 -1.053111e-39
000380 a3 89 f9 30 1e 0e 00 80 25 c6 b9 b3 ad 8f 10 b1
       1.8156253e-09 -5.064e-42 -8.650776e-08 -2.1036428e-09
000390 b3 0d 00 00 1f 0e 00 80 c6 08 92 ae 61 0e 00 80
       4.914e-42 -5.066e-42 -6.64087e-11 -5.158e-42
0003a0 e8 d8 7a 86 5c 62 fd 0d e4 44 11 ad d1 2f 2c 10
       -4.7179132e-35 1.5616008e-30 -8.2575925e-12 3.3957855e-29
0003b0 b0 d6 5a 2d c4 25 16 2f 0b 18 1e ab ec 0f 00 00
       1.24395355e-11 1.3655838e-10 -5.616624e-13 5.712e-42
0003c0 e7 e9 00 a8 c6 1a 68 01 31 9d 35 98 ad 5d 0c 13
       -7.156147e-15 4.263088e-38 -2.3473063e-24 1.771667e-27
0003d0 8a 10 00 00 e6 0d 00 00 c6 07 00 80 79 a9 11 04
       5.933e-42 4.986e-42 -2.789e-42 1.7122486e-36
0003e0 33 57 cc 1e 82 0e 00 00 f0 0d 00 80 e3 6d 1c a2
       2.1635405e-20 5.204e-42 -5e-42 -2.1200116e-18
0003f0 de 2a 39 25 80 10 cc a6 81 d6 c5 95 15 8d f9 95
       1.6060716e-16 -1.4159816e-15 -7.9906094e-26 -1.0079289e-25

encoder.convs.0.nn.0.bias f4 [64]
000000 7f 16 39 bd 88 74 5a b9 bc 3e da 32 f8 0d 00 80
       -0.04518747 -0.00020833511 2.5407068e-08 -5.011e-42
000010 8f c2 c8 b5 b4 f4 b8 32 60 94 15 b3 13 f5 dc 00
       -1.4957785e-06 2.1531697e-08 -3.4826712e-08 2.0291725e-38
000020 b7 b6 ee bc 37 e2 af 3d a0 03 eb bc 31 ee a0 3d
       -0.02913986 0.08588069 -0.028688252 0.078579314
000030 84 30 ab bb 50 56 8d 96 83 bb ec 33 95 e6 96 bd
       -0.0052242894 -2.283425e-25 1.10237146e-07 -0.07368199
000040 9d 6e 90 bd 42 8e f0 b8 79 01 5f 3b a6 4e 02 3d
       -0.07052348 -0.000114705894 0.0034027977 0.031813286
000050 f6 42 00 ab 62 62 80 ba 15 13 44 ac 7e 5b 68 bc
       -4.556766e-13 -0.0009794945 -2.7863868e-12 -0.01418197
000060 5f 5a bd 3d 51 64 07 ab 6d ff 50 bd 0d b3 14 3d
       0.092457525 -4.810085e-13 -0.051024843 0.03630357
000070 11 4a a6 bd a6 07 ce a7 1f b2 01 80 9b 1a f3 3b
       -0.08119596 -5.718478e-15 -1.55733e-40 0.007418943
000080 a8 37 62 34 fd a5 11 3d b7 b1 99 0e 5d 18 17 3d
       2.1068138e-07 0.03555869 3.7888545e-30 0.03688847
000090 4c 0e 00 80 46 32 4d 3c d3 d5 51 34 78 a6 79 bc
       -5.129e-42 0.012524193 1.954243e-07 -0.015237443
0000a0 af fd 97 3d 9a 38 a9 bd 4f d5 6c 3c cf 42 bd b3
       0.07421433 -0.08262749 0.014455154 -8.813151e-08
0000b0 d4 b3 19 bd d9 d0 b8 34 ce f6 e3 30 4a 42 f3 3a
       -0.037525013 3.4424627e-07 1.658657e-09 0.0018559184
0000c0 f7 7a d0 3c 32 c1 ce 3c 45 a1 47 3b 7f 51 12 3c
       0.02544926 0.025238607 0.0030461114 0.008930563
0000d0 25 10 00 80 bc c4 79 ba 9c da c3 33 b8 61 14 00
       -5.792e-42 -0.0009527912 9.12016e-08 1.871765e-39
0000e0 c9 a8 28 bb 35 9d 8c 3c 0a 4d b1 b3 c8 9a 53 bd
       -0.002573537 0.017164806 -8.256218e-08 -0.051661283
0000f0 16 87 cd 3d 5e 64 6f bd d6 0d 00 80 27 c4 f4 3c
       0.10035531 -0.058445327 -4.963e-42 0.029878689

encoder.convs.0.nn.2.weight f4 [64, 64]
000000 58 fa 88 bd c5 0d 00 00 d4 63 d1 a3 2f ec 2f b2
       -0.06688374 4.94e-42 -2.2702104e-17 -1.0240043e-08
000010 4a 65 00 bd dd 6e bb 3a b1 4c 54 3d c7 c7 15 32
       -0.031346597 0.0014300008 0.05183095 8.718366e-09
000020 fe 7f 6c bc 97 96 7a 3d e4 d4 85 bb ba 56 3a bd
       -0.014434813 0.06117877 -0.0040842164 -0.045492865
000030 36 25 c1 3d 24 26 1b 26 5b 64 bf bd 45 e2 f0 3d
       0.094309255 5.382812e-16 -0.09345313 0.117619075
000040 67 d2 72 bd 58 cc 44 0f 9b 11 a8 bc 5e 04 4d bd
       -0.059282687 9.702901e-30 -0.020516207 -0.050052993
000050 c4 e0 15 85 08 2c ee bc 08 26 01 00 18 74 cc 3d
       -7.047229e-36 -0.02907373 1.05479e-40 0.099830806
000060 a5 1b 1b bd 7d f9 d3 11 17 b3 16 bd 52 06 d1 bb
       -0.03786816 3.344369e-28 -0.036791887 -0.0063789273
000070 f1 d4 76 3d 03 6e 16 97 32 85 c9 95 09 84 21 bd
       0.06026167 -4.860647e-25 -8.13934e-26 -0.03943256
000080 5d 1e a2 39 65 72 4c bc d5 5d d0 8d f5 a1 b8 3a
       0.0003092167 -0.012478446 -1.2841579e-30 0.0014086353
000090 26 92 a4 aa ae 79 09 bb ce c7 8b 3d 48 5f 1e bd
       -2.9233663e-13 -0.0020977068 0.06825219 -0.038665086
0000a0 7b 8e b1 3c d5 71 be 3d c3 5d 2c 3c da 68 8e bd
       0.021674385 0.092990555 0.010520401 -0.069535926
0000b0 17 d7 26 3b 84 77 44 30 e5 0e 76 30 97 3f 0a 9e
       0.0025457793 7.1474227e-10 8.9515445e-10 -7.318809e-21
0000c0 56 f9 e8 bc eb 57 f2 3b 8b db 1e 3b e6 b2 d8 36
       -0.028439205 0.0073957345 0.0024239745 6.458128e-06
0000d0 10 42 03 00 f5 b8 20 bc 79 c3 e0 13 8c 0f 00 00
       2.99205e-40 -0.009809722 5.67383e-27 5.577e-42
0000e0 ea bd 8a bd 73 a5 f0 bc a5 6a 88 bd e7 cb b4 3d
       -0.067745045 -0.029375767 -0.06660966 0.08827954
0000f0 4f b3 df 3c e5 77 1f bd 95 3b 96 0a 5a a1 50 3b
       0.02730718 -0.0389327 1.4466887e-32 0.0031834454
000100 e6 1c ca 3d 48 f1 62 ab 05 d2 9b 26 08 0f 00 00
       0.09868793 -8.0626174e-13 1.0812211e-15 5.392e-42
000110 2e d6 76 3d ab 4b da 3d 93 7f 1c 3d ab 09 04 b1
       0.06026285 0.10658964 0.0382076 -1.9214024e-09
000120 05 dc 81 3c 41 9b 93 bd f5 cc ec bb 98 6a 9e bd
       0.015851984 -0.07207347 -0.007226581 -0.07735175
000130 15 20 a6 bd 2a 08 20 ad 7e c7 32 bd 4b 61 cb bd
       -0.08111588 -9.09676e-12 -0.04364728 -0.099306665
000140 73 68 98 bc 9d 26 70 36 1c 29 33 bd 06 0a a0 3d
       -0.018604493 3.5785263e-06 -0.043740377 0.07814412
000150 0b 1c 62 aa 46 22 12 3d cf 0d 00 80 93 d1 aa bd
       -2.0082562e-13 0.035677217 -4.954e-42 -0.08340754
000160 1e 6d ba 3d 7c 4e 3d 33 2f 81 42 bd 3c b1 40 bd
       0.09102844 4.4076373e-08 -0.04748648 -0.047044024
000170 e2 36 fb 3d 7d 64 5e 22 50 c6 56 04 2e 54 8b 3d
       0.122663274 3.0139808e-18 2.524664e-36 0.068031654
000180 d2 4f 83 3d 66 31 3a 3c 26 60 7e 8e 61 75 33 31
       0.06411709 0.011364317 -3.1354211e-30 2.611465e-09
000190 23 2e 7f b2 5c a1 3d bd d3 1f 47 bd 8b 07 dd bc
       -1.4853444e-08 -0.046296462 -0.048614334 -0.026981136
0001a0 7f af 92 3d 99 32 25 3d 6e d8 8c bd c8 f2 a2 bd
       0.071623795 0.040331457 -0.06877218 -0.07956463
0001b0 d9 05 bb b8 d2 13 f4 2c 5b ea 47 8e 56 9e 76 b2
       -8.917944e-05 6.9370976e-12 -2.4641482e-30 -1.4355086e-08
0001c0 46 63 46 3d e4 09 e6 3c ac ec 9a bc f6 c6 b1 9c
       0.04843452 0.028080888 -0.018911682 -1.1764308e-21
0001d0 b4 0d 00 00 9f ed 09 bd 5b cd a0 9b 51 0c 58 9e
       4.916e-42 -0.03367388 -2.6602487e-22 -1.1437492e-20
0001e0 72 60 f9 bb 81 c0 43 bc 5d 3f ba bc 05 fd 7e 3c
       -0.007610374 -0.011947752 -0.022735292 0.015563254
0001f0 ce fd 9b 3d ae ff b9 3c d4 0d 00 80 c9 66 4e bd
       0.07616769 0.022704925 -4.96e-42 -0.050390992
000200 94 53 ad bc 52 cb ad 83 52 b5 48 af d2 fe b2 2a
       -0.021158017 -1.0214706e-36 -1.8254312e-10 3.179597e-13
000210 70 e3 f8 3c 20 6d 02 3d f4 be 08 bd fe 0f 00 80
       0.030381888 0.03184235 -0.033385232 -5.737e-42
000220 c3 50 60 bc 98 8c 94 3d dc 57 fb bc f2 4a 56 bb
       -0.01369113 0.07253379 -0.030681543 -0.003269848
000230 f6 1d 7e 3d d5 3b a5 10 8e 31 ba bd 2e 0d 9f 3d
       0.06204029 6.517321e-29 -0.09091483 0.07766186
000240 43 f1 51 3d 20 b2 e9 2c a4 30 ba 3c 8a 85 ac 3c
       0.051255476 6.642034e-12 0.022728272 0.02105977
000250 70 ee 25 01 b5 53 cf bd 16 d4 9f b3 73 12 8e 3d
       3.0476784e-38 -0.10123388 -7.442593e-08 0.06937113
000260 fb 39 a4 bd 79 5f 9f b2 50 f8 b3 bc 11 be 21 bc
       -0.080188714 -1.8553452e-08 -0.02196899 -0.0098719755
000270 3b 75 a1 bd 57 8a 70 10 79 47 01 80 7e 3d 6a bb
       -0.07883688 4.7438227e-29 -1.17475e-40 -0.0035742219
000280 4f 37 58 3c 4c c4 ed 3b e3 8e 8c b3 2c 01 e7 2a
       0.01319678 0.0072560664 -6.545249e-08 4.1034656e-13
000290 98 1c 3e 9c ab 40 58 3d cc f6 8c 3d f1 03 99 bd
       -6.2902683e-22 0.052796047 0.0688301 -0.07471455
0002a0 a2 2f b8 bd 4b 7e 4b 3d 01 e4 95 3d 1b d9 99 3d
       -0.0899346 0.04968099 0.07318879 0.07512113
0002b0 3f 7b 6a bb fb 10 00 00 c2 a5 d7 0a 3f 73 03 80
       -0.0035779027 6.091e-42 2.0766098e-32 -3.16849e-40
0002c0 06 3c 9c 3d b5 2f 44 3d 90 31 51 3b 84 79 48 35
       0.07628636 0.04789706 0.003192041 7.4682634e-07
0002d0 86 ac 35 32 22 d2 b5 3c be 25 00 80 58 b2 37 0a
       1.0574814e-08 0.022194926 -1.354e-41 8.844672e-33
0002e0 4a 7f 0d bd 5e f8 d3 bb 12 f3 82 bd de 28 48 bd
       -0.03454522 -0.0064688167 -0.06394018 -0.0488671
0002f0 b9 c5 ad 3c 4c 15 b4 bd 92 78 11 a9 aa b8 07 3d
       0.021212446 -0.087931246 -3.2301046e-14 0.033135094
000300 b1 11 44 3d 7a 7d 38 0d 15 58 08 33 c5 97 61 24
       0.047868434 5.6850414e-31 3.1745078e-08 4.891765e-17
000310 01 49 cc bd 1c 56 c0 3b 89 f5 82 bc 74 77 38 8b
       -0.09974862 0.00586964 -0.01598622 -3.5526978e-32
000320 88 b2 9c 3a 43 42 09 bc 16 67 dd bc 68 b7 d9 3c
       0.0011955062 -0.008377614 -0.027026694 0.026576713
000330 13 b6 1c 3c 26 f1 be 29 b8 ee b3 bd 07 50 1c 3d
       0.009564894 8.4795276e-14 -0.08785766 0.038162258
000340 04 b4 49 bd 5a fc 83 b0 a4 7d d6 3c 01 d4 9f bd
       -0.049243942 -9.603227e-10 0.026182957 -0.078041084
000350 c3 cb 4d 80 c6 5c 83 3d 1f a7 1d 00 76 6f de 3b
       -7.144429e-39 0.064141795 2.723181e-39 0.0067881895
000360 d6 5a 11 3d 06 0c 7d b1 db 87 a7 3c fd a9 b1 3b
       0.03548702 -3.682318e-09 0.020450523 0.0054218755
000370 7f 61 b7 bd 44 96 83 03 df 9c f2 2e 57 f1 41 3c
       -0.08954143 7.733987e-37 1.1032752e-10 0.011837325
000380 70 4d 9d bc 99 fb af bc 8b 00 ef 21 44 a7 9f 37
       -0.019201964 -0.021482276 1.6195414e-18 1.9032166e-05
000390 c2 d7 85 ab 74 35 8a 3d a0 09 da 3d b1 7e 0d 3d
       -9.510103e-13 0.067484766 0.10646367 0.03454465
0003a0 cb 87 7d bd f3 f4 8d 3c 7f 8a e3 bc 5b 58 34 bd
       -0.06189708 0.017328715 -0.027776001 -0.044029575
0003b0 20 0f 14 39 e5 0d 00 00 d8 6b 95 80 c1 37 29 27
       0.00014120014 4.984e-42 -1.3722176e-38 2.3483686e-15
0003c0 3c 4b 9a bc 52 f8 8a 3c 8b 11 26 3d 93 f0 04 00
       -0.018834703 0.016964111 0.040544074 4.53644e-40
0003d0 ba 0d 00 80 42 23 d2 bc b5 0d 00 00 11 46 04 2e
       -4.924e-42 -0.025651578 4.917e-42 3.0075557e-11
0003e0 66 f3 8a bb ed 66 cf 38 3b 4a d7 3d 10 2e be 3d
       -0.004240441 9.8897006e-05 0.10512205 0.092861295
0003f0 b9 0d f8 bc a4 9a 59 3c d7 66 ae 29 2a 42 65 39
       -0.030279981 0.013281498 7.744992e-14 0.0002186379

encoder.convs.0.nn.2.bias f4 [64]
000000 2d 97 eb 34 fa 42 2c 34 fb 31 93 34 22 9d 73 32
       4.3882156e-07 1.6043114e-07 2.741725e-07 1.41801895e-08
000010 d4 aa 8a b5 07 41 57 b4 17 10 70 b5 a5 74 9a 33
       -1.0331519e-06 -2.0047092e-07 -8.943038e-07 7.192401e-08
000020 f2 47 94 b2 3b e2 eb 34 47 f7 81 b4 dd 3c 25 b5
       -1.7262185e-08 4.3936765e-07 -2.420804e-07 -6.155586e-07
000030 85 e4 d1 b3 31 34 c0 33 92 8e 83 34 e0 88 26 34
       -9.7738884e-08 8.95019e-08 2.4504385e-07 1.550975e-07
000040 ce 20 59 b5 73 41 bd 35 df 8f 9c 35 84 b0 66 b4
       -8.0886537e-07 1.4100646e-06 1.1664778e-06 -2.1484635e-07
000050 fa 49 cd b2 b3 e1 bd 34 88 d5 c2 31 90 ff 3c 34
       -2.3898782e-08 3.536821e-07 5.670419e-09 1.7601837e-07
000060 c5 c2 0c b3 3d 1e 8d b4 6a a3 d4 b4 ac d4 e5 34
       -3.2773432e-08 -2.6285298e-07 -3.9606977e-07 4.2809313e-07
000070 01 96 56 b4 78 4f 3f 34 9a 36 f2 b4 a5 68 83 33
       -1.9984874e-07 1.7817172e-07 -4.511574e-07 6.1191976e-08
000080 38 8d d5 33 7f 2f 92 34 11 a1 46 b5 f7 5c 39 35
       9.944273e-08 2.7229177e-07 -7.399513e-07 6.905315e-07
000090 91 d8 cf b3 b2 cd b0 34 f3 1f 5c 34 a2 39 d6 b4
       -9.678582e-08 3.2932218e-07 2.050072e-07 -3.990254e-07
0000a0 66 e0 1c 34 2b 93 99 34 0e 3c 0b 35 f6 59 87 33
       1.4610268e-07 2.860555e-07 5.1868926e-07 6.302791e-08
0000b0 6e aa 16 34 7d 76 b9 b1 7a 91 9a b3 c1 22 75 b5
       1.403184e-07 -5.397679e-09 -7.197646e-08 -9.1320186e-07
0000c0 41 1b fb b3 e1 2b ea 33 91 5d ba 35 6b a2 67 b4
       -1.1693056e-07 1.0904456e-07 1.3885311e-06 -2.1572639e-07
0000d0 e9 ef 0f b5 c5 48 37 33 14 29 2d 34 9b 97 6a 33
       -5.3620766e-07 4.267419e-08 1.6126825e-07 5.4620255e-08
0000e0 5f a3 32 b4 9b 73 e6 33 08 af 8a 33 08 cf 27 34
       -1.6636976e-07 1.0731238e-07 6.457964e-08 1.5628405e-07
0000f0 39 f9 c4 b4 da 2f b9 34 ad 13 93 33 07 4c 92 33
       -3.6689178e-07 3.4493752e-07 6.8488e-08 6.812484e-08

encoder.convs.1.nn.0.weight f4 [64, 64]
000000 24 7c 8c 3b 28 8b c9 bd 1c 3c 45 3c c1 81 b6 bc
       0.0042872597 -0.09840995 0.012038257 -0.022278668
000010 c7 d8 9a 3d 06 17 2c bd 2f 93 93 bc 5a 84 5d 3b
       0.07560878 -0.042014144 -0.018014519 0.0033800812
000020 72 c6 c0 bd 7e a4 c8 3d 72 7c b6 3d 74 73 65 3d
       -0.094128504 0.097969994 0.08910455 0.056018308
000030 77 86 e9 bb d0 e9 2c bd d9 77 86 3d 17 b4 4c bd
       -0.007126625 -0.04221517 0.06565828 -0.049976435
000040 84 4b df 3d f1 df 33 ba d4 59 37 bd 9c b9 9f bd
       0.10903075 -0.0006861678 -0.0447634 -0.07799074
000050 ea 3d 9c 3d 17 9e 9c bd 37 71 c0 3d 33 70 48 3c
       0.07628997 -0.07647341 0.09396594 0.012233782
000060 f6 a9 ea 3d 31 38 e9 3d 9e e2 8b bd 13 d8 01 3d
       0.11458199 0.11387671 -0.06830333 0.031700205
000070 61 c4 8d 3d 5e 9e 14 3c ad 73 ba 3d dd 76 49 bc
       0.06922222 0.009070961 0.09104095 -0.012296406
000080 92 81 16 3d cf cb 4f bd c0 7a ad 3d a6 8b c7 3d
       0.03674466 -0.050731476 0.08470678 0.09743433
000090 7c 35 19 3c eb f3 bb bd 2e 7d d4 3d 3b 6b 0b bc
       0.009351131 -0.09177383 0.10375439 -0.008509452
0000a0 6a 26 b9 3d 14 30 bb bd 2b a0 bf 3d 77 aa ad bb
       0.0904053 -0.091400295 0.093567215 -0.005299862
0000b0 06 83 ad bd 24 f4 f0 3c 23 39 d7 3d 35 ab e7 3d
       -0.08472256 0.02941329 0.10508945 0.11311952
0000c0 b5 78 98 bd 22 a8 bd 3c ed 49 d2 3d 70 4e ff 3c
       -0.07444898 0.023151461 0.102680065 0.031165332
0000d0 d2 38 ce ba 2b 48 92 bd b0 13 c5 3d a7 1e e1 3d
       -0.0015733487 -0.07142671 0.09622896 0.109921746
0000e0 03 62 e0 3d b2 70 86 3d ab ec 1b 3d 64 95 1e bd
       0.10956194 0.06564464 0.0380675 -0.03871669
0000f0 7e b2 d0 3c 8a ae b3 3b 56 7d b2 3d f4 c0 b1 3c
       0.025475737 0.005483453 0.08715312 0.021698453
000100 e6 82 1d 3d 3a ca 03 3c 19 22 b1 bd 4f 5a 1a 3d
       0.038454913 0.00804382 -0.08649082 0.03768378
000110 89 50 b6 bc 0c e2 b1 3d ca fe 06 3d 66 b7 75 3c
       -0.022255199 0.08685693 0.03295783 0.014997339
000120 ef 8d bd 3d 90 cd d5 bc fc b0 1c 3d e8 6a a7 bc
       0.09255587 -0.026098996 0.038254723 -0.020436719
000130 a0 49 31 bd 18 e2 a7 bd db 99 c4 3d d1 a0 af 3d
       -0.043283105 -0.08197421 0.09599658 0.08575595
000140 bf 05 8a bb de d3 e8 3c 0b a8 b9 3d 05 2e 98 3c
       -0.004212111 0.028421339 0.09065255 0.018576631
000150 3c 18 9e bd f0 86 40 3d d6 5e 76 3d 86 84 02 3e
       -0.07719466 0.047003686 0.060149036 0.12745866
000160 bb d1 13 3e 4e 9e 40 bc 65 cc a4 bb 58 f4 b4 bc
       0.14435475 -0.011756493 -0.0050292485 -0.022089168
000170 85 be f7 bd 66 a3 91 bd 47 7d 85 3d dc c7 97 3d
       -0.120968856 -0.07111244 0.065180354 0.07411167
000180 72 8b 74 3d 4d 41 da 3d 0f 42 e7 3d 61 9b bf bd
       0.059703298 0.106569864 0.112918966 -0.09355808
000190 ed 54 75 3d 55 ee da 3d 8c 28 dd bd 1f 44 ba bd
       0.059895445 0.106899895 -0.10798749 -0.09095024
0001a0 72 a4 c6 3d 8a fc 4e bd be 4f ef bc d7 6f ef 3d
       0.09699334 -0.05053381 -0.029212829 0.11691254
0001b0 00 1a 43 3d 70 c0 86 bd 00 58 92 bc 3e bf 3b 3d
       0.047632217 -0.06579673 -0.017864227 0.04583668
0001c0 6f 90 b7 bc 0a a7 eb bd d0 2f af 3d 39 00 88 bd
       -0.022407738 -0.115064695 0.085540414 -0.066406675
0001d0 46 a9 ce bc 06 aa 9a 3d 97 3d 52 bc 97 63 29 bd
       -0.0252272 0.07551961 -0.012832067 -0.041354742
0001e0 65 ea bf bd 1a 3b 71 bc 2c 53 54 3d a5 06 57 3d
       -0.09370879 -0.014723564 0.05183713 0.05249657
0001f0 03 35 91 3d e7 85 7b 3c 3c 3a 36 3d eb 11 32 3d
       0.07090189 0.015351749 0.04448913 0.04347412
000200 9f 12 0d bd 6a 9f 5a bc 9b 1f d7 3b 8b 5d 4c bd
       -0.034441587 -0.013343671 0.006565047 -0.049893897
000210 e8 15 30 3d 20 74 79 bb c1 a9 95 bd 88 66 a7 bd
       0.04298964 -0.00380636 -0.073077686 -0.08173853
000220 45 a7 9c bd eb 05 b0 bd de f5 b3 bd 74 38 97 3d
       -0.07649092 -0.08594879 -0.0878713 0.073838145
000230 43 3b ed bc c2 cc b9 bc 71 3d 2b bd e5 d0 b2 3a
       -0.028958922 -0.022680644 -0.041806642 0.0013642578
000240 c6 3b ae 3d 5a fe 10 3c 40 f6 71 3d cb 3d cc 3d
       0.08507495 0.008849705 0.059072733 0.099727236
000250 06 ee 44 bd 1a 15 c8 3d 87 d4 7e bd d4 45 a8 bd
       -0.04807856 0.0976965 -0.0622144 -0.08216444
000260 b2 f8 c9 3d 07 a1 a9 3d a8 d5 88 bd db fd a2 3d
       0.09861888 0.08282667 -0.06681377 0.07958575
000270 c5 63 2f bd 18 16 97 3c f5 c3 8c bd 04 a1 0e bd
       -0.042819757 0.018443152 -0.06873313 -0.034821525
000280 4b 1d bf bb 6e 97 8d 3a 35 fd df bc 06 57 b9 3d
       -0.0058323494 0.0010802576 -0.027342418 0.090498015
000290 77 04 4a 3d 1a 1e a1 3d f7 9f ab bc 36 c6 8c 3d
       0.049320664 0.078670695 -0.0209503 0.06873743
0002a0 e4 47 18 bd 8b 3e 47 3d 4c c9 d8 3d f1 81 85 bb
       -0.037177935 0.04864363 0.10585269 -0.004074328
0002b0 ab 21 2c bd c1 8e 22 3d 42 8c e8 bc 8f c2 68 3d
       -0.042024296 0.039686922 -0.028387193 0.05682617
0002c0 71 ad 87 3c 3c 17 78 bd 5d 8e 2d bd a8 e4 1b 3d
       0.016562195 -0.060569033 -0.042372096 0.03805986
0002d0 19 c9 22 bd 7c 3c 7f 3d 65 99 a1 bc 67 66 04 bd
       -0.039742563 0.06231354 -0.019726465 -0.03232422
0002e0 17 7f 0c bc 0c 04 a7 3d 58 ef 10 3d 8a 09 27 bc
       -0.008575222 0.08155069 0.035384506 -0.010195145
0002f0 09 d1 2e 3d 13 2e 9f bd 60 07 34 3d a5 e9 f2 3d
       0.04267982 -0.0777246 0.043952346 0.118609704
000300 05 b8 bf 3c f5 0c c7 3d 19 60 8d 3c 70 31 de bd
       0.023403177 0.09719268 0.017257737 -0.10849273
000310 49 08 d0 bd 00 15 18 3c 9c 27 26 bd ea 03 c0 bd
       -0.1015783 0.009282351 -0.04056512 -0.093757465
000320 14 f2 d0 3b 91 5d 54 3d b2 73 e5 bd 2e 25 8f bd
       0.006376514 0.051847044 -0.11203708 -0.06989513
000330 21 f9 84 3d 51 f3 10 bb 4b 81 f0 bc 95 e0 4c 3d
       0.0649283 -0.0022117684 -0.029358527 0.050018866
000340 26 15 49 bd 49 94 15 3d 6f 61 f9 bb ed c3 93 3d
       -0.049092434 0.03651837 -0.007610492 0.07215104
000350 32 1e ef 3d 1d cc 59 bd 69 9c d6 3d 6c ee 91 bd
       0.11675681 -0.053173173 0.104790516 -0.071255535
000360 ad 78 99 bd ea d4 ec bc ab a6 b3 3d f3 f5 02 3e
       -0.0749372 -0.02891012 0.08772024 0.12789135
000370 32 3c ca 3d 6f 6e 50 3c 2b 53 de bc 29 85 e3 bd
       0.098747626 0.012721642 -0.027139267 -0.11109383
000380 30 33 cd bd b1 b4 3a bd 1a ef 94 3d 5e b7 16 bd
       -0.10019529 -0.045582477 0.072721675 -0.036795966
000390 7c e6 a7 3c 85 c0 50 3d 57 b8 f2 3c 5a 59 a6 3c
       0.020495646 0.05096485 0.029628916 0.020306278
0003a0 6a b3 fa 3c 97 32 b9 bd 7f 17 9a 3d 16 3f 46 bc
       0.03060313 -0.09042852 0.07524013 -0.012100002
0003b0 26 91 19 bd 54 a4 49 3d ba 6c 9f bc 0a a7 db 3d
       -0.03749194 0.04922898 -0.019461025 0.107252195
0003c0 81 6e ca 3d d3 d3 25 bd 88 12 14 3d 66 cc c0 bd
       0.09884358 -0.040485214 0.036150485 -0.09413986
0003d0 76 8e 09 bd ff 83 0f 3d 62 26 03 3c 83 56 5b bd
       -0.033583127 0.03503799 0.008004757 -0.0535493
0003e0 ef d2 a1 bc 53 92 a0 bd 76 53 d1 bc e8 71 dc bb
       -0.019753901 -0.07840409 -0.025552493 -0.006727446
0003f0 5f 24 82 bd 61 1e 55 3c 31 1b 70 bd b0 d3 9f bc
       -0.063545935 0.013007731 -0.05861968 -0.01951012

encoder.convs.1.nn.0.bias f4 [64]
000000 4c e9 b0 3c 5e c9 cf 3c 55 71 ff bc 18 ab b1 3d
       0.02159562 0.025364574 -0.03118197 0.08675212
000010 90 f9 6a bd ea 9a 2c 3d c6 e4 54 3c cc bd ab 3c
       -0.057366908 0.042139925 0.012993997 0.020964526
000020 1f f8 fa 3c d1 51 ae 3d 2b 20 3b bc 5b 01 8d 3d
       0.030635891 0.08511699 -0.011421244 0.06885024
000030 ab 06 59 3d 62 f2 70 bc 76 07 2d 3c b1 a3 9d bd
       0.052984875 -0.014706226 0.010560861 -0.07697237
000040 3f b1 35 3c f9 9e 7a bd ef aa 26 3d c4 0b a9 bd
       0.011089622 -0.061186764 0.04069036 -0.08254197
000050 b8 90 99 3d 2f 3f b4 bb 30 61 82 bb ee 8f c3 3d
       0.07498306 -0.005500696 -0.003978871 0.09548937
000060 a6 c1 2a bd 5b 1f 2d 3d 3a 91 a5 3d 27 23 7b 3d
       -0.041688584 0.04226623 0.080843404 0.06131282
000070 41 84 67 bd 50 93 2c 3d 2a 2f 41 bd 93 b0 a0 bd
       -0.05652261 0.042132676 -0.04716412 -0.07846179
000080 ff c6 51 3d c5 46 a6 bd 99 23 06 3d a5 b3 89 bd
       0.051215168 -0.08118967 0.032748792 -0.067237176
000090 51 8b 2d bc 0f fe 26 3b 1f 42 50 3b 63 79 ce 3d
       -0.010592298 0.002548102 0.0031777692 0.100817464
0000a0 90 c7 7f bd 79 b8 06 3d 7a ad 3f bd de 1d 89 bb
       -0.062446177 0.03289077 -0.0467963 -0.0041844686
0000b0 e1 fb 86 3b d5 f1 8c 3d 14 6c 1a bc b3 46 25 bd
       0.004119382 0.06882063 -0.009425182 -0.040350627
0000c0 12 39 6a bd 23 bf 4b 3b 44 2f 42 3d b6 6a 90 bc
       -0.057183333 0.0031089268 0.047408357 -0.017629009
0000d0 60 72 43 3d e1 e0 d2 bc 67 15 a1 3d 2c 22 21 bd
       0.0477165 -0.025741996 0.0786541 -0.03933923
0000e0 55 cf f1 bc a6 96 06 3d c7 ba 8a bd d3 38 e9 bc
       -0.029517809 0.032858513 -0.06773906 -0.028469479
0000f0 78 3d b8 3d f2 f2 2c bd e5 56 34 bc 9a ab c2 3d
       0.08996099 -0.04222388 -0.011007045 0.09505387

encoder.convs.1.nn.2.weight f4 [64, 64]
000000 1a c4 ee 3d a7 35 bf bc 85 c5 39 bc a5 66 26 3d
       0.11658497 -0.023341013 -0.011338596 0.040625233
000010 79 3a 6c 3c f5 56 97 bd f5 97 c1 bd b2 3f d1 bc
       0.014418238 -0.073896326 -0.09452812 -0.025543068
000020 c2 71 8f bd bf e7 d9 3d fe 9c 75 3d 69 7b 24 bb
       -0.070041195 0.10639905 0.059964173 -0.0025097972
000030 61 aa af 3d ba 00 ae bc 18 f3 c6 3d 26 81 87 3d
       0.08577419 -0.02124058 0.09714335 0.0661643
000040 78 68 e6 3d 57 c2 2b 3d c9 9f b7 bd e9 c7 9c bd
       0.112503946 0.041933384 -0.089660235 -0.07655317
000050 1f 9d 6d 3c f4 3e 53 3b 52 b5 d7 3c d1 2d 02 3d
       0.014502793 0.0032233568 0.026331577 0.031781975
000060 fd 58 01 3d 03 50 a0 3d a4 b9 86 bd f8 95 5e bd
       0.031579006 0.07827761 -0.06578377 -0.05434224
000070 f4 3a 69 3d 34 98 c7 3d d4 84 e1 3d c3 53 ad 3d
       0.056940988 0.09745827 0.11011663 0.08463242
000080 14 de ae bc 9a 01 95 3c e4 1e 9e ba 51 9f 9b 3d
       -0.02134613 0.01818924 -0.001206365 0.075987466
000090 9e 4e fd 3c 42 f4 58 3b ad e6 71 bd 3b 87 40 3d
       0.030921277 0.0033104573 -0.05905788 0.047003966
0000a0 db 96 4c bd b4 b3 32 bd d7 1d 1e 3d 1a 8a a7 3d
       -0.049948554 -0.04362841 0.038602676 0.08180638
0000b0 cd 92 a7 3c c7 39 55 bd 13 c8 4a 3c 27 f4 7e bd
       0.020455742 -0.052057054 0.012376803 -0.06224456
0000c0 c6 4a e7 bc 8d 93 36 3c 49 7d af bd 7c 34 9c bc
       -0.028233897 0.011143577 -0.08568818 -0.019067995
0000d0 1e 9b 89 bc 9f 9a 65 3d 52 19 a1 3d c7 e0 d4 ba
       -0.016797598 0.05605566 0.078661576 -0.0016241305
0000e0 bf 62 fa 3d a9 94 bc 3d 38 88 de bd da c8 3a 3d
       0.122258656 0.09208042 -0.108658254 0.045601703
0000f0 98 2d 7f 3d d9 e7 1d bd 79 6b 25 bd 1d b1 91 bd
       0.06229934 -0.038551185 -0.040385697 -0.0711386
000100 a4 e0 ce 3d a0 27 da bd 92 28 fc 3b 24 84 c2 3a
       0.101014405 -0.10652089 0.007695266 0.0014840406
000110 62 66 54 bd 1f 73 b4 bc 17 34 d7 bd 68 42 5f 3d
       -0.051855452 -0.02202755 -0.10507982 0.05450669
000120 db 54 95 3d a0 c8 cb 3d 35 b0 11 bd 77 61 a6 bd
       0.072915755 0.099503756 -0.035568435 -0.08124059
000130 f6 aa 24 bd da 3c cf 3c 77 dc b9 bd 4e b5 6a ba
       -0.040202104 0.025297571 -0.090752535 -0.0008953408
000140 94 5a d9 bc f6 76 ce bc 9f 9c 04 3c 66 8f cf bd
       -0.026532449 -0.02520321 0.008093982 -0.10134773
000150 b6 59 94 bb c3 06 8c ba 23 3b ce bc ad c3 0a bd
       -0.004527296 -0.0010683167 -0.025174683 -0.033878017
000160 a3 21 9f 3d 3e 1f a7 bd b2 e8 04 3d fe 16 8b 3d
       0.077700876 -0.08160256 0.032448478 0.06791495
000170 7a 4a a8 bb b6 84 c9 3d 85 fc 7d bd cb c0 b5 bd
       -0.0051358314 0.09839766 -0.0620084 -0.08874663
000180 57 0d 27 3d 90 f6 bd 3d 2f 2d 17 bc a9 ee 8d bd
       0.040784206 0.09275544 -0.009227081 -0.069302864
000190 01 3d 17 bd 62 74 98 bd 1a 4f 90 3d 2f 9f c6 3c
       -0.036923412 -0.07444073 0.070463374 0.024245827
0001a0 84 17 aa bc 00 c0 3e bd 3a 8a 9a 3d 78 a2 f8 3d
       -0.020763166 -0.046569824 0.07545896 0.121403635
0001b0 22 9e 94 bd 74 22 62 bd 2e 97 43 bc 0e 3d 9d bd
       -0.07256724 -0.05520864 -0.0119378995 -0.07677661
0001c0 94 00 a7 bb 61 a7 89 bc 18 8d c0 bc b9 93 93 3b
       -0.0050965045 -0.016803445 -0.023504779 0.004503694
0001d0 06 d2 9d 3d 51 3e a1 3d 55 28 91 bd f8 61 e8 bd
       0.077060744 0.07873214 -0.07087771 -0.11346811
0001e0 6d e3 7a 3d 47 e9 92 bd 2d f0 ca bc 0a 01 31 bd
       0.061252046 -0.071734 -0.024772728 -0.04321388
0001f0 6a 4f 81 bd ea f8 10 bd 93 50 94 3c 32 fb 53 3d
       -0.06313975 -0.035393633 0.018104827 0.05175323
000200 3f b3 19 3d 18 f4 92 bd 58 f5 98 bd 1f 3d 36 3d
       0.037524458 -0.071754634 -0.074686706 0.044491883
000210 64 af 18 3d 2b 95 af 3d 09 5d b1 bc 43 29 52 bd
       0.03727664 0.085733734 -0.021650808 -0.05130888
000220 05 59 83 bd a0 9f f4 bc 18 66 b5 bb 74 95 85 bd
       -0.064134635 -0.029861271 -0.005535852 -0.065226465
000230 0c d9 a9 3c 7e d8 45 bc 01 26 b6 bd 36 72 aa 3d
       0.020733379 -0.012075542 -0.088939674 0.08322565
000240 74 d9 55 3d 3a 6d ca bd 62 8b 11 bb 6f 4f 5f bc
       0.052209333 -0.098841146 -0.0022208323 -0.013629778
000250 01 83 2b bd b8 92 25 3a 53 05 83 bd 26 9a 84 3c
       -0.041872982 0.0006316113 -0.063975 0.016186785
000260 7f fb 87 bd fb 51 8b 3c 33 4d 2b bd 5c 1e 96 bd
       -0.06639766 0.017006865 -0.04182167 -0.07330009
000270 9a 57 b8 3c f7 69 49 bd 70 90 24 3d c2 fd 42 3c
       0.02250271 -0.04917332 0.04017681 0.011901321
000280 14 ba a4 3d 4f e8 99 3c 19 a1 19 3d 85 98 bd 3d
       0.08043304 0.018787531 0.03750715 0.092576064
000290 da 77 c1 3d a8 bb fd 3c da 70 64 bc 08 d7 c8 3c
       0.09446688 0.03097327 -0.0139429215 0.024516597
0002a0 6e e5 5c bb c9 99 bd 3d 51 fe bb bc 1c e5 48 3d
       -0.0033706087 0.09257848 -0.022948416 0.04904662
0002b0 08 b2 2c bd c2 08 0e 3d 22 f1 97 bc e4 b2 a6 bd
       -0.04216197 0.03467632 -0.018547598 -0.081395894
0002c0 ce 77 83 bc 4f 2c ff bb ce 81 40 bd cd 98 26 3c
       -0.016048338 -0.0077872644 -0.04699879 0.0101682665
0002d0 31 0d 20 bd 13 34 6e bc e4 ae 14 bd c2 0a 9b 3c
       -0.03907508 -0.014538783 -0.0362996 0.018926028
0002e0 7d 68 9b 3c fe 75 2a bd 10 39 6e 3c a3 57 e4 3c
       0.018970722 -0.041616432 0.014539972 0.02787382
0002f0 b5 e8 50 3d dd 6b c4 3c 9d c0 ab 3c 34 f9 06 bd
       0.051003177 0.023977214 0.020965869 -0.032952502
000300 5f c6 00 be 6b e5 55 bd 0e a7 88 ba b6 e5 e4 3d
       -0.12575673 -0.052220743 -0.0010425763 0.111766264
000310 a0 e4 52 bd ea 1a 41 bd 93 fd 83 bd 6b ae d7 bb
       -0.051487565 -0.047144808 -0.0644485 -0.0065820715
000320 00 7e 03 3d 75 dd f2 bd 4b bf a2 bd 75 d3 16 bd
       0.032102585 -0.11858646 -0.079466425 -0.036822755
000330 0f c7 be 3d e0 11 04 bd 3e 71 12 3b 67 be 9f 3d
       0.09315311 -0.03224361 0.002234533 0.07799988
000340 60 23 84 3d 79 a2 2c bd 57 63 24 3d ff a5 ba bd
       0.0645206 -0.042147133 0.0401338 -0.091136925
000350 5c 59 2f bd fd 01 60 b9 61 4c a2 3d 95 0b 4c 3d
       -0.04280983 -0.00021363045 0.07924724 0.049815733
000360 31 57 05 bd c8 60 8b bd f6 b5 cb 3d 6e fa 82 3d
       -0.032553855 -0.06805569 0.09946816 0.06395422
000370 58 89 1f bd 36 00 9c 3c ca ea b1 bd 20 49 9a bd
       -0.03894934 0.01904307 -0.086873606 -0.07533479
000380 27 fd 8c bb 0a c2 9d 3b 01 1a 12 bd 58 b0 a4 bd
       -0.004302639 0.004814391 -0.03566933 -0.080414474
000390 47 e2 dc 3d 2a ba 26 bd 72 12 a5 3d 19 d1 b0 3d
       0.107853465 -0.040704884 0.08060159 0.08633632
0003a0 2b ea 98 bc df f7 01 bd 77 e4 01 3d 45 d9 78 bd
       -0.018666347 -0.03173053 0.03171202 -0.06075408
0003b0 58 52 ef 3c ff 63 30 3d e7 62 c7 bb df 26 0e 3d
       0.02921407 0.043064114 -0.006084788 0.03470504
0003c0 c0 61 c5 bc 4d f4 46 bc 72 23 f6 3c fa 55 87 3b
       -0.024094462 -0.012143207 0.030046199 0.0041301223
0003d0 84 b6 1e bb 66 ca 36 bd ca 18 84 bd 19 fe a1 3d
       -0.0024217675 -0.044626616 -0.06450041 0.079097934
0003e0 88 19 f8 bd 7f 68 fa bc 68 78 9b 3b 3d b6 04 bd
       -0.12114245 -0.030567406 0.004744578 -0.03240036
0003f0 f9 7e 79 b9 1e fa 8b bd 42 00 b5 3c 26 3b bb 3d
       -0.00023793791 -0.068348154 0.02209485 0.09142141

encoder.convs.1.nn.2.bias f4 [64]
000000 7d 9a 78 b4 dd 3a 37 34 f6 3f 37 b3 4a 02 db b3
       -2.3153002e-07 1.7064617e-07 -4.266618e-08 -1.01983986e-07
000010 1e 3e 21 b4 c6 8e 9e b4 20 97 ac 33 67 40 85 34
       -1.5016892e-07 -2.9533675e-07 8.0368636e-08 2.482004e-07
000020 12 e2 a5 b3 2e 1c 86 b4 5f 19 b5 b4 4b cb 1d 35
       -7.724533e-08 -2.4979948e-07 -3.3732337e-07 5.878289e-07
000030 3e 55 00 b5 86 a7 c9 34 31 4f 27 34 2e 9e f1 34
       -4.780776e-07 3.7561057e-07 1.5581897e-07 4.500484e-07
000040 b9 2e c1 b3 78 bb cb 32 11 16 db b4 19 b4 ad b3
       -8.995762e-08 2.3717561e-08 -4.0807984e-07 -8.0887e-08
000050 86 99 88 33 2d 8d 07 b4 ef be 8b b3 b2 ea ef b3
       6.360919e-08 -1.2624214e-07 -6.5074225e-08 -1.11719956e-07
000060 3a 2f 2c b3 a1 04 10 b4 20 c7 ca b2 2a fb 3b b4
       -4.0089823e-08 -1.3412729e-07 -2.3606447e-08 -1.7507105e-07
000070 a4 7d ff 33 2a 1b 17 b4 f9 a1 8a 33 87 d4 ba 33
       1.1897217e-07 -1.4072853e-07 6.4555884e-08 8.6999584e-08
000080 db 7c 48 33 6a 7f 7a 35 ae 37 a8 34 aa 77 90 b3
       4.6679684e-08 9.331767e-07 3.133295e-07 -6.727289e-08
000090 44 72 dd 33 65 20 f0 32 83 5d 26 32 94 f8 84 34
       1.0311899e-07 2.7954409e-08 9.683734e-09 2.476778e-07
0000a0 e7 a8 3e b3 c3 a2 59 34 62 8a 9d b4 34 e2 02 b3
       -4.4391438e-08 2.0268912e-07 -2.9344216e-07 -3.0473714e-08
0000b0 34 26 25 33 a0 a0 6c 32 95 2d e9 34 5d 07 9f b2
       3.84518e-08 1.377353e-08 4.3432797e-07 -1.8513385e-08
0000c0 b6 83 16 33 18 ee 8b 34 00 dd 8c b2 7d a6 81 34
       3.5044387e-08 2.6064004e-07 -1.6398644e-08 2.414926e-07
0000d0 81 05 00 34 64 21 f9 33 fc 70 f4 b3 1a 50 37 b4
       1.1922931e-07 1.160104e-07 -1.1382687e-07 -1.7072344e-07
0000e0 02 7a 9c b3 7d 51 93 32 83 2a d1 31 dd f3 32 b4
       -7.286509e-08 1.7150109e-08 6.0875336e-09 -1.6666259e-07
0000f0 9d 03 ac b3 0f 48 bc 33 65 14 97 b4 af c0 04 34
       -8.0100314e-08 8.7675396e-08 -2.814078e-07 1.2363556e-07

encoder.batch_norms.0.weight f4 [64]
000000 ea 53 4a 3f 89 5a 56 3f 00 e2 58 3f 9f d5 50 3f
       0.7903429 0.83731896 0.8471985 0.8157596
000010 d7 a0 3e 3f ab fe 57 3f af 06 58 3f ba 70 5d 3f
       0.7446417 0.8437297 0.843852 0.8650013
000020 54 ec 54 3f f7 17 66 3f 08 cb 60 3f 30 07 41 3f
       0.8317311 0.8988032 0.878098 0.7540159
000030 7d ef 4c 3f 68 50 4b 3f 11 14 54 3f f2 6e 4e 3f
       0.8005293 0.79419565 0.8284312 0.8063804
000040 af 38 4f 3f 9f 52 59 3f 48 fe 3d 3f 2c e4 4b 3f
       0.8094587 0.84891695 0.7421613 0.7964504
000050 bb f5 5d 3f 94 2a 4f 3f 0b 53 58 3f eb 9c 50 3f
       0.8670308 0.80924344 0.84501714 0.8148944
000060 b6 4b 44 3f c3 6b 4d 3f a9 8f 4b 3f 1f ec 4e 3f
       0.76678026 0.80242556 0.79516083 0.8082904
000070 39 5f 5a 3f 7b 04 4c 3f ff c2 57 3f 6d 30 52 3f
       0.8530155 0.79694337 0.84281915 0.8210514
000080 50 44 59 3f 0e 70 44 3f 08 b3 55 3f 6f 16 45 3f
       0.8486986 0.7673348 0.83476305 0.76987356
000090 1c 84 45 3f 5c f4 5b 3f 0d 9e 56 3f c5 82 4c 3f
       0.7715471 0.8591974 0.83834916 0.7988704
0000a0 21 e9 56 3f 31 e7 57 3f e7 62 4c 3f f8 e2 51 3f
       0.83949476 0.84337145 0.79838413 0.8198695
0000b0 bb c4 44 3f ba bf 41 3f 34 a3 5e 3f 16 a7 5b 3f
       0.76862687 0.75683177 0.8696778 0.8580183
0000c0 29 cd 57 3f 8c 23 55 3f bc 3a 55 3f d9 20 44 3f
       0.84297425 0.83257365 0.83292747 0.7661262
0000d0 49 65 61 3f 37 ba 41 3f 02 28 45 3f f3 b1 37 3f
       0.88045174 0.75674766 0.7701417 0.71755904
0000e0 1e e3 5a 3f e7 21 54 3f 80 ab 39 3f 55 84 55 3f
       0.85502803 0.8286423 0.72527313 0.8340505
0000f0 e8 64 52 3f 25 f0 3c 3f 71 ac 58 3f 74 2a 48 3f
       0.8218522 0.7380393 0.84638125 0.7818978

encoder.batch_norms.0.bias f4 [64]
000000 0d 18 22 3b e1 b0 59 3c ce a1 dd bc 37 f8 d5 bb
       0.0024733574 0.0132868 -0.027054694 -0.0065298337
000010 28 94 4b bc 03 5e 03 bc 8d 2b f9 bb 49 00 24 bc
       -0.01242546 -0.00801802 -0.0076040686 -0.010009834
000020 f6 4d 65 3c 50 e8 da 3c 13 cf fc 3b 31 af 01 3d
       0.013995638 0.026722103 0.007715115 0.031661216
000030 27 1d e0 bb a8 fc 78 3b a7 a7 5f 3c 57 45 a1 3c
       -0.0068394127 0.0037992392 0.013650811 0.019686384
000040 ab 54 62 bc d8 d2 9a 3a a2 b2 84 ba 3a 1b 9a 3b
       -0.013814132 0.0011812104 -0.0010124038 0.0047029527
000050 64 0e ab bc a9 66 e3 3b 1f 3d 04 3c 19 ce 91 bb
       -0.020880885 0.0069397283 0.008071213 -0.0044496176
000060 54 ce 07 3c ee 94 c7 3a d5 d4 1d bc 27 0f 84 3c
       0.008288939 0.001522688 -0.009633263 0.016120506
000070 da 7a bc bc 23 5c 18 bc e7 ee 2a 3c 29 67 05 3c
       -0.023007799 -0.009299311 0.010432935 0.008142271
000080 6c c9 a1 bc 11 4e a0 3b 10 d6 1e bc 70 07 dd 3c
       -0.019749366 0.0048921187 -0.009694591 0.026981086
000090 e2 ff 5a 3b 83 bf 26 bc 87 8e 30 3b 5e d5 da 3b
       0.0033416678 -0.010177496 0.0026940422 0.0066782674
0000a0 ba a3 c2 3b 45 95 c0 bc ee 5c f8 bb 8b e8 2a 3c
       0.005939928 -0.023508677 -0.0075794375 0.010431419
0000b0 7a e2 e5 3a a7 fb a3 3b f2 90 8e 3c e6 e2 9e bc
       0.0017538809 0.0050043645 0.0174031 -0.019395303
0000c0 fb 98 c1 3b 93 26 51 bc f7 3f bc bc 96 3a 5a 3c
       0.0059081293 -0.0127655445 -0.02297972 0.013319632
0000d0 4f 75 31 3c c1 7b 59 3b 10 55 af 3c e4 b0 96 3a
       0.010831191 0.0033185335 0.021402866 0.0011496809
0000e0 81 02 77 3c e8 7f e3 3c e4 ae d8 3b 2a 01 c7 bc
       0.015076281 0.027770951 0.0066126455 -0.024292547
0000f0 7e 60 18 38 8e 20 0d ba dd f8 f7 ba 90 ab 3c 3c
       3.632949e-05 -0.0005383574 -0.0018918772 0.011515513

encoder.batch_norms.0.running_mean f4 [64]
000000 ff 0f da bd ea 30 12 bd 32 9f 22 3e 8c 87 df 3d
       -0.10647582 -0.03569118 0.1588104 0.109145254
000010 eb 2b 60 be 20 67 2c 3e b9 ea 6b bd 3d af df bd
       -0.21891753 0.16836214 -0.057596896 -0.10922096
000020 68 1f 42 be 8d a2 15 3e f8 2a a4 3d 75 64 b8 be
       -0.18957293 0.1461279 0.08016008 -0.36014143
000030 5a 36 c3 be 85 aa 87 bd 8d 3c e5 bd ed 03 b8 be
       -0.38127404 -0.06624321 -0.1119319 -0.35940495
000040 75 5f 91 be d6 ca b6 3e 7c 7b 82 3d 2d 12 59 be
       -0.2839314 0.35701627 0.06371209 -0.2119834
000050 b2 6a 38 3d 35 6b a2 bd a5 97 cd bc c3 69 9d be
       0.045023628 -0.07930604 -0.025096724 -0.30744752
000060 15 55 60 be ce c8 80 be 8e c3 f8 3d 85 ad c8 bd
       -0.21907456 -0.25153202 0.12146674 -0.09798721
000070 ff 13 d0 3e 00 10 90 be 30 84 d9 bd 3a a5 26 be
       0.40640256 -0.28137207 -0.10620916 -0.16273966
000080 9e b1 93 3e 08 ef ae be cd 5e 77 be aa 6e bf 3d
       0.2884645 -0.3416674 -0.24157257 0.09347279
000090 5e c5 86 be 36 50 c5 3c b5 6e 37 3e 74 a8 d7 bd
       -0.26322454 0.0240861 0.17913325 -0.10530177
0000a0 d4 f7 89 be 49 55 45 bd fb 68 cc be b1 d2 b3 be
       -0.2694689 -0.048177037 -0.39923844 -0.35121682
0000b0 75 ed bd be 6a d8 c9 be 92 62 23 bd a5 e8 c3 3e
       -0.37095228 -0.39422923 -0.039888926 0.3826343
0000c0 8a b7 73 bd 65 aa fe 3d 4b 8c fb bd e0 02 db bd
       -0.05950121 0.12434844 -0.12282618 -0.10693908
0000d0 14 14 90 be 7f 0b b0 be bf 04 11 3e 7e a3 d6 be
       -0.28140318 -0.3438377 0.14161967 -0.4192161
0000e0 5b 25 1c 3e cd d7 48 be 96 bc c4 be 0b 14 c1 3c
       0.15248625 -0.19613571 -0.3842513 0.023569128
0000f0 ec 62 69 bd 39 9b cb bc 5e da 4d 3d 8e d7 c9 be
       -0.056979105 -0.02485429 0.05025708 -0.39422268

encoder.batch_norms.0.running_var f4 [64]
000000 d5 75 ed 3b 1d 6c 20 3c 9c 62 66 3c 2e f9 c1 3c
       0.0072467127 0.009791401 0.014061596 0.023678388
000010 72 04 c9 3c c8 ca 84 3c 08 a8 89 3b fe 67 3a 3c
       0.024538253 0.016209975 0.004200939 0.011377333
000020 62 f0 ba 3c b3 01 8f 3c 58 e5 8b 3c 7e 26 26 3d
       0.022819702 0.017456865 0.017077133 0.040564053
000030 71 25 6d 3d 49 39 53 3c 62 66 99 3c 8f c2 49 3d
       0.057897035 0.012892076 0.018725578 0.04925781
000040 54 f1 07 3d 66 a8 0d 3d fc 2b 2b 3c e8 79 cf 3c
       0.033189133 0.034584425 0.010447498 0.025326684
000050 5f f2 00 3c 32 11 28 3c ed 0b 38 3c a7 00 00 3d
       0.007870286 0.010258006 0.011233312 0.031250622
000060 02 7b 9c 3c 8c 39 8f 3c c3 b0 37 3c b2 4b 8c 3b
       0.019101623 0.017483495 0.011211577 0.0042814845
000070 a4 ac 45 3d ac 3e ba 3c da 7a 04 3c e6 62 bf 3c
       0.048260346 0.022734962 0.008085931 0.023362588
000080 70 69 f9 3c a1 f5 1f 3d 89 43 c3 3c a0 5f ae 3c
       0.030445784 0.03905261 0.023835914 0.021285832
000090 8a d2 a9 3c e9 2c d0 3b 54 87 27 3c 82 c4 94 3c
       0.020730276 0.00635301 0.010225136 0.018160108
0000a0 c7 33 30 3c 15 9a cf 3b 7a 41 33 3d 66 0c 3c 3d
       0.010754532 0.0063355067 0.043763615 0.04591026
0000b0 ee ed 35 3d e4 04 59 3d 00 c7 1b 3c 99 d9 43 3d
       0.04441636 0.05298318 0.0095078945 0.04781494
0000c0 70 ce 08 3c 22 6f 41 3c 83 f3 99 3c 26 d9 1b 3c
       0.00835 0.011806281 0.018792873 0.009512221
0000d0 f4 73 0c 3d 47 36 1b 3d a1 7c 95 3c 66 e5 32 3d
       0.03429027 0.03789356 0.018247904 0.043675803
0000e0 6d df c2 3c 0a 41 85 3c 97 df 0e 3d 20 f5 f8 3b
       0.023788178 0.016266365 0.0348812 0.0075975806
0000f0 fa 9c 57 3b 6f 96 11 3c 13 2c 01 3c 76 54 56 3d
       0.0032899962 0.008885964 0.007884043 0.052326642

encoder.batch_norms.1.weight f4 [64]
000000 be 88 4f 3f 1c 9f 4f 3f e3 b0 4e 3f 4d 32 3e 3f
       0.81068027 0.81102157 0.8073866 0.742955
000010 9b 8b 47 3f b7 67 48 3f 68 b8 49 3f b0 43 52 3f
       0.77947396 0.78283256 0.78797007 0.8213453
000020 5d a2 50 3f d5 28 4d 3f 54 07 54 3f c0 f4 4c 3f
       0.81497747 0.8014043 0.8282368 0.8006096
000030 e2 ad 52 3f 51 42 4e 3f 3c 38 4e 3f 14 0a 54 3f
       0.82296574 0.8056994 0.80554557 0.8282788
000040 1a 8e 4f 3f d4 ea 4d 3f 9b 28 43 3f 69 d8 4e 3f
       0.81076205 0.80436444 0.76233834 0.80798966
000050 41 34 4b 3f a5 9d 49 3f ef 18 59 3f fb 47 45 3f
       0.7937661 0.7875617 0.8480367 0.7706296
000060 41 ec 4e 3f a3 69 4b 3f e1 e3 4a 3f 33 7f 50 3f
       0.80829245 0.79458064 0.79253966 0.8144409
000070 9c 0b 4a 3f 11 0f 48 3f 4f 96 51 3f 34 37 54 3f
       0.78923965 0.7814799 0.8186998 0.82896733
000080 0e 4e 47 3f 30 64 51 3f a3 d5 51 3f 9a 35 3f 3f
       0.77853477 0.817935 0.8196661 0.74691164
000090 06 7f 47 3f 2f 6c 53 3f 19 54 4e 3f 2e 34 4b 3f
       0.779282 0.8258695 0.8059707 0.79376495
0000a0 bd 68 49 3f 72 c1 4e 3f 09 1e 51 3f 8c de 4f 3f
       0.7867544 0.80763924 0.81686455 0.81198955
0000b0 57 eb 4b 3f c0 65 4b 3f 43 fe 4c 3f 6c 5a 53 3f
       0.79655975 0.79452133 0.8007547 0.8255985
0000c0 75 5f 4d 3f a2 4b 47 3f bb 3d 4d 3f 03 ca 3b 3f
       0.8022378 0.7784978 0.8017232 0.7335512
0000d0 52 1b 44 3f a0 cb 49 3f 7f 04 46 3f fc b0 52 3f
       0.7660419 0.7882633 0.7735061 0.82301307
0000e0 6f 47 4a 3f 0c 8a 4e 3f dc d4 4f 3f 93 94 51 3f
       0.7901525 0.8067939 0.8118417 0.8186733
0000f0 42 81 4e 3f 9e 29 4f 3f 75 48 4e 3f bc fd 50 3f
       0.8066598 0.8092288 0.8057931 0.8163717

encoder.batch_norms.1.bias f4 [64]
000000 c0 a0 2a 3c aa 9e ec 3a 85 87 7b bc 06 f9 46 ba
       0.010414302 0.0018052657 -0.015352135 -0.0007590208
000010 41 8b ad 3a 22 d8 15 bc 80 8a 19 bc aa ba 7b bc
       0.0013240353 -0.009145768 -0.0093714 -0.015364328
000020 72 9f 7a bc 94 6a 68 bc 90 ac 25 bc 1e 6a 57 bc
       -0.015296804 -0.014185566 -0.010111943 -0.013147859
000030 a8 8e 19 bc 5c 2f 32 3c 3b ed 7e bc 52 0e 69 3b
       -0.009372391 0.010875549 -0.01555949 0.0035561514
000040 d8 52 73 bc a8 88 cf ba 2b eb c6 ba f8 0c 08 3b
       -0.014851294 -0.0015833573 -0.0015176287 0.0020759683
000050 c8 df 86 3a e6 16 7a bb 23 d6 97 bb e2 35 15 3c
       0.0010290081 -0.0038160621 -0.0046336814 0.009107085
000060 2e e1 9a 3b 2f 3d b3 bc b3 a6 9c bb 4e e1 3e bb
       0.0047265505 -0.02187976 -0.0047806143 -0.0029125991
000070 a7 f9 bb bc a2 0a 35 3c f2 60 d0 bb 06 5d 87 3b
       -0.022946192 0.011049898 -0.006359213 0.0041309623
000080 c7 de 8b bc 3d 0d 54 3c ec f6 82 3c 0f 5b 91 bc
       -0.017074002 0.012942609 0.015986882 -0.017743615
000090 ce 6d ba bb f5 62 34 bb 33 b0 9d bc 96 36 dd bc
       -0.0056893593 -0.0027524803 -0.019249057 -0.027003568
0000a0 93 40 5e bc 8a 38 e9 bb 6c dc c1 3a 14 f3 6f bc
       -0.0135652 -0.0071173357 0.0014790422 -0.014645357
0000b0 ac 30 ef bb 86 70 42 bc 99 c1 a2 ba 57 95 4c bc
       -0.0072995033 -0.011867648 -0.0012417316 -0.012486777
0000c0 f5 e0 1c bc e5 26 1e 3c 17 6b 7f bc 36 4e 40 bc
       -0.009575118 0.009652828 -0.015589497 -0.011737397
0000d0 0e a5 f4 ba 3b 22 55 3c 50 bb 22 3b 82 90 cb 3b
       -0.0018664913 0.013008649 0.0024830885 0.006212295
0000e0 73 c8 c2 b9 7e c6 fc bb 50 92 f6 3a c6 27 b3 3b
       -0.0003715191 -0.007714092 0.0018811915 0.005467388
0000f0 8b 15 79 bc f3 43 c6 3b 08 ae 04 ba aa 03 e6 bb
       -0.01520289 0.0060505806 -0.0005061333 -0.0070194798

encoder.batch_norms.1.running_mean f4 [64]
000000 8f 50 7c 3f 15 b3 f7 be 77 26 90 bd d4 46 ca be
       0.9856042 -0.48378816 -0.070385866 -0.39507163
000010 22 c8 cc 3d f5 cd e3 3c c2 08 08 bf bc 1e 15 be
       0.0999911 0.027808169 -0.53138363 -0.14562505
000020 d4 7b 0f 3e 72 8b 24 3e 93 e3 c2 3e 37 66 1a bf
       0.1401208 0.16068819 0.3806425 -0.6031222
000030 6e 98 96 3e 18 0a 43 bd 87 e2 6e be 26 9a 1b be
       0.2941317 -0.047617048 -0.23328601 -0.15195522
000040 c7 6f db be 05 c5 94 3e ed c9 86 3e 66 99 76 be
       -0.42858717 0.29056564 0.26325932 -0.24081954
000050 f1 1b 44 be 9d a5 16 3d 87 93 dd 3e ea d6 46 3c
       -0.19151284 0.036779035 0.43276617 0.0121362
000060 ba 1c 43 3f c6 44 4c be 4f 47 d7 3e 43 3e ea bd
       0.7621571 -0.1994811 0.42046592 -0.11437657
000070 6d e9 c1 be 8d 41 79 be 1c fc f9 be 12 1a 37 3c
       -0.37873402 -0.24341412 -0.48825157 0.011175649
000080 ff bf 96 3d cc ee d9 3d 1f 89 9c bd 98 5c 64 bf
       0.07360839 0.1064125 -0.07643341 -0.89203787
000090 36 c2 ac be 7f 71 0e bf 32 e0 a2 be 65 47 6c 3e
       -0.3374192 -0.5564193 -0.31811672 0.2307411
0000a0 f9 11 69 bd c9 7f 38 bf ea bd 21 3e f7 9c a8 be
       -0.056901906 -0.72069985 0.15795103 -0.32932255
0000b0 cb 05 c5 3e be 89 aa be b9 b7 4d 3e 58 3e 39 be
       0.38480982 -0.33308214 0.20089616 -0.18090189
0000c0 09 5e 20 bf 86 92 4e be 4f d2 53 be 00 2d 14 3f
       -0.62643486 -0.20173082 -0.20685695 0.57881165
0000d0 3d cb 06 3f e9 58 e1 3e 4e 62 e8 3e df 0f 26 be
       0.52653867 0.44013146 0.453875 -0.16216992
0000e0 e4 9f 26 3f 83 43 1d bf df 38 f6 be ac b5 ce 3e
       0.65087724 -0.6143114 -0.48090264 0.4037298
0000f0 41 87 44 bd cf ff 5f 3e 3f 18 f6 be 9c 62 f3 be
       -0.04798055 0.21874927 -0.48065373 -0.4753617

encoder.batch_norms.1.running_var f4 [64]
000000 fb 67 56 3e 76 9b df 3e 83 c4 d6 3e 25 c8 14 3e
       0.20938103 0.43673295 0.41946802 0.14529474
000010 95 0d 1c 3e 61 31 78 3e 23 04 25 3f 1c d1 07 3f
       0.15239556 0.24237587 0.6445944 0.5305345
000020 2a 89 6f 3e a4 23 34 3e 2a 0d ed 3d ac f1 5e 3e
       0.23392168 0.17591721 0.115747765 0.21771878
000030 f4 6b 59 3e 70 18 43 3e ca 5d 5d 3f 64 24 12 3e
       0.21232587 0.19052291 0.86471236 0.14271694
000040 e2 7b 19 3f 3b f3 e2 3e 22 18 94 3e af 92 9d 3e
       0.59954655 0.44326195 0.28924662 0.30775973
000050 8a d1 d7 3d 7d 65 31 3f 54 7d e5 3e 0f e6 36 3e
       0.10538013 0.69295484 0.4482218 0.17861198
000060 d3 ba bd 3e 81 88 c9 3d 61 46 7c 3e 70 a6 7e 3e
       0.37056598 0.09840489 0.24636222 0.24868178
000070 5b ca 69 3e 2c bc 2c 3e 50 b6 ab 3e 94 9f f6 3e
       0.22831099 0.16868657 0.3353753 0.48168623
000080 65 21 6e 3e 4b 73 61 3e 44 44 f6 3e d5 79 91 3e
       0.23254927 0.22016637 0.48098958 0.28413263
000090 df 60 df 3d 8f a9 21 3f 34 59 b1 3e 8f ae b1 3e
       0.109071486 0.6314935 0.3463837 0.3470349
0000a0 9b ea 90 3e c8 9b 39 3e 8f 06 ad 3e 21 f9 d7 3e
       0.2830399 0.18125832 0.33794066 0.42182258
0000b0 59 e9 ea 3e 3e f6 a4 3e 59 71 6f 3e 5d b7 53 3e
       0.45881155 0.32219118 0.23383082 0.20675416
0000c0 85 f2 91 3e 8e 2e 48 3e 9f f6 d9 3e 38 a7 99 3e
       0.2850534 0.19549009 0.4257097 0.3001039
0000d0 b3 5e 17 3e 46 74 61 3e 85 99 ac 3e ac 86 c1 3e
       0.14782219 0.22017011 0.33710876 0.3779806
0000e0 80 97 bd 3e 87 b9 49 3e 64 47 a8 3e 2b 92 f2 3e
       0.37029648 0.1969968 0.32866967 0.47377142
0000f0 ba e4 9f 3e a8 c8 de 3d f0 ea 9d 3e 87 89 06 3f
       0.31229192 0.10878116 0.30843306 0.525536
