joinrank/models/ranker_regularized/final_model.pt (torch, 179225 bytes, 25 tensors)

encoder.convs.0.nn.0.weight f4 [64, 64]
00000000: e2ad 843d 4c97 f13d d2cb 53bd f808 a2bd
00000010: 0d0d 71bc 8c80 04bd 8f31 7fbd 219c 72bc
00000020: 5d39 93bc 05c5 9cbd b8c6 a13d ff76 8abd
00000030: d50d 0080 390e 0080 1134 e5ad 140c 90a3
00000040: ca0d 0080 15fc ffaa 1819 a02d 260f 0080
00000050: 520e 0000 cb0d 0000 16db 802e ed8c a72c
00000060: 7678 18ac b70d 0080 202d 9428 fd84 4a22
00000070: ef0d 0080 bb10 0000 b50d 0080 f50d 0080
00000080: b10d 0000 48fd 0581 c20d 0000 cd0d 0080
00000090: 057b b486 e3c0 d82c c00d 0080 d610 0000
000000a0: f215 b991 b506 4a1f 727c bd1d 130f 0080
000000b0: af0d 0080 c80d 0000 0505 0000 cd0d 0080
000000c0: 6354 71a7 3fcf 39ad ac57 60a0 67a6 fbad
000000d0: cc0d 0000 de10 0080 be0d 0000 e060 252d
000000e0: b590 7613 b80d 0080 bf0d 0000 5771 0200
000000f0: fee8 f297 c60d 0000 b60d 0080 d20d 0080
00000100: 1d8b b4b9 58ad f139 1a0e 0000 8495 819b
00000110: b6bf 4c8b 3bea 33a7 d835 2411 1d23 8c9f
00000120: cd0d 0000 c70d 0080 c47c f138 59ea e436
00000130: f372 a48b ac0e 0000 d50d 0080 da45 7d9a
00000140: d70d 0000 cc0d 0080 b67c e32c d20d 0080
00000150: 114c 818b 09a4 e4a9 c50d 0000 b6c0 9da9
00000160: 1fa3 ac25 18f1 d028 c30d 0000 bfad 92ae
00000170: c30d 0080 dd1c 0080 8210 0080 51f9 e825
00000180: d50d 0080 fe3f a6a8 e20d 0080 d30d 0080
00000190: 5a2f 0386 1b0e 0000 acd7 39ab 527c ff2b
000001a0: c60d 0000 d80d 0000 de0d 0080 d00d 0000
000001b0: d70d 0080 a08d 052e d00f 0080 e6ed 0028
000001c0: c00d 0000 06b4 51ac d80d 0000 b2a1 0080
000001d0: d00d 0080 b20d 0080 af36 e02e ef88 cbac
000001e0: c70d 0000 1fb2 25aa 5511 0000 059d 0380
000001f0: 984b 0024 d31a 9bad cc54 6528 49f9 a82f
00000200: 84d3 bfb0 4143 d7ad b251 ada9 310b 828d
00000210: 9778 830f e2e0 d38f afec a9ab edb1 0591
00000220: d9e0 c20f 882f 129b d41a a22d 038e 130f
00000230: 87a3 fe1b f9e7 0728 801c c583 d80d 0080
00000240: 9b9e 1c91 df0e 0080 7c4a 4d2e 9c47 5c95
00000250: 7916 0000 56b7 6b26 a323 7fa1 b20a 0000
00000260: cd0d 0000 f80d 0000 fd0e 0080 e222 072b
00000270: 9cc5 a1ab c11c 0580 fd0f 0000 dd2d 0e9a
00000280: feab d29b cf0d 0000 e973 9425 23e3 9891
00000290: ce0d 0000 fa0d 0000 2ebb 7883 5d90 bdad
000002a0: e03c ff1e bc0d 0080 8991 29ab af0d 0000
000002b0: c30d 0080 6359 76aa ba0d 0000 3b0e 9caf
000002c0: c00e 0000 cc0d 0000 09fd 282f 9739 33a8
000002d0: 2c86 2b2b 2640 3bad b70d 0000 6338 45aa
000002e0: c00d 0000 e754 c4ae b80d 0080 7b7e 7baf
000002f0: 6aa7 5097 cf0e 0080 bbf9 9090 2d0e 0000
00000300: 9195 45ad b20d 0000 3f19 d323 7d2a fd0b
00000310: 460e 0080 cdd0 bd9d 7a83 9baa fb0d 0000
00000320: 3116 f824 0e0e 0080 7f89 9626 730e 0080
00000330: e862 e32e b60e 0000 7e53 0da7 b607 f38b
00000340: e8f7 5d05 d20d 0000 be0f 0000 4a33 beae
00000350: 162b 812c bd0d 0080 d00d 0080 d30d 0000
00000360: 19bd 5b2b 0ed5 2a22 1243 e12c af0d 0080
00000370: bd0d 0080 159b 0315 eb82 8820 af0d 0000
00000380: 008c 412c 1e0e 0080 a53c 0eb0 5853 6cac
00000390: b30d 0000 1f0e 0080 3c5f 0ba9 610e 0080
000003a0: b70d 0000 0c0e 0000 e40e 04a7 4a63 0080
000003b0: 6e21 6627 2b43 b929 4ecb 5da4 ec0f 0000
000003c0: 8b54 1da0 b30d 0000 dbc7 ad8a 20a1 7d01
000003d0: 8a10 0000 e60d 0000 d40d 0080 c40d 0000
000003e0: cb27 2b14 820e 0000 f00d 0080 406c 5598
000003f0: a95a 791c 77dc 8e9e ead3 c586 dfe7 af87
0.06478478 0.11796436 -0.05170805 -0.07911867 -0.014712584 -0.032349154 -0.062303122 -0.014807732
-0.017971689 -0.07654766 0.07899231 -0.06760978 -4.962e-42 -5.102e-42 -2.6057408e-11 -1.5617627e-17
-4.947e-42 -4.5472016e-13 1.8201038e-11 -5.434e-42 5.137e-42 4.948e-42 5.8596836e-11 4.7620714e-12
-2.1667368e-12 -4.92e-42 1.645087e-14 2.7446508e-18 -4.998e-42 6.002e-42 -4.917e-42 -5.007e-42
4.912e-42 -2.4609962e-38 4.935e-42 -4.951e-42 -6.7889236e-35 6.160504e-12 -4.933e-42 6.04e-42
-2.9201378e-28 4.2780712e-20 5.0156557e-21 -5.408e-42 -4.909e-42 4.944e-42 1.8e-42 -4.951e-42
-3.3491215e-15 -1.056205e-11 -1.9002546e-19 -2.8609294e-11 4.95e-42 -6.051e-42 4.93e-42 9.400675e-12
3.1120911e-27 -4.921e-42 4.931e-42 2.2433e-40 -1.5697699e-24 4.941e-42 -4.919e-42 -4.958e-42
-0.00034435923 0.00046096253 5.059e-42 -2.1437882e-22 -3.9433198e-32 -2.4968217e-15 1.2953911e-28 -5.9350396e-20
4.951e-42 -4.942e-42 0.00011515015 6.822211e-06 -6.334346e-32 5.263e-42 -4.962e-42 -5.23756e-23
4.965e-42 -4.95e-42 6.4655737e-12 -4.958e-42 -4.9803445e-32 -1.01536895e-13 4.94e-42 -7.0056306e-14
2.994778e-16 2.3197197e-14 4.937e-42 -6.670175e-11 -4.937e-42 -1.0354e-41 -5.922e-42 4.0414528e-16
-4.962e-42 -1.8457454e-14 -4.98e-42 -4.959e-42 -2.467315e-35 5.06e-42 -6.602451e-13 1.8153346e-12
4.941e-42 4.966e-42 -4.975e-42 4.955e-42 -4.965e-42 3.0366487e-11 -5.672e-42 7.157013e-15
4.933e-42 -2.980062e-12 4.966e-42 -5.8005e-41 -4.955e-42 -4.913e-42 1.01960544e-10 -5.7848097e-12
4.942e-42 -1.4716742e-13 6.218e-42 -3.31834e-40 2.7819606e-17 -1.7633372e-11 1.2730441e-14 3.073615e-10
-1.3957195e-09 -2.4472537e-11 -7.696915e-14 -8.014563e-31 1.2964047e-29 -2.0892828e-29 -1.2073865e-12 -1.0546678e-28
1.9216485e-29 -1.2092195e-22 1.8429182e-11 7.27501e-30 4.2126452e-22 7.5443065e-15 -1.1585163e-36 -4.966e-42
-1.2355104e-28 -5.335e-42 4.667776e-11 -4.4485136e-26 8.062e-42 8.178047e-16 -8.6444525e-19 3.837e-42
4.951e-42 5.011e-42 -5.377e-42 4.8010044e-13 -1.1494586e-12 -4.69492e-40 5.736e-42 -2.940196e-23
-3.4852733e-22 4.954e-42 2.575245e-16 -2.4121355e-28 4.952e-42 5.014e-42 -7.309552e-37 -2.1550923e-11
2.7024353e-20 -4.927e-42 -6.024283e-13 4.909e-42 -4.937e-42 -2.1880201e-13 4.924e-42 -2.8386346e-10
5.291e-42 4.95e-42 1.5369407e-10 -9.948984e-15 6.0937605e-13 -1.0643963e-11 4.92e-42 -1.7516678e-13
4.933e-42 -8.92813e-11 -4.921e-42 -2.2873252e-10 -6.741973e-25 -5.312e-42 -5.7182756e-29 5.085e-42
-1.1231364e-11 4.913e-42 2.2887358e-17 9.7515984e-32 -5.12e-42 -5.024378e-21 -2.762476e-13 5.015e-42
1.0759045e-16 -5.042e-42 1.0445609e-15 -5.183e-42 1.0340334e-10 5.277e-42 -1.9612942e-15 -9.36118e-32
1.0436903e-35 4.958e-42 5.647e-42 -8.6493104e-11 3.671184e-12 -4.928e-42 -4.955e-42 4.959e-42
7.8066855e-13 2.3152086e-18 6.402331e-12 -4.909e-42 -4.928e-42 2.6577577e-26 2.312593e-19 4.909e-42
2.7504665e-12 -5.064e-42 -5.174548e-10 -3.3583882e-12 4.914e-42 -5.066e-42 -3.0946803e-14 -5.158e-42
4.92e-42 5.039e-42 -1.8326752e-15 -3.5618e-41 3.1937034e-15 8.227302e-14 -4.8093942e-17 5.712e-42
-1.332639e-19 4.914e-42 -1.6734471e-32 4.6584363e-38 5.933e-42 4.986e-42 -4.96e-42 4.938e-42
8.6411415e-27 5.204e-42 -5e-42 -2.7584257e-24 8.2504365e-22 -1.5126017e-20 -7.4414544e-35 -2.6467355e-34

encoder.convs.0.nn.0.bias f4 [64]
00000000: a6c0 2cbd d143 f7b7 5fc0 ca2e f80d 0080
00000010: 4bd5 fab5 ca82 37b4 41c4 47b4 b70d 0080
00000020: 8817 a0bc 6625 af3d 7ec6 d2bc cc4d 943d
00000030: 1194 9dbb 05c5 b681 f015 44b4 b00d 97bd
00000040: 7896 83bd 2131 5db7 19f7 f93b 4d7e fe3c
00000050: 3788 48a4 b747 b5ba 5e6a f2a5 e842 e1bb
00000060: 94f9 b93d 98d4 33a4 db6f 41bd c0b7 123d
00000070: 3a7f 9cbd 4053 7fa0 ce0d 0000 b3d4 a73b
00000080: 3b44 ad34 abac ea3c c30d 0000 7d57 ea3c
00000090: 4c0e 0080 1875 8d3c 85a9 bfb4 d6a1 63bc
000000a0: 33b5 943d b1b2 abbd 1c4f 373c eda2 88b2
000000b0: 070b f1bc 601d 8531 ec7b 462c 7c97 043a
000000c0: 365d b23c 96df cd3c a685 363b 2ddb cb3b
000000d0: 2510 0080 9bf2 ad3b 9ec9 1830 d00d 0000
000000e0: 25d0 e2ba 3e16 853c 5308 b532 529b 58bd
000000f0: 9add c33d cb91 67bd d60d 0080 c172 e13c
-0.04217591 -2.9476274e-05 9.2200685e-11 -5.011e-42 -1.8688528e-06 -1.7090784e-07 -1.8604716e-07 -4.92e-42
-0.01954247 0.08552055 -0.025729414 0.07241401 -0.0048089107 -6.713895e-38 -1.8261903e-07 -0.073756576
-0.06425184 -1.3184065e-05 0.0076283333 0.031066084 -4.3483465e-17 -0.0013830577 -4.2052385e-16 -0.006874431
0.090808064 -3.8994512e-17 -0.047225814 0.03581977 -0.07641454 -2.1626885e-19 4.952e-42 0.0051217913
3.2273405e-07 0.028646788 4.937e-42 0.02860617 -5.129e-42 0.017267749 -3.5699864e-07 -0.013893565
0.072611235 -0.08383692 0.011188295 -1.5906574e-08 -0.029424204 3.874149e-09 2.8206283e-12 0.00050579733
0.021772962 0.025131028 0.0027850657 0.006221196 -5.792e-42 0.005308462 5.5583793e-10 4.955e-42
-0.0017304464 0.016245957 2.1074959e-08 -0.0528825 0.095637515 -0.056535523 -4.963e-42 0.02752054

encoder.convs.0.nn.2.weight f4 [64, 64]
00000000: fa1e 86bd c50d 0000 13f3 750d f993 fcad
00000010: b50b f3bc d95b ccba 8cc9 533d e815 cb2d
00000020: cd85 89bc 01ec 713d 813e 6abb 42d2 35bd
00000030: 4b4a be3d 2b56 e81c 2194 babd f922 f23d
00000040: d288 6dbd 5d09 0080 97c4 93bc c600 26bd
00000050: b00d 0080 0323 ddbc cf0d 0080 dab4 c83d
00000060: 5a26 0fbd d4d2 2680 7b0d fabc 1efa 14bc
00000070: b969 583d b78b 1889 aa77 d186 09f8 1dbd
00000080: 18ae 8bba 6b24 3bbc bf0d 0000 7e90 ad39
00000090: 1f64 b7a3 945a 2fbb 8068 8e3d 6558 17bd
000000a0: 9aa2 8b3c 7feb b33d abed 2e3c cf15 8bbd
000000b0: 76e5 e8ba f1a1 5a2b caf6 932b a23b 4593
000000c0: 6ba5 d5bc 1d32 7e3b 26e6 fd3a dec6 9134
000000d0: 260f 0080 50c3 5cbc ccd1 7f05 8c0f 0000
000000e0: 9127 83bd cbe0 c6bc ba18 85bd cfd4 b63d
000000f0: 86ae b03c 111c 14bd bf0d 0000 1b98 ab3b
00000100: 3f15 c73d aded b4a4 ea33 6910 080f 0000
00000110: 2c1c 743d d558 d73d e350 153d 4dff 50ac
00000120: 8707 753c 749f 8fbd ef23 e5bb ce0c 90bd
00000130: fcb8 9ebd 20a0 c8a6 0f56 2cbd d3b5 cabd
00000140: 9349 92bc f88a 0934 076f 2ebd 0f7e 9c3d
00000150: 7957 61a3 f95e 103d cf0d 0080 5f31 a9bd
00000160: 7e27 b73d 913d 642f 1f60 16bd d38e 24bd
00000170: fa44 f33d a4a2 a818 bb0d 0080 f04a 8a3d
00000180: 5ac1 7a3d 01cc 093c 370e 0080 c5a1 272e
00000190: 5215 51ae 0d33 3bbd bcf1 46bd a709 debc
000001a0: afd7 913d 0b7f 233d 4bbc 8abd 414a a1bd
000001b0: 5d0e 953a 0190 d026 8e07 0000 5cf4 47ae
000001c0: c344 453d b6cc df3c d03f 6bbc 5bf0 7791
000001d0: b40d 0000 444b 02bd 2b2d b68f ed07 a193
000001e0: e0f6 17bc 7fba f9bb 5928 afbc e6be 6a3c
000001f0: eac4 923d 4fd1 b83c d40d 0080 e2af 40bd
00000200: 7ee0 c8bc b70d 0080 7d89 b7a8 8874 cd23
00000210: c092 de3c a7c6 c53c 78b8 03bd fe0f 0080
00000220: 9ec8 11bc 9ffd 863d 67cd 06bd 76fb 27bb
00000230: 6905 813d db0d 0000 c717 bebd 7e94 a03d
00000240: 9384 353d baca 4827 fa96 ab3c a539 ca3c
00000250: bf0d 0080 d980 c8bd 9409 e8af 3347 863d
00000260: a06a a3bd d552 8dae 3e12 5bbc 1172 e4bb
00000270: a22b 9abd eb75 0480 d10d 0000 3297 e8bb
00000280: bfd5 243c d457 843a 3f04 c1af f617 e524
00000290: 68a9 5491 47d7 433d 22e7 8c3d a456 99bd
000002a0: 94b4 b2bd d5ee 303d d801 813d 6b79 843d
000002b0: 1c13 84ba fb10 0000 c10d 0080 ba0d 0000
000002c0: 0f15 9a3d df17 263d 9642 eb3a a064 3c32
000002d0: edea 032e 0389 a33c ab55 0080 ca0e 0000
000002e0: d316 0ebd b2c4 3cbb aa90 83bd f5ec 31bd
000002f0: 2e53 993c c1e8 b1bd e2c5 95a1 d6ef 0d3d
00000300: c0b6 423d f309 0000 c145 042e 3c96 4d1b
00000310: aba7 c7bd df72 e13b 889d 76bc 4002 0000
00000320: f6f7 1bbb 0c63 08bc 4db9 d4bc dea5 913c
00000330: 4e46 0f3c 12d9 eb21 4a22 afbd ed8d 1b3d
00000340: fe25 42bd 4ed2 9eab a946 da3c 6c84 90bd
00000350: d90d 0080 02ef 823d b70d 0080 c5ce ea3b
00000360: cd78 f13c 4579 fcac cc82 803c b105 bb3a
00000370: 0409 a9bd ae0d 0000 acb8 8a29 90d5 473c
00000380: 3210 81bc 3e25 99bc 1f7f a417 790a 6235
00000390: 832c e2a4 1d10 833d 2a23 d53d b16f 0c3d
000003a0: b80e 5abd d358 843c 2fd1 d7bc 8e74 2fbd
000003b0: 52e5 18ba e50d 0000 d20d 0000 e869 0c1f
000003c0: 371f 91bc 5796 2b3c c903 ee3c c30d 0000
000003d0: ba0d 0080 1e76 abbc b50d 0000 4b6d 3e28
000003e0: 2c42 82bb 94a8 40ba 85dc d03d 1c34 af3d
000003f0: 9948 c0bc 48eb 663c 10c1 7322 9858 d93a
-0.06548877 4.94e-42 7.5789044e-31 -2.8714796e-11 -0.029668668 -0.0015591338 0.051705882 2.3088156e-11
-0.016787434 0.05906296 -0.0035742822 -0.04438997 0.09291514 1.5374746e-21 -0.091102846 0.11823077
-0.05799181 -3.359e-42 -0.018038077 -0.04052808 -4.91e-42 -0.026994234 -4.954e-42 0.0980012
-0.034948684 -3.56538e-39 -0.030524006 -0.009092836 0.0528352 -1.8362028e-33 -7.879289e-35 -0.038566623
-0.0010656742 -0.011422257 4.931e-42 0.00033104786 -1.9883303e-17 -0.002675687 0.069535255 -0.036949534
0.017045308 0.08785152 0.010676782 -0.06791269 -0.001776858 7.7673897e-13 1.0513476e-12 -2.4894297e-27
-0.026079854 0.0038787194 0.0019370958 2.715305e-07 -5.434e-42 -0.0134743005 1.2028576e-35 5.577e-42
-0.06404031 -0.024277112 -0.06498857 0.08927309 0.021567594 -0.03615958 4.931e-42 0.0052366382
0.09720849 -7.8465195e-17 4.599114e-29 5.392e-42 0.05959718 0.1051499 0.036454093 -2.9700298e-12
0.014955408 -0.07012835 -0.006992809 -0.07033692 -0.07750127 -1.392119e-15 -0.04207426 -0.098979615
-0.017857349 1.2809676e-07 -0.042586353 0.07641231 -1.22157975e-17 0.035246823 -4.954e-42 -0.0826137
0.089430794 2.0758352e-10 -0.036712762 -0.04017527 0.118783906 4.3591207e-24 -4.926e-42 0.067525744
0.06121955 0.008410455 -5.1e-42 3.8115084e-11 -4.7540034e-11 -0.045702983 -0.04857038 -0.027104212
0.071212165 0.03991608 -0.06774195 -0.07875491 0.0011372078 1.4471932e-15 2.71e-42 -4.5464396e-11
0.04816128 0.027319293 -0.014358476 -1.955893e-28 4.916e-42 -0.03181006 -1.7963984e-29 -4.064993e-27
-0.009275168 -0.007621109 -0.021381544 0.01432774 0.071664646 0.022560744 -4.96e-42 -0.047042735
-0.024521109 -4.92e-42 -2.0376707e-14 2.2275497e-17 0.027169585 0.024142576 -0.032158345 -5.737e-42
-0.0088979285 0.06591343 -0.03291073 -0.002563206 0.0629986 4.97e-42 -0.09281879 0.07840823
0.044315886 2.7865474e-15 0.020946015 0.02468569 -4.931e-42 -0.09790201 -4.220736e-10 0.06556549
-0.079793215 -6.4266516e-11 -0.0133710485 -0.0069716056 -0.075278535 -4.09643e-40 4.956e-42 -0.007098102
0.010060727 0.0010096976 -3.5109513e-10 9.935351e-17 -1.6776054e-28 0.047812726 0.068800226 -0.074872285
-0.08725849 0.043196518 0.0629918 0.06468471 -0.0010076496 6.091e-42 -4.934e-42 4.924e-42
0.07523548 0.04055011 0.0017948921 1.096592e-08 2.9994607e-11 0.019962793 -3.0732e-41 5.305e-42
-0.034689736 -0.0028803763 -0.06424077 -0.04343887 0.018716421 -0.086869724 -1.0149012e-18 0.034652553
0.047537565 3.569e-42 3.007528e-11 1.7005746e-22 -0.09748777 0.006880149 -0.015052207 8.07e-43
-0.002379892 -0.008324396 -0.025967265 0.017779287 0.008744789 1.5981677e-18 -0.08551462 0.037977148
-0.047399513 -1.1284947e-12 0.026645022 -0.070565075 -4.968e-42 0.06393243 -4.92e-42 0.007165762
0.029476548 -7.1757344e-12 0.015687369 0.0014268664 -0.08253673 4.907e-42 6.1604666e-14 0.012196913
-0.015754793 -0.018694516 1.0630341e-24 8.42068e-07 -9.808728e-17 0.06399558 0.10407098 0.034286205
-0.053236693 0.016155636 -0.026344864 -0.042835765 -0.0005832511 4.984e-42 4.958e-42 2.9733757e-20
-0.01771508 0.0104728555 0.02905454 4.937e-42 -4.924e-42 -0.020930346 4.917e-42 1.0570818e-14
-0.0039751735 -0.0007349339 0.10198311 0.08554861 -0.023472117 0.014094181 3.3034847e-18 0.0016582189

encoder.convs.0.nn.2.bias f4 [64]
00000000: d8e0 95b3 c43f cbb3 dc2c 3ab4 a27e a0b3
00000010: 6721 c4b4 b555 1b34 ef4f e734 08ac 0a33
00000020: 0296 6b34 5536 7ab5 6b14 bd33 dba8 28b5
00000030: 451b 37b3 90f8 40b4 ef23 2d35 0226 a1b4
00000040: 670f acb5 dba3 0db5 f304 3034 aae5 8034
00000050: b095 3fb4 803d 68b4 6c17 73b4 073e 32b3
00000060: 0ef8 4e34 2e66 7135 540b 4eb5 ea5f 2e34
00000070: a785 e5b2 fa80 17b5 5734 7fb4 8d0e f5b3
00000080: 9fe1 5133 ce06 70b4 e72e 1db5 5ddd a235
00000090: df79 a633 a294 eb33 5730 81b5 236e 53b4
000000a0: d5a7 b434 dc69 d934 e198 4eb4 f129 1934
000000b0: 2523 d3b4 1025 f8b2 31bb b1b4 d76f 41b4
000000c0: 394c a434 6948 6bb1 dd9e b535 0f47 89b3
000000d0: 58c6 3234 3eee 8bb2 0ca6 5db4 c497 9eb2
000000e0: 98f7 6332 6ced 1cb5 d0e8 1233 5108 4ab3
000000f0: 8acc d5b4 cb92 12b2 d656 c0b4 29e0 98b3
-6.979252e-08 -9.464523e-08 -1.733892e-07 -7.473615e-08 -3.6532148e-07 1.446668e-07 4.3085262e-07 3.228709e-08
2.1940653e-07 -9.321132e-07 8.804712e-08 -6.2830594e-07 -4.263281e-08 -1.797182e-07 6.449981e-07 -3.001624e-07
-1.2819481e-06 -5.2765034e-07 1.6393078e-07 2.400896e-07 -1.7842717e-07 -2.1629057e-07 -2.263966e-07 -4.1500268e-08
1.9275487e-07 8.992819e-07 -7.6757465e-07 1.6239906e-07 -2.6719887e-08 -5.643957e-07 -2.3767767e-07 -1.1411348e-07
4.8866806e-08 -2.2354217e-07 -5.855531e-07 1.2134366e-06 7.7521456e-08 1.09700764e-07 -9.625318e-07 -1.9690974e-07
3.3649727e-07 4.0496423e-07 -1.9240862e-07 1.4264494e-07 -3.9327384e-07 -2.8887854e-08 -3.310502e-07 -1.8015213e-07
3.060284e-07 -3.4238161e-09 1.3531786e-06 -6.392485e-08 1.6649699e-07 -1.629007e-08 -2.0642636e-07 -1.8462636e-08
1.3269435e-08 -5.8460023e-07 3.4205016e-08 -4.7039354e-08 -3.9823163e-07 -8.531695e-09 -3.5825968e-07 -7.118826e-08

encoder.convs.1.nn.0.weight f4 [64, 64]
00000000: a9e5 963b c09e bbbd 2ba9 0e3c 3a3f 90bc
00000010: a9f5 913d f39e 27bd 0ae2 aebc 7188 813a
00000020: 44ca c0bd 65f6 c73d c4fb ab3d 53c2 663d
00000030: d42a 32bc db6d 1fbd 2edb 833d 8a21 4cbd
00000040: f2a9 d93d 8b9d 23bb 7e97 18bd b1db 91bd
00000050: 67ea 8f3d a775 96bd 7c5a c53d 1b1d 553c
00000060: e3ee e73d 8740 e13d 3575 91bd 4fc1 013d
00000070: 956a 8e3d a4ce 543c 349e aa3d d97e 31bc
00000080: 089d 143d e4ae 4abd aff7 a23d 21b8 c63d
00000090: 1591 fc3b ed24 b7bd e7b7 d03d 8719 06bc
000000a0: e73b bb3d c5b8 babd f203 c13d 1ca3 f9bb
000000b0: a26b 9bbd 9ead f43c 9051 cd3d 9c16 e43d
000000c0: 5113 9bbd ed11 be3c 313f cc3d 4924 f33c
000000d0: 118c d1ba 1226 8bbd 66a6 bc3d 4dcc de3d
000000e0: 2223 da3d 7a2d 813d 524a 1e3d 7d7c 31bd
000000f0: d149 c33c 55ab 223b a9d5 b03d 685b bb3c
00000100: b1e6 1d3d cb96 3f3c 5704 b2bd acf2 1a3d
00000110: d154 a1bc d5f4 ab3d a0e9 093d 390b 4d3c
00000120: aae1 bb3d b5a3 cbbc 2a85 213d b357 49bc
00000130: 9019 0cbd 0c0e a0bd 4667 bd3d b94a b23d
00000140: 4e2b 383b 88cc e03c 31ad b63d 7a54 a93c
00000150: 6c07 96bd 2b68 4f3d 0639 783d 39a8 003e
00000160: f0a7 133e ede1 2bbc 9875 d6ba f17b 9ebc
00000170: c3e6 efbd fbdd 75bd 06fb 853d 5247 923d
00000180: 1be2 6b3d 3adf d83d 48b3 ec3d 6a68 b4bd
00000190: 66a5 803d 635e d33d 0523 d3bd 0a3a afbd
000001a0: 0e2b ca3d 4564 40bd 51a9 c8bc e323 e63d
000001b0: 7b07 3d3d 8cfe 6fbd 5ae3 8ebc 6428 383d
000001c0: 3744 9bbc a5c4 e3bd 4e68 a83d f92a 7fbd
000001d0: 9bd1 95bc b10d a33d 2b9b 44bc af52 1abd
000001e0: 6a25 babd 834d f9bb b415 513d 9bdc 5c3d
000001f0: 3d5d 8c3d 7f78 893c 8564 313d 6971 3c3d
00000200: 60fb 00bd 72d2 43bc ea43 143c fa93 3fbd
00000210: dfdb 343d e75f 38bb 6154 8dbd 995d a7bd
00000220: 5a9c 8bbd cbc9 a6bd d78c a5bd 0e3d 973d
00000230: 18dd d3bc ad84 c0bc 8e99 26bd b9a9 3e3b
00000240: 6ec7 ac3d 284a 1f3c bd38 693d 9066 c83d
00000250: 0130 33bd 45e6 c43d b172 7dbd cfa3 9ebd
00000260: c923 bb3d 754a a93d c362 80bd da9f a13d
00000270: de43 18bd e24f b43c 4db2 86bd 4c77 15bd
00000280: 32ae 06bb 4613 4c3b d37b b3bc 707e af3d
00000290: 4c58 583d d9c0 9a3d 8992 95bc d772 843d
000002a0: 7b7a 0dbd b883 573d 27b9 d33d 3612 7cbb
000002b0: 9e3c 24bd f0e3 2b3d c8f6 e5bc fcba 6f3d
000002c0: 7751 943c 8b9e 5fbd f80e 1cbd 92d0 113d
000002d0: 1fed 0abd b039 7c3d b42e 88bc 7d00 fdbc
000002e0: 46b9 20bc 2ca7 a73d db78 183d b023 e4bb
000002f0: b38c 213d 5d60 98bd 279e 2c3d a227 f03d
00000300: 3f2a b73c 9216 b83d 7ed0 8f3c 788f dabd
00000310: 0eeb c9bd 520f 003c 7f48 22bd 96fd bcbd
00000320: 6a3a 563b 98e7 4f3d b7a6 e2bd d5ff 8dbd
00000330: b511 753d 745f eaba db70 01bd c194 3d3d
00000340: b62d 4dbd 45b7 0d3d 20a0 f3bb cfb5 883d
00000350: baa6 ee3d cc94 5bbd e260 cb3d b9df 8bbd
00000360: 2965 98bd b224 fbbc 26dd b63d 82bb fa3d
00000370: f0e3 c13d 9f6c 113c fb52 dcbc ddcc e3bd
00000380: fca5 cbbd 5105 3fbd 8a53 893d b5af 10bd
00000390: 2966 863c 897f 4b3d af6d f03c a2d3 913c
000003a0: 07df ea3c 6a8c b4bd bd6c 893d bdb2 43bc
000003b0: 3ec8 1cbd 1105 3a3d 5cfe 93bc 1481 d63d
000003c0: 3cb5 c83d 394e 23bd e42c 093d 2bce b3bd
000003d0: d3f5 10bd 9023 f93c cc50 1c3c 7b07 67bd
000003e0: 7e69 9bbc 5996 9abd 7dde d7bc 0f48 efbb
000003f0: 539f 7ebd c7fb 4f3c cfa2 65bd 9fee c2bc
0.0046050143 -0.091611385 0.008707325 -0.017608274 0.07126934 -0.04092307 -0.021348018 0.0009882582
-0.09413579 0.09763793 0.0839763 0.056337666 -0.010874469 -0.038923126 0.064382896 -0.049836673
0.106281176 -0.002496573 -0.03725385 -0.07121981 0.070271306 -0.07346659 0.09636399 0.013007428
0.11324861 0.10998636 -0.071024336 0.031678494 0.06953923 0.01298872 0.08330956 -0.0108334655
0.03628257 -0.049483195 0.07957398 0.097030886 0.007707725 -0.0894259 0.101913266 -0.008184797
0.09142285 -0.09117273 0.09424581 -0.007618321 -0.07588889 0.029867943 0.100253224 0.11137125
-0.07572044 0.023201907 0.0997299 0.029680388 -0.0015987178 -0.06794371 0.092114255 0.10878811
0.10651232 0.06307502 0.038645096 -0.043331612 0.02383891 0.002482136 0.086345024 0.022870734
0.038550083 0.011693667 -0.08692234 0.037829086 -0.019693764 0.083963074 0.033670068 0.012514883
0.091739014 -0.024858335 0.039433636 -0.0122889755 -0.034204066 -0.07815179 0.092482135 0.087056585
0.0028101983 0.027441278 0.089197524 0.020670164 -0.07325634 0.05063645 0.060601257 0.12564172
0.14419532 -0.010490877 -0.001636195 -0.01934621 -0.11713936 -0.06002615 0.065420195 0.071425095
0.057588678 0.10589452 0.11557633 -0.08808978 0.06281547 0.10320737 -0.10309414 -0.08555992
0.09871493 -0.046970624 -0.024494799 0.112373136 0.046149712 -0.058592364 -0.017442394 0.044960395
-0.018953426 -0.11121491 0.082230195 -0.06229684 -0.018288424 0.07961596 -0.011999886 -0.03767651
-0.090891674 -0.007608117 0.05104609 0.053921323 0.06853721 0.01678109 0.043308754 0.046006594
-0.03148973 -0.01195203 0.009049395 -0.04677198 0.044154998 -0.0028133334 -0.069008596 -0.08172149
-0.06816931 -0.08143958 -0.08083504 0.07384692 -0.025862262 -0.023500765 -0.040673785 0.0029092862
0.08436476 0.00972227 0.056938875 0.09785187 -0.043746952 0.09614233 -0.061876956 -0.07746088
0.09137685 0.08266155 -0.06268837 0.078918174 -0.0371741 0.022010747 -0.06576977 -0.036490723
-0.0020550606 0.0031139418 -0.02190963 0.08569038 0.05281858 0.07556314 -0.01825835 0.064672165
-0.034540635 0.05261585 0.103380494 -0.0038463003 -0.04009687 0.041965425 -0.028071776 0.05852793
0.018105252 -0.054594558 -0.038100213 0.0355993 -0.033917543 0.061578453 -0.016623832 -0.030884022
-0.009809798 0.081861824 0.03722463 -0.006962262 0.03944082 -0.07440255 0.042143013 0.11726309
0.022359012 0.0898868 0.017555472 -0.10671896 -0.09859286 0.007816153 -0.03961992 -0.09228055
0.0032688626 0.050757974 -0.110669546 -0.06933562 0.05983134 -0.001788123 -0.031601768 0.04628444
-0.05009242 0.034598608 -0.00743486 0.06675302 0.11652894 -0.0536087 0.09930588 -0.06829781
-0.0744117 -0.030657146 0.089288995 0.122427955 0.09467304 0.008875995 -0.026895037 -0.11123059
-0.099437684 -0.04663593 0.06705387 -0.035323817 0.016406136 0.049682174 0.029349176 0.01780111
0.0286708 -0.08815844 0.06710193 -0.01194447 -0.038276903 0.045414988 -0.018065624 0.104738384
0.09800193 -0.03986952 0.033490077 -0.08779558 -0.035390686 0.030412465 0.009540748 -0.05640362
-0.018971201 -0.07548208 -0.026351208 -0.007302291 -0.062163662 0.012694306 -0.05606347 -0.023795424

encoder.convs.1.nn.0.bias f4 [64]
00000000: 2d78 b13c 719c f73c a45e c6bc be3e a53d
00000010: b7b7 56bd 0468 273d fb62 3b3c 9059 913c
00000020: 6066 e03c fca0 a73d ee7d 3bbc e11c 893d
00000030: 86da 603d b3d0 41bc 9dd2 6e3c efb3 97bd
00000040: f071 0d3c 5949 82bd fee6 0e3d e6d9 9cbd
00000050: 332c 7c3d 0b8c 27bb 628e 5abb 3c65 c53d
00000060: 7b81 1ebd 3bcb 133d 70ff a43d 30a5 5c3d
00000070: a74a 59bd e590 2a3d c092 22bd 39d3 9cbd
00000080: 3c06 5c3d ec25 a3bd 4721 fb3c 89a9 85bd
00000090: 2b5c 50bc 3143 1a3b 4543 9dba 51ac c53d
000000a0: c9fa 84bd 55bf f33c cf03 27bd c771 cb3b
000000b0: 7a42 0f3c 173e 8d3d 2152 bfbb e6b7 1ebd
000000c0: b610 5bbd eb80 0d3b ab16 2c3d a5c6 2bbc
000000d0: 6d69 1f3d e46b e1bc 4f96 8f3d e9ab ffbc
000000e0: 0f49 d9bc a635 fa3c e92d 6abd 0a08 f2bc
000000f0: d633 a83d 2a80 17bd 0b25 f8bb 5977 b73d
0.02166375 0.030225964 -0.02421505 0.08068608 -0.052421298 0.04087068 0.011437173 0.017742902
0.027392566 0.08185002 -0.011443598 0.06694961 0.0548959 -0.011829543 0.014576581 -0.074073665
0.008633122 -0.06361646 0.03488826 -0.07658748 0.06156559 -0.002556565 -0.0033349027 0.096384495
-0.0386977 0.036082488 0.08056533 0.053868473 -0.05304971 0.04164209 -0.039690733 -0.07657475
0.053716883 -0.079662174 0.030655516 -0.06526477 -0.012717287 0.0023538584 -0.0011998197 0.09652007
-0.06493146 0.02975432 -0.040775117 0.0062086317 0.008743877 0.06896608 -0.005838648 -0.038749598
-0.053482734 0.0021591734 0.042013805 -0.010484372 0.0389189 -0.027517267 0.07011091 -0.031209903
-0.026524095 0.03054316 -0.05717269 -0.029544849 0.08213012 -0.03698746 -0.0075727752 0.08958311

encoder.convs.1.nn.2.weight f4 [64, 64]
00000000: a046 ee3d 71e1 d0bc 0fb3 1ebc 5a06 063d
00000010: d055 2e3c dbfc 95bd 6cca c1bd 1a57 aabc
00000020: 57a1 8abd 17be e33d 64ce 753d 8e6e 823a
00000030: 2eb8 b43d 8151 80bc 930b c33d cc18 763d
00000040: 01c0 e03d 5c1c 2a3d ac60 afbd 85eb 98bd
00000050: c0f1 943c 22bf 87ba 0a82 bd3c 1672 123d
00000060: 5a21 f83c 4dcd 9c3d 2d1e 8cbd 3729 53bd
00000070: 9f81 613d 3bfc be3d 3e0c dc3d e788 a83d
00000080: 11e4 96bc 3e70 803c 5d04 a0ba 613c 903d
00000090: 57d9 f83c d898 8f3b 16ed 5bbd 0683 3d3d
000000a0: f2b2 3ebd 1e5b 3dbd 8e25 0d3d 2012 ab3d
000000b0: adb8 a53c d753 54bd 7c5f 6c3c 4fad 7fbd
000000c0: cc3d e1bc d9e2 913b 3b96 a7bd 206a 63bc
000000d0: e5c8 6dbc 92ab 613d d86b 963d 6a96 28ba
000000e0: 40af f33d a224 b23d 9253 d6bd f39f 263d
000000f0: c2b6 823d 89f6 1bbd 95c3 eabc c9e7 8fbd
00000100: edb7 c73d 9d0f dfbd cdbe 093c 0eeb cc3a
00000110: 1c14 41bd c0f7 aebc 25f1 d0bd de3d 2f3d
00000120: 9acd 843d a094 c33d d2d4 06bd d9e8 9bbd
00000130: eb16 2ebd df21 8f3c ab24 c2bd b4b2 99bb
00000140: 1246 dabc 998a bdbc 9c8e b93b 32e7 ccbd
00000150: 9005 8bbb ccaa ae39 0281 b5bc 98f5 10bd
00000160: ff77 983d ec55 a6bd 1529 fd3c 5270 823d
00000170: 44da 33bc c863 c33d 69be 82bd f072 adbd
00000180: 7d29 1d3d 4504 b63d 2ab6 f6bb 82bc 86bd
00000190: ec79 01bd 2034 a0bd 13dd 893d 0c2b c73c
000001a0: bfb8 b6bc 87d2 3fbd 85b7 983d 3828 ed3d
000001b0: 8c23 8abd 7b5e 49bd 7236 47bc f317 97bd
000001c0: 86ec 6dbb 1bb1 37bc 88d7 93bc f77e cd3a
000001d0: 6887 973d 83b8 953d 1a3d 88bd ecf5 e3bd
000001e0: 5c29 5d3d 02ca 8cbd 150e cbbc a3b5 31bd
000001f0: c599 86bd 60f4 ffbc 4241 9e3c e3b4 4c3d
00000200: 6fe9 113d 1431 90bd b295 9abd 20fb 2e3d
00000210: c101 123d a8a8 a53d 1032 b7bc 4df5 1fbd
00000220: 4d4d 75bd 8426 06bd c668 29bc 7c57 79bd
00000230: 0569 913c 5026 b4bb 770a b7bd 4b5f 9a3d
00000240: 554e 3f3d 37ca c3bd ea0e 24bb 5028 6bbc
00000250: eb5a 28bd 0091 233a 54dc 74bd eb01 483c
00000260: 6348 82bd bf83 643c ebfd 22bd 5e01 87bd
00000270: c85e bd3c 1644 41bd ef7f 0d3d 77c1 2b3c
00000280: 869d 9d3d ef05 973c 7789 053d 545e b93d
00000290: dad4 b63d 7ec6 c93c 8682 85bc fdb6 b53c
000002a0: b3f3 a6bb a79d b63d fda2 c4bc 2065 3a3d
000002b0: d043 1dbd 53ab 063d e7a5 b6bc d781 a0bd
000002c0: e2ec 24bc 00fa b2bb 5e06 24bd e413 d93b
000002d0: 1770 20bd 8386 4ebc 2d42 11bd 7236 7f3c
000002e0: 0fde 903c cc03 23bd e7bc 6e3c d3aa d73c
000002f0: 6b41 483d 2e78 bf3c bc73 873c ff6c f6bc
00000300: 5d97 fbbd 24d2 5abd 81cc c4bb 86ed e03d
00000310: 6de0 5dbd 71a8 25bd 2010 86bd 5352 a9bb
00000320: ae20 db3c ba23 f1bd 7f99 a7bd 8c40 1fbd
00000330: c0ec b53d 772d babc 87d2 22bb d604 953d
00000340: 7574 873d 0076 3bbd de55 1b3d c562 acbd
00000350: 7302 3cbd 4a17 2bba 4970 9a3d 504a 4e3d
00000360: 75ec 0dbd 047d 8ebd 2c5e c63d 5a54 743d
00000370: 72b6 18bd e8d0 903c 1715 b5bd 9ac7 94bd
00000380: 18eb a3bb 716e dd3a 596f 07bd 3589 9cbd
00000390: 6945 d23d ec54 24bd 03d7 993d 4caa ad3d
000003a0: 5216 99bc 37bd f2bc 6d7e 003d 36b2 70bd
000003b0: e851 ef3c 6dcc 213d 6731 a43a aa28 fa3c
000003c0: fb4d 9ebc 2299 00bc 8bd7 e13c 7ed2 393b
000003d0: 141f c2bb b0f7 29bd 928e 80bd 066f 963d
000003e0: 0f9d edbd 99da fdbc 9ba6 bc3a 6e30 edbc
000003f0: 67d5 ccb9 5895 8bbd 2032 823c 3b33 b53d
0.116345644 -0.025498124 -0.009686246 0.0327209 0.0106405765 -0.07323619 -0.09462437 -0.020793486
-0.067690544 0.11120241 0.060011283 0.0009951161 0.08824192 -0.015663864 0.09523692 0.060082242
0.10974122 0.04153095 -0.085633606 -0.07466797 0.018181682 -0.0010356645 0.023133297 0.035753332
0.03028934 0.076563455 -0.06841693 -0.051552977 0.055055257 0.09325453 0.107445225 0.08229237
-0.018419297 0.015678521 -0.0012208332 0.07042766 0.030377073 0.004382234 -0.0536929 0.04626753
-0.046557374 -0.046229474 0.034459643 0.083530664 0.020229662 -0.05183777 0.014427062 -0.06242114
-0.027495287 0.004452091 -0.08182951 -0.013880283 -0.014513229 0.055095263 0.07344788 -0.0006431105
0.11898661 0.086983934 -0.104651585 0.040679883 0.063825145 -0.03807691 -0.028657714 -0.070266314
0.09751878 -0.1089165 0.008407307 0.0015634017 -0.04713832 -0.02135837 -0.10202245 0.04278361
0.06484528 0.09549832 -0.032917805 -0.076127715 -0.042502325 0.017472206 -0.0947965 -0.0046904925
-0.02664474 -0.023137378 0.0056627523 -0.100050345 -0.0042426065 0.0003331512 -0.022156242 -0.035390466
0.074447624 -0.08121857 0.030903379 0.0636908 -0.010977332 0.09540516 -0.06383974 -0.08469188
0.038369644 0.08887533 -0.00752904 -0.06578924 -0.031610414 -0.07822442 0.0673162 0.024312519
-0.02230489 -0.046831634 0.074568786 0.11579937 -0.06745061 -0.04916237 -0.012158977 -0.07377615
-0.003630431 -0.011211659 -0.01804711 0.0015678097 0.073988736 0.073105834 -0.06652279 -0.1113089
0.05399452 -0.068744674 -0.024786988 -0.043386113 -0.06572298 -0.031244457 0.019318227 0.049977195
0.03562301 -0.07040611 -0.07548083 0.04271996 0.035646204 0.08088809 -0.022362739 -0.039052296
-0.059888173 -0.032751575 -0.010339921 -0.060874447 0.017750273 -0.0054977313 -0.08937543 0.07537707
0.046705563 -0.09560054 -0.0025033304 -0.014352873 -0.04110233 0.0006239563 -0.059780434 0.0122074885
-0.06361463 0.013947426 -0.039792936 -0.06592058 0.023116484 -0.047184072 0.034545835 0.010483137
0.07696061 0.018435447 0.0326018 0.09051195 0.08927317 0.024630781 -0.01629759 0.022181982
-0.005094969 0.089167885 -0.0240035 0.045506597 -0.03839475 0.03287823 -0.022295905 -0.07837265
-0.010066243 -0.005461931 -0.040045135 0.0066246856 -0.039169397 -0.012605312 -0.0354635 0.015576946
0.01768401 -0.039798543 0.014571405 0.026326573 0.048890512 0.023372736 0.016534679 -0.03008127
-0.1228473 -0.053423062 -0.006005824 0.10982804 -0.054169107 -0.04044384 -0.06546044 -0.0051672845
0.026748981 -0.117743924 -0.08183574 -0.038879916 0.08883047 -0.022726757 -0.0024844722 0.07276313
0.06614009 -0.04576683 0.037923686 -0.08417276 -0.045900773 -0.00065266027 0.07540948 0.05036384
-0.03464933 -0.069574386 0.096859306 0.059650756 -0.03728337 0.01767774 -0.08841913 -0.072646335
-0.0050023906 0.0016893876 -0.033065174 -0.07643358 0.10267145 -0.04012005 0.07511713 0.08479747
-0.018687401 -0.02963124 0.03137057 -0.058763705 0.02921386 0.039501596 0.001252693 0.030536968
-0.019324293 -0.00784901 0.0275686 0.0028354223 -0.005924115 -0.04149598 -0.06277193 0.07345395
-0.11602222 -0.030988025 0.0014392914 -0.028953757 -0.0003906891 -0.068155944 0.015893042 0.08847662

encoder.convs.1.nn.2.bias f4 [64]
00000000: 4ba4 80b4 701a c434 fd52 ca30 2937 df32
00000010: 70fc 40b3 da1b 7033 3a16 4332 27e6 0b33
00000020: 1d77 0334 dcd7 82b4 5160 8c34 7715 09b4
00000030: c915 5634 a9ff 4f34 614a 0b33 08c6 2934
00000040: 0414 6034 a9c7 bc31 396f 4c35 90ac 92b3
00000050: 6921 13b2 f72b 03b4 82a4 b433 225b 5f34
00000060: 9cc4 b82f 246a 8cb2 bb4a fbb4 8f05 36b4
00000070: 04fb bf34 3d30 1fb3 c8f9 3c34 455a 3cb5
00000080: e490 90b3 10fc 7cb6 648e 54b5 e849 ef33
00000090: 260e 2cb4 cb40 0734 3469 5234 ae91 1633
000000a0: fd42 3133 ffc4 6d34 f219 8633 157c 0434
000000b0: c36c 7cb4 9c29 b2b2 02f6 f133 ceff c634
000000c0: f30c a232 1fe6 0534 9e43 0ab2 9c61 86b3
000000d0: 0fc5 40b3 0a31 46b3 8926 8633 30e7 07b4
000000e0: 418d c5b4 98d9 a634 0efc 0fb3 efc9 10b3
000000f0: 89f3 b2b3 a943 a134 8884 3134 a8aa 1134
-2.3961397e-07 3.652708e-07 1.4721021e-09 2.59857e-08 -4.4933074e-08 5.5904685e-08 1.1355548e-08 3.2572782e-08
1.2243659e-07 -2.4371445e-07 2.6147111e-07 -1.2766928e-07 1.9938228e-07 1.9371386e-07 3.2431107e-08 1.5811395e-07
2.0868907e-07 5.494219e-09 7.615777e-07 -6.830044e-08 -8.564123e-09 -1.221632e-07 8.411827e-08 2.0801647e-07
3.3609104e-10 -1.6346412e-08 -4.6806767e-07 -1.6952093e-07 3.575916e-07 -3.7063945e-08 1.7599734e-07 -7.0166817e-07
-6.731878e-08 -3.7697646e-06 -7.918336e-07 1.1142748e-07 -1.6023895e-07 1.2596426e-07 1.9596047e-07 3.505709e-08
4.127195e-08 2.2144012e-07 6.244581e-08 1.2338599e-07 -2.3508896e-07 -2.0740849e-08 1.12671856e-07 3.7066496e-07
1.886517e-08 1.2470308e-07 -8.048032e-09 -6.257616e-08 -4.4882707e-08 -4.6145068e-08 6.246871e-08 -1.265696e-07
-3.6796885e-07 3.107823e-07 -3.3524024e-08 -3.371127e-08 -8.33307e-08 3.0037816e-07 1.6532624e-07 1.3566262e-07

encoder.batch_norms.0.weight f4 [64]
00000000: 6e3b 413f e8cc 4d3f 532d 523f b7d6 483f
00000010: 58ba 323f de90 503f 3376 513f 7e7c 563f
00000020: 7f5c 4c3f 5728 5f3f 0879 593f fc75 363f
00000030: db48 443f 5af3 403f 1784 4a3f fdbc 443f
00000040: 9c5f 463f d737 523f fcb2 323f b27d 423f
00000050: 7615 573f 769a 473f 0cd4 503f d0a0 463f
00000060: 268e 3a3f 9f82 443f f4ce 433f 6e0a 463f
00000070: 03a4 523f 64f1 423f 62da 4f3f 50d8 483f
00000080: f84e 513f af7a 3b3f cad1 4d3f 162e 3c3f
00000090: 8fbc 3a3f 4dd8 543f a835 4f3f 1a86 423f
000000a0: 33ed 4d3f 6648 513f 9252 433f 9263 483f
000000b0: ab52 3a3f ffe7 353f 9d62 573f 9539 553f
000000c0: eff3 503f 1efc 4b3f 6d35 4e3f 6504 3a3f
000000d0: 33cd 593f a6e3 373f 4018 3d3f dfd8 2b3f
000000e0: 2b28 533f 9837 4b3f 3e7d 2f3f e87b 4d3f
000000f0: 0a98 493f 41f5 333f f372 513f ec8d 3d3f
0.7548131 0.8039079 0.8210041 0.7845263 0.6981559 0.8147105 0.8182098 0.8378371
0.7982864 0.8717093 0.84950304 0.7127378 0.7667367 0.75371325 0.79107803 0.76850873
0.7748964 0.82116455 0.6980436 0.75973046 0.8401712 0.77970064 0.8157356 0.7758913
0.7287315 0.7676181 0.7648766 0.77359664 0.8228151 0.7614958 0.811926 0.78455067
0.8176112 0.73234075 0.8039824 0.7350782 0.7294397 0.8314255 0.8094125 0.7598587
0.8044006 0.81751096 0.7629787 0.7827693 0.7278239 0.7105712 0.84134847 0.8329099
0.81622213 0.79681575 0.8055027 0.72662956 0.85078734 0.7183174 0.7386513 0.67127794
0.82483166 0.79381704 0.6855048 0.8026719 0.7874762 0.702961 0.81816024 0.7404468

encoder.batch_norms.0.bias f4 [64]
00000000: 6460 863b a825 813c 22c6 c1bc a4d8 95bb
00000010: f225 64bc ce56 24bc 385e 01bc c184 18bc
00000020: 0881 4a3c cfed db3c efe4 8a3b c85a 003d
00000030: 4c18 96bb 36d7 e33a 5034 1c3c 7c88 b93c
00000040: 465a 32bc c978 8b3a 558b 84bb f31e 1a3a
00000050: 6a5c cfbc 5e85 be3b c4f6 a13b 2288 a8bb
00000060: a9fd f83b d70f 76ba 2b7f 94bc 2e25 8f3c
00000070: b7f2 cabc 0d49 07bc 6c45 4e3c e813 093c
00000080: ce70 bcbc 90e3 ca3b 1861 04bc 1dde c23c
00000090: 3612 1c3b 9ed1 37bc 4cef b83b 3b08 f53b
000000a0: 7d4f 1f3c b90d bebc 6d0f 47bc 42b4 113c
000000b0: b6a9 053b 5095 7d3b 6bf4 8b3c 1e3d a7bc
000000c0: 4ad0 c23b 6d5d 81bc 3e61 b3bc 44de e93b
000000d0: 1330 ab3b 8fcb 023c cb23 c13c 720e 9aba
000000e0: 3ab6 823c 72b2 ff3c e7e4 333c 3e91 d0bc
000000f0: 378e 3b3a 914a a23b 959e 67bb 0f2d 773c
0.004100846 0.015765026 -0.023654047 -0.0045729447 -0.0139250625 -0.0100304615 -0.007895999 -0.009308995
0.012359865 0.026846794 0.004238717 0.031336576 -0.004580533 0.0017382863 0.009533957 0.022648089
-0.010885781 0.0010640855 -0.00404493 0.00058792456 -0.025312621 0.0058142385 0.004942747 -0.0051431814
0.007598598 -0.00093865156 -0.018127045 0.017473783 -0.024773939 -0.008257163 0.012589794 0.008366562
-0.023003008 0.0061916783 -0.00807979 0.023787552 0.0023814566 -0.01121941 0.005643761 0.007477788
0.009723541 -0.023199903 -0.012149674 0.0088930745 0.0020395345 0.0038693734 0.017084321 -0.020414885
0.00594524 -0.01579162 -0.021896955 0.007137092 0.0052242368 0.007983102 0.023576638 -0.0011753573
0.015956033 0.031213019 0.010979868 -0.025459882 0.00071546755 0.0049527367 -0.0035342325 0.015086426

encoder.batch_norms.0.running_mean f4 [64]
00000000: 261c c8bd 3a07 febc 1944 043e 7c6a d83d
00000010: f425 49be 592b 613d 00fd 60bd b4f5 23bd
00000020: 3c7d cabd c381 f03d ddaa 88bc d487 a5be
00000030: 00a9 a6be a227 02be 8af1 c4bd bbec 90be
00000040: 6dc7 88be 1a88 af3e 75fa 51bd db89 2dbe
00000050: 9177 863d eab8 d63c 8cc1 9dbd 807f 8bbe
00000060: 29e4 4cbe 78b7 41be d292 ba3d 8e9c 97bd
00000070: 56b5 853e ac8f 76be 87d0 83bd 8b5b 1cbe
00000080: 9524 173e 3901 91be 8faa 58be 40f9 063d
00000090: bcc6 84be 7adb 4e3c 2761 0e3e 101e 25be
000000a0: aec2 64be 4117 ff3d 0285 bfbe 5da2 8bbe
000000b0: a7de acbe 03a8 a7be 20e0 01bd abad a83e
000000c0: c751 78bd 17c8 ec3c f29d 0fbe aec1 56bd
000000d0: 81ce 82be 091e 92be 38b8 093d b486 c5be
000000e0: 8260 053e adb5 fbbd 389f a2be 4be3 053e
000000f0: 6a2e c9bd d403 58bd bdb9 8a3d 1dad a1be
-0.09770994 -0.031009305 0.12916602 0.10567185 -0.19643384 0.05497298 -0.05492878 -0.040029243
-0.09887168 0.117435 -0.016683036 -0.3233019 -0.32550812 -0.12710431 -0.096163824 -0.2830561
-0.2671465 0.34283525 -0.051264245 -0.16947119 0.06565774 0.02621122 -0.07702932 -0.27245712
-0.20008911 -0.18917644 0.09110035 -0.07402907 0.2611491 -0.24078244 -0.06436258 -0.15269296
0.14760049 -0.28321245 -0.21158813 0.032952547 -0.25932872 0.0126255695 0.13904248 -0.16124749
-0.2233989 0.12455607 -0.37406164 -0.2727231 -0.3376362 -0.3274537 -0.031707883 0.32944998
-0.060624864 0.028904004 -0.14025095 -0.0524308 -0.25548175 -0.2853854 0.03362295 -0.38579333
0.13025096 -0.12290511 -0.317621 0.13074987 -0.09823306 -0.052738026 0.06773708 -0.31577387

encoder.batch_norms.0.running_var f4 [64]
00000000: c72d f43b c1c3 1b3c a11d 4b3c 6423 b73c
00000010: 4a76 a63c af3c f63b c435 923b f3a2 f53b
00000020: 3d67 523c 1efc 843c 5aa6 343c 2861 0c3d
00000030: f761 3e3d 1653 3b3c 3ee9 863c 11d5 093d
00000040: dcf9 fd3c b22b 0b3d 9d26 943b ad6b 963c
00000050: 509d 1e3c cdc9 ce3b 0210 783c 5805 c83c
00000060: 2a28 8c3c 2178 263c bf3b 2d3c 5ed5 7c3b
00000070: 82f1 d53c efd8 943c 43b3 d23b f084 ac3c
00000080: 6d6d 643c 95d9 f53c b370 a83c 1120 7c3c
00000090: 35b0 ab3c b96c e33b d2dc 043c 8cfd 8f3c
000000a0: e9e9 d23b 4351 073c 7dc7 1d3d cc49 fd3c
000000b0: 0b1d 1a3d a22a 173d 8746 133c a7ea 1f3d
000000c0: 10d5 063c 2e63 d73b ebfd 9c3c 4e5c e63b
000000d0: 2082 f33c 67a1 eb3c 570e 293c da49 203d
000000e0: c4a4 ab3c e384 0c3c 7790 d33c 6319 3e3c
000000f0: 30df 5d3b 99f3 db3b bc5a 293c 2fe7 163d
0.007451746 0.009507121 0.012397201 0.022355743 0.020320076 0.0075145583 0.004461976 0.0074962317
0.012841997 0.0162335 0.011025989 0.034272343 0.046480145 0.011433383 0.01646864 0.03365046
0.031002931 0.033977218 0.0045212046 0.01836189 0.009681061 0.0063106776 0.015140535 0.02441661
0.017108995 0.010160477 0.010573327 0.0038579325 0.026116136 0.018169848 0.006430061 0.021059483
0.013942105 0.030010978 0.020561552 0.015388505 0.020958045 0.006940451 0.008109288 0.017576955
0.0064365757 0.00825912 0.038520325 0.030918978 0.037625354 0.036905892 0.008988983 0.03904214
0.008229509 0.0065731024 0.019164046 0.0070300465 0.029725134 0.028763486 0.01031836 0.03913293
0.02095259 0.008576605 0.025825722 0.011602732 0.0033854954 0.0067123887 0.010336574 0.036841568

encoder.batch_norms.1.weight f4 [64]
00000000: 1c67 493f 6a2d 4a3f e7f9 473f 5ada 333f
00000010: e498 3f3f 00c5 423f 207c 423f 1caf 4d3f
00000020: 6726 4b3f ced3 453f d64e 4e3f bcdc 463f
00000030: bf8e 4d3f e1aa 453f 7c64 493f 57f4 4e3f
00000040: 8e27 493f af40 483f 9d49 3a3f 6e67 493f
00000050: cd50 453f e197 443f 059b 533f d144 3e3f
00000060: 259f 493f 11de 443f 5cb1 453f 3d6a 4a3f
00000070: be7d 423f 1b50 413f 8f42 4c3f 67e6 4f3f
00000080: 37c3 3e3f d607 4c3f 5d9f 4d3f 3e06 373f
00000090: d92e 403f d89d 4e3f dc8f 483f a497 443f
000000a0: aa90 3f3f b8c6 4a3f 8614 4d3f 96cc 493f
000000b0: bbf7 443f 6cec 463f f7d8 473f b76e 4f3f
000000c0: 4584 473f 2dea 413f 010d 483f 7b62 313f
000000d0: c2a2 3b3f fe6c 433f b782 403f 6747 4d3f
000000e0: 066b 433f b83e 483f b391 493f 4374 4c3f
000000f0: eb9a 483f b960 483f daf4 483f dd9c 4d3f
0.7867296 0.78975546 0.78115696 0.70255053 0.7484267 0.7608185 0.7597065 0.8034532
0.7935547 0.77276313 0.80589044 0.77680564 0.8029594 0.77213866 0.7866895 0.80841583
0.7857598 0.782237 0.72768575 0.78673446 0.7707642 0.7679425 0.82658416 0.74323756
0.7875846 0.76901346 0.77223754 0.79068357 0.7597312 0.75512856 0.7978906 0.8121094
0.74516624 0.79699457 0.80321294 0.714939 0.75071484 0.807096 0.7834451 0.76793885
0.74830115 0.7920947 0.8010944 0.788278 0.76940507 0.777045 0.7806544 0.8102831
0.779362 0.7574795 0.7814484 0.69290894 0.73295224 0.76338184 0.75199455 0.80187076
0.7633518 0.782207 0.78737944 0.798649 0.78361386 0.7827259 0.78498614 0.8031748

encoder.batch_norms.1.bias f4 [64]
00000000: 7b20 2a3c e5eb 363b ef62 72bc ecd4 a2bb
00000010: c907 84b7 4bc4 06bc 0725 41bc ef2a 89bc
00000020: 4fdc 37bc 85f0 47bc 9b01 44bc b645 75bc
00000030: 063d c5bb 6fcd 513c f6fd a0bc 18e5 ff3a
00000040: c5c4 53bc dfac 1c3b 2544 4f3a 290c 203c
00000050: d840 923b b7f8 f3b9 c880 bdbb 1026 d83b
00000060: 1a83 02bb 0137 aebc ca5c 7eba 8d24 56bb
00000070: db04 fabc 9635 303c f4c5 0dbc f13a 203b
00000080: 038d 79bc fa4f 1e3c 223c 8a3c d2de 80bc
00000090: c8a0 beba e630 0cbb 4b6a b3bc 5232 ccbc
000000a0: e7f9 72bc 849c c0bb 6f11 413b 54f9 81bc
000000b0: e4e4 2abc 8264 e7bb bc08 333b 2795 49bc
000000c0: de4b 8fbb 7037 0c3c 2ee3 4abc 65b2 33bc
000000d0: e176 32bb b71a 1f3c 4c6b 393b a731 9d3b
000000e0: 6aed f43a d6d8 04bc 54ad b6b9 d570 073c
000000f0: 5c95 abbc 016e b43b f907 243b 5f70 24bc
0.0103837205 0.00279116 -0.014794095 -0.00496923 -1.5739251e-05 -0.008225511 -0.011788613 -0.016744105
-0.011221959 -0.01220334 -0.011963273 -0.014970234 -0.0060192375 0.012805327 -0.019652348 0.0019523231
-0.0129253315 0.002390675 0.00079065777 0.009768524 0.0044632964 -0.0004653388 -0.005783174 0.0065963343
-0.0019914568 -0.021266462 -0.00097031577 -0.0032675595 -0.030519893 0.010754963 -0.008653153 0.0024449194
-0.015231374 0.009662623 0.016874377 -0.015731249 -0.0014543766 -0.002139145 -0.02190127 -0.024926338
-0.014830089 -0.005878033 0.0029459854 -0.01586596 -0.010430548 -0.007061542 0.0027318439 -0.012303627
-0.0043730577 0.008558139 -0.012383265 -0.010967826 -0.0027231502 0.009710959 0.0028292714 0.004797179
0.0018686478 -0.008108338 -0.00034842885 0.008266647 -0.020945244 0.0055062776 0.0025029166 -0.010036557

encoder.batch_norms.1.running_mean f4 [64]
00000000: 1d9d 713f f2e4 fabe 94a7 e7bd 26c1 d4be
00000010: 4f96 b13d 1966 13bd aae3 ffbe c1d8 10be
00000020: 7398 863d 99c4 3c3e 0af7 c73e 3639 1abf
00000030: e891 a63e f14b 82bd 1983 97be 476e 30be
00000040: 2c26 e4be 5493 613e ad72 723e ff58 58be
00000050: 3bc1 36be 752f d33b 76bf da3e 463d 6a3c
00000060: f871 2f3f 0e15 6ebe 01bf d33e 4652 47be
00000070: 15dd aabe 117b 4ebe 535c f1be f33b 203d
00000080: c70a c63d 107c 5a3d 9e42 abbd 780c 51bf
00000090: 88a4 a9be 8e31 10bf 8b45 acbe a4ab 8d3e
000000a0: d622 cebd 3c36 2cbf f2e5 2b3e 6bd5 bbbe
000000b0: 9fb3 c63e 33af 60be fd49 2f3e 4681 6bbe
000000c0: 549b 13bf 67cb 2abe 3a95 7bbe d7c2 0f3f
000000d0: 709e 093f be8a be3e 7d20 e23e 54a6 17be
000000e0: cf29 253f 7600 19bf 49b2 fbbe dced db3e
000000f0: 8a23 10bd 8c5d 4c3e c757 ecbe 6724 e7be
0.9438036 -0.49002796 -0.1131126 -0.4155361 0.08671247 -0.03598604 -0.4997838 -0.14145185
0.06572046 0.18434371 0.39055663 -0.60243547 0.32533193 -0.06362141 -0.29592207 -0.17229567
-0.44560373 0.22028857 0.23676558 -0.211277 -0.17847149 0.0064448663 0.42724198 0.014296835
0.6853328 -0.23250219 0.41356662 -0.19464979 -0.33371797 -0.20164134 -0.4714075 0.039119672
0.09670024 0.05334097 -0.083623156 -0.8165965 -0.3313334 -0.56325614 -0.33646807 0.27670014
-0.10065238 -0.67270255 0.16786936 -0.36686262 0.38808915 -0.21941833 0.17118068 -0.22998533
-0.57658887 -0.16679154 -0.24568644 0.56156677 0.5375738 0.37215227 0.44165412 -0.14809543
0.6451692 -0.5976633 -0.49159458 0.4295491 -0.035190143 0.1995756 -0.4616072 -0.4514496

encoder.batch_norms.1.running_var f4 [64]
00000000: 9c33 703e 4ae5 c83e dfe1 bf3e fdfb 353e
00000010: 8edb 2a3e f824 563e df9c 173f caef eb3e
00000020: 6d5f 913e e7c9 483e a1ab 083e 2d91 693e
00000030: 3ec0 533e 32a4 7f3e 7bd6 293f 2b40 343e
00000040: bc61 023f a00c c43e f6f1 813e bd33 a43e
00000050: ddac 043e 0b49 083f 8c2d df3e ce88 513e
00000060: a86f 9f3e bb4c ff3d 7f22 4d3e 0a60 973e
00000070: a729 833e a0a7 3d3e d56e a43e 3b6e d93e
00000080: 0cc4 833e 0ba1 443e ab5a e23e 48fb 943e
00000090: 5a57 093e 275e fc3e be67 ac3e 840b bb3e
000000a0: ced0 8a3e a7f4 283e 41d4 993e 22c6 c73e
000000b0: 3576 e13e 1357 9c3e 1145 1c3e e881 433e
000000c0: 3e49 993e 25aa 653e 4c95 aa3e 8fc0 be3e
000000d0: 9c6e 2a3e 4aa7 253e 25cf 7b3e 4fe3 bd3e
000000e0: d367 aa3e 4b52 4b3e 059d a13e 8e10 ed3e
000000f0: 02b7 a23e d3c2 003e e92b 973e 4c3c a93e
0.23457187 0.39237434 0.37477013 0.17771907 0.16685316 0.2091254 0.5922374 0.46081382
0.28393117 0.1960827 0.13346721 0.22809286 0.20678803 0.2496498 0.66342896 0.17602603
0.5093038 0.38290882 0.25379914 0.32070723 0.12956567 0.53236455 0.43589437 0.20462343
0.31139874 0.12465807 0.2003269 0.2956546 0.25617716 0.18520975 0.32115808 0.42466912
0.2573551 0.19202058 0.442098 0.29097962 0.13412228 0.49290583 0.336729 0.36532223
0.2711243 0.16499577 0.3004475 0.3901835 0.44035497 0.30535182 0.15260722 0.19092524
0.29938692 0.22428186 0.3331703 0.37256286 0.16643757 0.16177097 0.24590738 0.37087485
0.33282337 0.19855611 0.3156511 0.46301693 0.3178025 0.1257432 0.29525688 0.33053815
