joinrank/models/ranker_v3/final_model.pt (torch, 812451 bytes, 33 tensors)

encoder.convs.0.nn.0.weight f4 [128, 64]
0	0x8edebb2e	-5.4907473e-30
1	0x8006042a	-5.52507e-40
2	0x9419b487	-7.760129e-27
3	0x800564aa	-4.95289e-40
4	0x00055b4b	4.91927e-40
5	0x00055d53	4.92656e-40
6	0x00056a7d	4.97378e-40
7	0x0005599d	4.91325e-40
8	0x80055cf0	-4.92517e-40
9	0x8006a3d9	-6.0979e-40
10	0x00058bb5	5.09295e-40
11	0x80057423	-5.0084e-40
12	0x0005820b	5.05828e-40
13	0x00056c63	4.9806e-40
14	0x00056a5b	4.9733e-40
15	0x000565fb	4.95761e-40
16	0x80063429	-5.69725e-40
17	0x000588df	5.08278e-40
18	0x800649fd	-5.77555e-40
19	0x8005650e	-4.95429e-40
20	0x00057b29	5.03359e-40
21	0x000565ea	4.95737e-40
22	0x000578c8	5.02506e-40
23	0x000558dd	4.91056e-40
24	0x00064d7c	5.78809e-40
25	0x8006c430	-6.21392e-40
26	0x8005af75	-5.2212e-40
27	0x8005ac2c	-5.20941e-40
28	0x80058e6f	-5.10273e-40
29	0x8005913e	-5.1128e-40
30	0x0005c93d	5.31368e-40
31	0x8005eede	-5.44867e-40
32	0x00057084	4.9954e-40
33	0x800574cf	-5.0108e-40
34	0x80058619	-5.07283e-40
35	0x80068e74	-6.02116e-40
36	0x80056ab1	-4.97451e-40
37	0x00056923	4.96893e-40
38	0x00057189	4.99906e-40
39	0x80056b89	-4.97754e-40
40	0x0005c60c	5.30223e-40
41	0x80065889	-5.82773e-40
42	0x80055c8b	-4.92376e-40
43	0x00059dea	5.15826e-40
44	0x00055bbb	4.92084e-40
45	0x80056616	-4.95799e-40
46	0x80055736	-4.90463e-40
47	0x000570c0	4.99625e-40
48	0x800567f8	-4.96474e-40
49	0x0006a188	6.0896e-40
50	0x80059e8e	-5.16056e-40
51	0x0005f138	5.4571e-40
52	0x80061e5f	-5.61908e-40
53	0x0005ef47	5.45014e-40
54	0x80058de1	-5.10074e-40
55	0x80069cd5	-6.07274e-40
56	0x00057c91	5.03863e-40
57	0x80056e6f	-4.98794e-40
58	0x0005a12f	5.16999e-40
59	0x80057217	-5.00105e-40
60	0x000575b8	5.01407e-40
61	0x800620fc	-5.62846e-40
62	0x80055c06	-4.92189e-40
63	0x00055d3e	4.92626e-40
64	0xbb3e7383	-0.002906055
65	0xb9a6e734	-0.00031834247
66	0xb993dc63	-0.00028202226
67	0xb3b2911b	-8.3151654e-08
68	0x33818312	6.030872e-08
69	0xb2c97f35	-2.3457327e-08
70	0x338af26d	6.470223e-08
71	0x326f8d53	1.3943764e-08
72	0x320984ce	8.004646e-09
73	0xb2a0e56e	-1.8730784e-08
74	0x3307267c	3.146714e-08
75	0x332e8490	4.0633097e-08
76	0x00057f2a	5.04795e-40
77	0x0005935e	5.12043e-40
78	0x80056e4e	-4.98747e-40
79	0x8005584e	-4.90855e-40
80	0x00058ab6	5.08938e-40
81	0x000560d1	4.93909e-40
82	0x800560ca	-4.93899e-40
83	0x0005d774	5.36467e-40
84	0x000570e5	4.99676e-40
85	0x8005906e	-5.10989e-40
86	0x000584fa	5.0688e-40
87	0x00055d75	4.92704e-40
88	0x000570f8	4.99703e-40
89	0x00055a76	4.91629e-40
90	0x0005fc0b	5.49593e-40
91	0x80059926	-5.14117e-40
92	0x80056628	-4.95824e-40
93	0x800570fc	-4.99709e-40
94	0x8005ab6a	-5.20669e-40
95	0x80060712	-5.5355e-40
96	0x80057154	-4.99832e-40
97	0x8005dc0c	-5.38115e-40
98	0x80056ac3	-4.97476e-40
99	0x80057389	-5.00624e-40
100	0x00057298	5.00286e-40
101	0x0005587d	4.90921e-40
102	0x00058b07	5.09051e-40
103	0x0005b332	5.2346e-40
104	0x80057e68	-5.04523e-40
105	0x8005a3d8	-5.17954e-40
106	0x000561ae	4.94218e-40
107	0x00058d81	5.0994e-40
108	0x800559be	-4.91371e-40
109	0x800671fe	-5.91906e-40
110	0x80067fba	-5.96833e-40
111	0x8005656b	-4.9556e-40
112	0x00056012	4.93641e-40
113	0x80056998	-4.97057e-40
114	0x000589c8	5.08604e-40
115	0x00056f3a	4.99078e-40
116	0x00064b9a	5.78134e-40
117	0x8005770b	-5.01882e-40
118	0x0005b622	5.24514e-40
119	0x000586d8	5.0755e-40
120	0x0005755d	5.0128e-40
121	0x00057a68	5.03089e-40
122	0x00056e89	4.9883e-40
123	0x80063710	-5.70766e-40
124	0x00057ec1	5.04648e-40
125	0x00057696	5.01718e-40
126	0x0005668f	4.95969e-40
127	0x00055e87	4.93088e-40
128	0x3db47862	0.08812024
129	0xbbe4db21	-0.00698413
130	0x3beb3993	0.0071784942
131	0xbc711d0d	-0.014716399
132	0xbdfdcfad	-0.12393127
133	0x3d025f98	0.031829447
134	0xbce6885d	-0.028141195
135	0xbdb5903f	-0.088654034
136	0xbddb2680	-0.10700703
137	0xbdeafdfe	-0.114742264
138	0x3da5d42b	0.080971085
139	0x3d964241	0.07336856
140	0x0005d50d	5.35606e-40
141	0x8006b18c	-6.14705e-40
142	0x8005946f	-5.12425e-40
143	0x00055e6f	4.93054e-40
144	0x8005d50e	-5.35607e-40
145	0x0006832c	5.98069e-40
146	0x8005f6ec	-5.47756e-40
147	0x80056ada	-4.97509e-40
148	0x8005732c	-5.00493e-40
149	0x80062a0b	-5.66095e-40
150	0x00057bd7	5.03603e-40
151	0x8005a70b	-5.19101e-40
152	0x800562aa	-4.94571e-40
153	0x800695e9	-6.0479e-40
154	0x800579d5	-5.02883e-40
155	0x80058548	-5.0699e-40
156	0x80056c9f	-4.98143e-40
157	0x80058be4	-5.09361e-40
158	0x0005787f	5.02403e-40
159	0x0005829d	5.06033e-40
160	0x000576ac	5.01749e-40
161	0x80056fe1	-4.99312e-40
162	0x8005dd09	-5.3847e-40
163	0x0005dc7e	5.38275e-40
164	0x000583ff	5.06529e-40
165	0x0005886b	5.08115e-40
166	0x00057848	5.02326e-40
167	0x0005ae85	5.21783e-40
168	0x00058366	5.06314e-40
169	0x000612a2	5.57697e-40
170	0x00058e45	5.10214e-40
171	0x00066646	5.87702e-40
172	0x80056a90	-4.97405e-40
173	0x80057c88	-5.03851e-40
174	0x800572b4	-5.00325e-40
175	0x00056ce2	4.98237e-40
176	0x8005a35c	-5.1778e-40
177	0x800583a8	-5.06407e-40
178	0x000681c0	5.97559e-40
179	0x80067874	-5.94223e-40
180	0x8005a5ce	-5.18657e-40
181	0x00056fd1	4.9929e-40
182	0x800558a2	-4.90973e-40
183	0x000569b7	4.97101e-40
184	0x8005710b	-4.9973e-40
185	0x80056b44	-4.97657e-40
186	0x800580d3	-5.05391e-40
187	0x80057be6	-5.03624e-40
188	0x80057898	-5.02438e-40
189	0x0005868b	5.07442e-40
190	0x80055d9f	-4.92762e-40
191	0x80057619	-5.01543e-40
192	0x3d83a554	0.06428018
193	0x3dc62eb4	0.09676877
194	0x3dde7397	0.10861891
195	0x3d5fcc00	0.05463791
196	0x3bfc6721	0.0077027236
197	0xbd785993	-0.0606323
198	0xbcd30d5f	-0.025763212
199	0x3ddf29db	0.10896655
200	0xbcae3b26	-0.021268439
201	0xbda15427	-0.07877379
202	0x3d529342	0.051409967
203	0x3d55e436	0.052219592
204	0x000595ea	5.12957e-40
205	0x8005607e	-4.93792e-40
206	0x00057cd8	5.03963e-40
207	0x00055a30	4.9153e-40
208	0x800565c9	-4.95691e-40
209	0x80056fd6	-4.99297e-40
210	0x80057b09	-5.03314e-40
211	0x80058811	-5.07989e-40
212	0x80055991	-4.91308e-40
213	0x0006a921	6.11685e-40
214	0x80056ab5	-4.97457e-40
215	0x000574aa	5.01029e-40
216	0x000588ae	5.08209e-40
217	0x8005782d	-5.02288e-40
218	0x0005627a	4.94504e-40
219	0x00059fee	5.1655e-40
220	0x0005e022	5.39581e-40
221	0x80058c2b	-5.0946e-40
222	0x00056c26	4.97974e-40
223	0x8005642b	-4.95111e-40
224	0x8006210b	-5.62867e-40
225	0x8005752c	-5.01211e-40
226	0x000568b2	4.96735e-40
227	0x0005875d	5.07737e-40
228	0x80056ed6	-4.98938e-40
229	0x0005928c	5.11749e-40
230	0x800632bf	-5.69217e-40
231	0x800585e9	-5.07215e-40
232	0x0005be62	5.27474e-40
233	0x000569f2	4.97183e-40
234	0x80056dfe	-4.98635e-40
235	0x000591b9	5.11453e-40
236	0x00056eff	4.98995e-40
237	0x8006a6eb	-6.10892e-40
238	0x8005759a	-5.01365e-40
239	0x00067f77	5.96739e-40
240	0x80055d38	-4.92618e-40
241	0x8005af77	-5.22122e-40
242	0x8005cfb6	-5.3369e-40
243	0x80058ffa	-5.10827e-40
244	0x00056c7d	4.98096e-40
245	0x0005721f	5.00116e-40
246	0x80055923	-4.91154e-40
247	0x800577cd	-5.02154e-40
248	0x800574e0	-5.01104e-40
249	0x8005a251	-5.17406e-40
250	0x0006593b	5.83023e-40
251	0x0005a83e	5.19531e-40
252	0x80056baa	-4.978e-40
253	0x0005588a	4.9094e-40
254	0x800589b6	-5.08579e-40
255	0x80056d34	-4.98352e-40

encoder.convs.0.nn.0.bias f4 [128]
0	0x0005bd5a	5.27104e-40
1	0x339af2cd	7.215349e-08
2	0x3665f9e5	3.4269117e-06
3	0xb60d2f41	-2.1038143e-06
4	0xbd6df984	-0.058099285
5	0xbadb815d	-0.0016746927
6	0x3d3e89e2	0.046518214
7	0xbc2e14bb	-0.01062506
8	0x80055a1e	-4.91505e-40
9	0x3d9593b8	0.07303566
10	0x00182819	2.218436e-39
11	0x3cc64f81	0.024207832
12	0xbdc19691	-0.094525464
13	0x3d089f04	0.033354774
14	0xb606cbb0	-2.0086118e-06
15	0x36751c4e	3.652432e-06
16	0xaa742785	-2.1685265e-13
17	0x3c2ec289	0.010666498
18	0x3e19bb09	0.15012754
19	0x9eb2ef68	-1.8945499e-20
20	0x3b5089c1	0.003182039
21	0x3cf3f363	0.029779142
22	0x80056143	-4.94068e-40
23	0x3daa1375	0.083044924
24	0xbce8302d	-0.028343285
25	0xbcec63dc	-0.02885621
26	0x3d8aaad1	0.06770862
27	0x3d1d856e	0.038457327
28	0x3db7c15c	0.08972427
29	0xba0e273f	-0.0005422718
30	0xb683a373	-3.923132e-06
31	0xbd38e867	-0.04514351
32	0xbcc2b51b	-0.023767998
33	0x80055877	-4.90913e-40
34	0x3cdc5aa8	0.026898697
35	0xbb8b6c8b	-0.0042548827
36	0xbd03166b	-0.0320038
37	0xbdd34445	-0.10315756
38	0xbc17c2ed	-0.0092627825
39	0xbbf9bcea	-0.0076213973
40	0x3caa511f	0.020790635
41	0x3cc54441	0.024080398
42	0x3598236c	1.1335192e-06
43	0xb7057a44	-7.955885e-06
44	0xb65117c3	-3.1157258e-06
45	0xbd807da8	-0.06273967
46	0x3d6f682e	0.058448963
47	0x3c67e7c5	0.014154379
48	0xbcb8373e	-0.022487279
49	0x3d22b864	0.03972663
50	0xbb8062c5	-0.0039180242
51	0xb0b8aa33	-1.3436136e-09
52	0x3b49d5c5	0.0030797583
53	0x3d5d4a60	0.054026008
54	0xbda081af	-0.07837235
55	0x3d8385be	0.06421994
56	0xb75784dc	-1.2845932e-05
57	0x360fea15	2.1444914e-06
58	0xbc375c2b	-0.011191408
59	0x3de60925	0.11232213
60	0xb607f214	-2.0257476e-06
61	0x359d369b	1.1713304e-06
62	0xb7a1de9a	-1.9296353e-05
63	0xb51dcd37	-5.8785685e-07
64	0x3d0495f7	0.03236958
65	0xb10a482c	-2.0122668e-09
66	0xbcf384b9	-0.029726373
67	0x36c5f224	5.8992464e-06
68	0x3660c041	3.3490508e-06
69	0x3c95c432	0.01828203
70	0x3c92c545	0.017916331
71	0x3cf15c3b	0.029462924
72	0x3d27771c	0.040885076
73	0x3baace96	0.0052126152
74	0xbc3f7acb	-0.011686991
75	0x3d7e7c56	0.062130295
76	0xbd656efb	-0.056014042
77	0xbd418cb5	-0.04725333
78	0xbad29222	-0.001606528
79	0x35eab0d5	1.7485823e-06
80	0xbac583ee	-0.0015069225
81	0xbdb0fd5b	-0.08642074
82	0x3d835064	0.06411818
83	0xbbd49df5	-0.0064885565
84	0xb62eb0ca	-2.6030925e-06
85	0xbc9feeb6	-0.019523006
86	0x3da29f20	0.07940507
87	0x3ddac270	0.10681617
88	0x80055843	-4.9084e-40
89	0x3ce8ad52	0.028402958
90	0x000560e9	4.93942e-40
91	0x9a22d52a	-3.3673007e-23
92	0x3d3d7cbe	0.04626154
93	0xb5710e34	-8.9800164e-07
94	0x3e0827e8	0.13296473
95	0x3da2a785	0.07942108
96	0xb8af4761	-8.3579456e-05
97	0x9437f7bc	-9.287996e-27
98	0xbcb32b61	-0.02187127
99	0x3680af3c	3.8350972e-06
100	0xb3282d4b	-3.9156742e-08
101	0xa04e0f06	-1.745385e-19
102	0xbda210b0	-0.07913339
103	0xbc229643	-0.0099235205
104	0x980c661b	-1.8146126e-24
105	0x3dbe6538	0.0929665
106	0xbdd79c9b	-0.10527917
107	0x36a8f994	5.035845e-06
108	0x3dbe40fa	0.09289737
109	0xbd20eeb9	-0.039290164
110	0x3cadc239	0.021210777
111	0x3d65e8d1	0.056130234
112	0x983e7458	-2.4615663e-24
113	0xb4947987	-2.765557e-07
114	0xbd2943b0	-0.041324317
115	0xbd5164b4	-0.05112143
116	0xbb8b476f	-0.004250459
117	0x3d256a1d	0.0403844
118	0x00056c99	4.98135e-40
119	0x3b9cbfa0	0.0047835857
120	0x3c9d8386	0.019227754
121	0xbd0e057c	-0.0346732
122	0xbc8d3779	-0.017238365
123	0xb6baf132	-5.571311e-06
124	0x3bac6dbf	0.005262106
125	0xb7f33c9f	-2.8996086e-05
126	0x3d883948	0.066515505
127	0xbd5f406f	-0.054504808

encoder.convs.0.nn.2.weight f4 [128, 128]
0	0x80055bea	-4.9215e-40
1	0x32638c89	1.3245093e-08
2	0x3d5b3cbb	0.053524714
3	0xbd0fe347	-0.035128858
4	0x3c6ff759	0.014646375
5	0xbc94381a	-0.018093158
6	0xba199cb8	-0.000585984
7	0xbd67266a	-0.05643312
8	0x0005c869	5.31071e-40
9	0xbcd65c36	-0.026167016
10	0x00005591	3.0695e-41
11	0x3b07448b	0.002064022
12	0xbd1c417c	-0.03814839
13	0x3d931d22	0.07183291
14	0xbdaaae5e	-0.08334039
15	0x3d9a4684	0.07532981
16	0x00058089	5.05287e-40
17	0xbd821c7b	-0.063530885
18	0x3dacab66	0.08431129
19	0x80056a37	-4.9728e-40
20	0xbd19eeb7	-0.03758117
21	0xbd929362	-0.07157017
22	0x00056047	4.93715e-40
23	0xbca985bc	-0.020693652
24	0xbcec5580	-0.028849363
25	0x3d97f150	0.074190736
26	0x3cd436d7	0.025905056
27	0xbd929ab4	-0.071584135
28	0xbd12e36b	-0.035861414
29	0xb3ec45fe	-1.1002338e-07
30	0xbd54f338	-0.051989764
31	0x3a39bc0b	0.00070852105
32	0x3cb3930e	0.021920707
33	0x00057aae	5.03187e-40
34	0xbdf328b2	-0.118729964
35	0x26487024	6.954092e-16
36	0x3a8ae063	0.0010595437
37	0xbd12eac9	-0.03586844
38	0xbe09c6e7	-0.13454781
39	0x2b029f5a	4.640642e-13
40	0xbc95f861	-0.018306913
41	0x3ba945e4	0.0051658023
42	0x3d93634b	0.07196673
43	0xbcb7e955	-0.022450129
44	0xbdad3606	-0.0845757
45	0x3cc34d05	0.023840437
46	0x2cd81a34	6.1419984e-12
47	0xbd76be74	-0.060240224
48	0xbd08f9ca	-0.033441342
49	0x3bc31798	0.0059537403
50	0x00056ea3	4.98866e-40
51	0x000562f5	4.94677e-40
52	0xbcdaf422	-0.02672774
53	0x3cda928e	0.02668121
54	0xbd36902e	-0.044571094
55	0xbd221b08	-0.03957656
56	0xbd955b57	-0.07292812
57	0xbd9e1d89	-0.07720477
58	0xbd37a4b5	-0.04483481
59	0x3d135e60	0.035978675
60	0xbc9e3b50	-0.019315392
61	0xbc5010b8	-0.012699299
62	0x800573e8	-5.00757e-40
63	0x3d6e5d0a	0.058194198
64	0x3d76555b	0.060139995
65	0x800128b7	-1.06441e-40
66	0xbe02f385	-0.12788208
67	0xbdbf9105	-0.09353832
68	0x3b7dcc5c	0.0038726544
69	0x3d5a6632	0.053320117
70	0x3a8f07da	0.0010912374
71	0xbddc48ab	-0.10756048
72	0x3d01c3a2	0.03168071
73	0x3cb9d2c6	0.022683512
74	0x3cb215e8	0.021738961
75	0x3ceb1b7e	0.028699633
76	0xbc399886	-0.011327868
77	0x3d48c283	0.049013626
78	0x3b928eb0	0.004472576
79	0xbcf0e5b9	-0.029406415
80	0x35aa5a53	1.2692275e-06
81	0xbdc0123e	-0.093784794
82	0xbdaf2a27	-0.08552962
83	0x32a4282d	1.9110383e-08
84	0xbd9e391c	-0.077257365
85	0xbc82e493	-0.015978133
86	0x3db77654	0.08958116
87	0xbace68ef	-0.0015747825
88	0x80055b93	-4.92028e-40
89	0x3dda5844	0.106613666
90	0x80057fcf	-5.05027e-40
91	0x80055abe	-4.9173e-40
92	0xbd824e4d	-0.06362591
93	0x3daf624f	0.08563673
94	0xbce58866	-0.028019141
95	0x3d6516e0	0.05593002
96	0xb159b9db	-3.1683303e-09
97	0x00056715	4.96156e-40
98	0x3e1dd35b	0.15412657
99	0x3d79eb51	0.06101543
100	0x16a3b41c	2.6447735e-25
101	0x000585b5	5.07143e-40
102	0x3ca0c05a	0.01962297
103	0xbd7985b6	-0.060918532
104	0x80058cc1	-5.0967e-40
105	0xbd941518	-0.07230586
106	0x3d869a51	0.06572402
107	0x3bfaf8aa	0.0076590376
108	0xbce4c2a3	-0.027924841
109	0x3ca2e565	0.019884774
110	0xbc95f33c	-0.01830446
111	0x3d812d12	0.063074246
112	0x0005593c	4.91189e-40
113	0x3db928e7	0.09041005
114	0xbc2faf30	-0.01072292
115	0x3ca33f1e	0.019927558
116	0x3a620d62	0.000862321
117	0x3d60c93d	0.054879416
118	0x0005655c	4.95538e-40
119	0x86d7b232	-8.1135846e-35
120	0x3d1f477a	0.038886525
121	0xbce73307	-0.028222574
122	0xbc3a5494	-0.011372704
123	0xbe0a4649	-0.13503374
124	0x3c80c6af	0.01571974
125	0x3681e54c	3.8711933e-06
126	0xba1b1516	-0.0005915923
127	0x3c3e79a8	0.011625685
128	0x00057937	5.02661e-40
129	0x3241f6a9	1.1290163e-08
130	0xbd8c7150	-0.0685755
131	0x3d2065c4	0.03915955
132	0xbc1d939b	-0.009617711
133	0xbb9eb427	-0.004843253
134	0xb7858b41	-1.591968e-05
135	0x3cb8e316	0.02256922
136	0x00058bda	5.09347e-40
137	0x3d490a59	0.049082134
138	0x00530f45	7.627824e-39
139	0x3bf8b5dd	0.007590039
140	0x3d66cdbb	0.056348544
141	0x3c1c1d5e	0.009528486
142	0x3cab95d9	0.020945476
143	0xbd272793	-0.040809225
144	0x80056a9b	-4.9742e-40
145	0x3d2d0a28	0.042246014
146	0x3c414c1c	0.011797931
147	0x80124c01	-1.680304e-39
148	0x3b237e30	0.002494704
149	0xbd8be894	-0.0683147
150	0x80056868	-4.96631e-40
151	0x3d2bb8cf	0.041924294
152	0x3d58fa35	0.05297299
153	0x3cb4c8c4	0.022068389
154	0xbd64e061	-0.055878047
155	0xbd22925b	-0.039690357
156	0x3cea2baa	0.028585274
157	0x3101af6f	1.8871693e-09
158	0x3da876d1	0.082257874
159	0xba36659c	-0.000695789
160	0x3cd4ab01	0.025960447
161	0x80055ffc	-4.9361e-40
162	0xbd58ba03	-0.05291177
163	0xb1d55443	-6.2086953e-09
164	0x38d62c36	0.0001021255
165	0x3cf83bac	0.030301891
166	0x3d9476a5	0.07249192
167	0x9314d416	-1.8784793e-27
168	0xbccd3b6a	-0.025052745
169	0xbd99fecf	-0.07519304
170	0x3d6f72e4	0.058459178
171	0x3d3c10f8	0.04591462
172	0x3d131033	0.03590412
173	0xbcb4e423	-0.02208144
174	0xb7a14b39	-1.9227724e-05
175	0xbbd9e1d6	-0.006649236
176	0xbd74f74c	-0.059806153
177	0x3db99850	0.090622544
178	0x80055810	-4.90768e-40
179	0x000559f6	4.9145e-40
180	0xbdbf3a58	-0.093373
181	0xbd1deb55	-0.03855451
182	0x3d890444	0.06690267
183	0xbc97b02b	-0.01851662
184	0xbd26bb10	-0.04070574
185	0xbbf29592	-0.007403084
186	0x3dc74084	0.09729102
187	0x3c69c90d	0.014269126
188	0x3d11d572	0.035603948
189	0xbd5a20de	-0.053254
190	0x80058540	-5.06979e-40
191	0xbd88d82e	-0.06681858
192	0xbd8c9a56	-0.06865375
193	0x989b01b2	-4.0068273e-24
194	0x3c8873c4	0.016656764
195	0x3d5ddf82	0.05416823
196	0xbdbfab0f	-0.09358799
197	0xbbc8a582	-0.0061232457
198	0x3d4f43ce	0.050601773
199	0x3dfd10e7	0.123567395
200	0x3cc05a7a	0.023480643
201	0xbd2f9f9f	-0.042876836
202	0xbcf5fea9	-0.030028658
203	0x3d61dd68	0.05514279
204	0xbcbbe133	-0.022934532
205	0x3abeefc5	0.0014567306
206	0xbc2ea566	-0.010659551
207	0xbd231ab5	-0.03982039
208	0xb7459bd1	-1.1778394e-05
209	0xbdc97885	-0.098374404
210	0x3cf0d588	0.029398695
211	0x3acf0ab7	0.001579604
212	0xba757813	-0.0009363901
213	0xbcfc42ed	-0.030793631
214	0xbd581bd6	-0.05276092
215	0xba89a47b	-0.001050129
216	0x800597b3	-5.13597e-40
217	0x3c8c2ccd	0.017111206
218	0x000570a2	4.99583e-40
219	0x0005584f	4.90857e-40
220	0x3dc977f3	0.098373316
221	0x3cb10224	0.021607466
222	0x3d200712	0.039069243
223	0xbb0d9b8e	-0.002160761
224	0x3072509d	8.8153645e-10
225	0x8005586e	-4.909e-40
226	0xbca9784b	-0.020687243
227	0x3c37010a	0.011169681
228	0xa7f662a7	-6.8385675e-15
229	0x00069f9d	6.08271e-40
230	0x3cfb36f2	0.030665848
231	0x3db116ea	0.08646949
232	0x800588a0	-5.08189e-40
233	0xbd306c89	-0.043072257
234	0xbd72974a	-0.05922631
235	0xbdd0378e	-0.10166846
236	0x3d78089c	0.060555086
237	0x3a6ffff7	0.0009155268
238	0x3dfb8702	0.1228161
239	0xbda5175a	-0.080610946
240	0x80056b5e	-4.97694e-40
241	0x3d5be467	0.05368462
242	0x3cbdb267	0.023156358
243	0x3d0824f6	0.033238374
244	0x39fbe8be	0.00048047857
245	0x3d3d76ae	0.04625576
246	0x00056a4d	4.97311e-40
247	0xacca1e30	-5.744537e-12
248	0x3cb18f74	0.02167485
249	0x3cab4744	0.020908006
250	0x3c8a6f16	0.016898673
251	0x3d2ed450	0.042682946
252	0x3d0faf81	0.035079483
253	0x39da1ee4	0.00041603216
254	0x3c4ea290	0.012612
255	0xbc3010a9	-0.01074616

encoder.convs.0.nn.2.bias f4 [128]
0	0x35732bae	9.0588117e-07
1	0xb6b4e1f3	-5.390722e-06
2	0x361ed43f	2.3667378e-06
3	0x33bb0576	8.7088594e-08
4	0x35b9581e	1.380922e-06
5	0xb671e591	-3.6045424e-06
6	0xb5dfc0dd	-1.6670925e-06
7	0x363a3611	2.774763e-06
8	0x3648d4d4	2.9926205e-06
9	0x36ab2511	5.100512e-06
10	0x33884e82	6.347274e-08
11	0xb5c44444	-1.4623006e-06
12	0x35bba04d	1.3979239e-06
13	0xb3b820b0	-8.5741135e-08
14	0x36812938	3.849298e-06
15	0xb8030113	-3.1233834e-05
16	0xb611e521	-2.1740054e-06
17	0x375cfb19	1.3171485e-05
18	0xb6aec3ef	-5.2084138e-06
19	0x368160dc	3.8557755e-06
20	0x34f41e96	4.5470796e-07
21	0xb4af37b5	-3.2636822e-07
22	0x36833842	3.9106535e-06
23	0x35556b5e	7.9504923e-07
24	0xb633f728	-2.6816942e-06
25	0xb60aae70	-2.0665138e-06
26	0x3609938f	2.0500481e-06
27	0x351b2bba	5.780563e-07
28	0xb6c941f1	-5.9979434e-06
29	0x361c4395	2.328515e-06
30	0xb5bdf266	-1.4152145e-06
31	0x362abd5e	2.54422e-06
32	0x3723c6c7	9.761839e-06
33	0x36088108	2.0340685e-06
34	0x37d292da	2.5102334e-05
35	0xb70d2549	-8.412936e-06
36	0xb77ac7b4	-1.4947658e-05
37	0x360db22e	2.1114352e-06
38	0xb5fe8279	-1.8962447e-06
39	0x355c2385	8.2008074e-07
40	0x3745cc7a	1.1789723e-05
41	0xb663cc2e	-3.3944484e-06
42	0xb60a51be	-2.0611183e-06
43	0xb584e4ad	-9.90132e-07
44	0x352a3a77	6.341501e-07
45	0xb5afd6a0	-1.310098e-06
46	0xb52c0c3b	-6.409279e-07
47	0xb4ffb60d	-4.762991e-07
48	0x36726cda	3.612417e-06
49	0xb6334723	-2.6714486e-06
50	0x35615db3	8.395538e-07
51	0x3615c994	2.2320064e-06
52	0x367e76ba	3.7918057e-06
53	0xb604761c	-1.9738281e-06
54	0xb6422c43	-2.8934016e-06
55	0x34e7c993	4.3173767e-07
56	0xb691c8d8	-4.344718e-06
57	0xb634a3a6	-2.6917346e-06
58	0x350e7d3a	5.308135e-07
59	0x34c7a9d5	3.7190208e-07
60	0x35a4e83f	1.2286545e-06
61	0xb61b8e2c	-2.3179555e-06
62	0xb5665d7d	-8.581772e-07
63	0x35f39420	1.8148021e-06
64	0x3370b2b3	5.604188e-08
65	0xb573281d	-9.0582927e-07
66	0x35c2f5ee	1.4525701e-06
67	0x3618bc8a	2.275951e-06
68	0xb620ffed	-2.3990826e-06
69	0xb684e94b	-3.9610654e-06
70	0x35b8d5a2	1.3771244e-06
71	0x3568b15d	8.668483e-07
72	0xb5c77b8f	-1.4862616e-06
73	0x32afb7ce	2.0456266e-08
74	0x35e0d8b0	1.6752365e-06
75	0x35ead40a	1.749607e-06
76	0x35ee947f	1.77756e-06
77	0x35c5c748	1.4735642e-06
78	0x35439fe6	7.2875844e-07
79	0x36a47e27	4.902267e-06
80	0xb4b12bb2	-3.3000612e-07
81	0x357fb5bc	9.525936e-07
82	0x350afbe1	5.177554e-07
83	0xb68adc9e	-4.1384037e-06
84	0xb58efb90	-1.0653039e-06
85	0x35031e6a	4.884556e-07
86	0xb4b2e2b9	-3.3320046e-07
87	0x35050307	4.9550766e-07
88	0x357a1fc4	9.317848e-07
89	0x34d3baa8	3.9437623e-07
90	0x33560c3f	4.9836895e-08
91	0x36900155	4.2916895e-06
92	0xb664e930	-3.411038e-06
93	0x333d0ddf	4.4017607e-08
94	0xb41a6cc6	-1.4381939e-07
95	0xb5f18d9b	-1.7997112e-06
96	0x3598704a	1.1357563e-06
97	0xb64d9c9a	-3.0638535e-06
98	0xb70da80a	-8.44338e-06
99	0x36b59335	5.4113575e-06
100	0x3674a53c	3.6455012e-06
101	0x3615a70c	2.2299964e-06
102	0x356e3380	8.873685e-07
103	0x3455522a	1.9867062e-07
104	0xb395a247	-6.967871e-08
105	0x35ba39b0	1.3874869e-06
106	0x35bbf31d	1.4003341e-06
107	0x358abca4	1.0336703e-06
108	0xb6039a36	-1.9610284e-06
109	0x34b9092b	3.4465606e-07
110	0xb6ff0e4a	-7.6012557e-06
111	0x34cd6c35	3.8262957e-07
112	0x36981caf	4.533292e-06
113	0x360086c4	1.915193e-06
114	0x368d79cf	4.216308e-06
115	0x35347823	6.723005e-07
116	0x35a02b21	1.1933481e-06
117	0xb556cc44	-8.001846e-07
118	0x35c09d24	1.4350849e-06
119	0xb5144441	-5.523362e-07
120	0x35a27f99	1.2107076e-06
121	0xb4bae84a	-3.4814212e-07
122	0xb5af6f45	-1.30709e-06
123	0x364d779e	3.0617007e-06
124	0xb5115bb9	-5.4150183e-07
125	0x3694b670	4.4319822e-06
126	0xb63f91e1	-2.854613e-06
127	0x363d6488	2.8221712e-06

encoder.convs.1.nn.0.weight f4 [128, 128]
0	0x3dfd2262	0.123600736
1	0xbdacfe37	-0.08446925
2	0xbcffc7cd	-0.031223202
3	0x3b308898	0.0026936885
4	0x3d57ce9d	0.052687276
5	0xbd33e140	-0.043915987
6	0xbb8d1b10	-0.0043062046
7	0xbd92015d	-0.07129166
8	0xbd9eeabf	-0.07759618
9	0xbd4dc34b	-0.050235074
10	0xbc7609e2	-0.015017005
11	0x3d1f5d91	0.03890759
12	0xbc8e5c4d	-0.017377997
13	0xbd8f03f6	-0.06983177
14	0xbd352912	-0.04422862
15	0x3db9fa25	0.090809144
16	0xbd92a0ae	-0.071595535
17	0xbd27034b	-0.040774625
18	0xbcc07462	-0.023492996
19	0x3dd8ecf9	0.10592074
20	0xbd13b4c9	-0.036061082
21	0x3b950576	0.00454777
22	0x3d4d63ab	0.05014388
23	0x3cacb371	0.021081658
24	0x3dc470e5	0.095918454
25	0x3d9eb588	0.07749468
26	0xbd055b93	-0.032558035
27	0xbd926f11	-0.071500905
28	0x3d338fe3	0.043838393
29	0xbd23f730	-0.04003066
30	0xbc25f6a8	-0.010129608
31	0x3c782084	0.015144471
32	0xbbe5318b	-0.0069944314
33	0xbde5d259	-0.11221761
34	0xbc9ded4d	-0.019278193
35	0xbcc405b0	-0.023928493
36	0x3cd56055	0.026046911
37	0xbc9c6bc4	-0.019094355
38	0x3d65e3cc	0.056125447
39	0x3d0882df	0.033327933
40	0xbdace39b	-0.0844185
41	0x3b351596	0.0027631274
42	0xbdc4ac99	-0.09603233
43	0xbb271b35	-0.0025498394
44	0x3ccb9200	0.024849892
45	0xbd032c93	-0.03202493
46	0x3d97c68b	0.07410916
47	0x3d02c701	0.031928066
48	0x3aa5ecad	0.0012659036
49	0xbe3600ca	-0.17773739
50	0xbd2f91c1	-0.04286361
51	0xbcb18db5	-0.021674016
52	0xbd327932	-0.043572612
53	0x3d7bca42	0.061472185
54	0xbdb2309d	-0.087006785
55	0xbdb2798d	-0.0871459
56	0x3c9178c5	0.017757783
57	0x3c4da91e	0.012552528
58	0xbdd259d7	-0.10271042
59	0xbd733401	-0.059375767
60	0xbc78b482	-0.015179755
61	0x3d06f292	0.032946177
62	0x3db0f78c	0.08640966
63	0x3dd7f79f	0.10545277
64	0xbceea35d	-0.029130632
65	0x3c550e30	0.013003871
66	0x3d8805cf	0.06641733
67	0xbd3412a8	-0.043963104
68	0x3d898f22	0.067167535
69	0x3d6cc2c1	0.05780292
70	0x3dba88e7	0.09108143
71	0x3de9d87c	0.11418244
72	0xbd5626dd	-0.052283157
73	0x3d879a33	0.06621208
74	0xbd8a5a4f	-0.06755506
75	0xbd0e4359	-0.034732196
76	0x3d833e42	0.06408359
77	0x3d171ee9	0.036894713
78	0x3c5cdab0	0.013479874
79	0x3d631984	0.055444255
80	0x3bedb50f	0.00725425
81	0xbbf8ebfe	-0.007596492
82	0xbd484376	-0.04889246
83	0x3d31beb7	0.04339477
84	0xbd11b77c	-0.035575375
85	0xbd30e291	-0.04318482
86	0x3cfab96d	0.030605996
87	0xbc25069d	-0.0100723775
88	0x3ceebe8f	0.0291436
89	0x3d05d3af	0.03267258
90	0xbd18441c	-0.03717433
91	0x3d8310eb	0.06399711
92	0xbd6139b2	-0.054986663
93	0xbca9b6e2	-0.020717088
94	0xbdd596bb	-0.1042914
95	0x3dd80baa	0.105491
96	0x3d92d09a	0.07168694
97	0x3d62cb00	0.055369377
98	0xbe002559	-0.12514247
99	0x3d646358	0.055758804
100	0xbca43fbe	-0.020049926
101	0xbd1f7665	-0.03893127
102	0xbdee29cd	-0.116290666
103	0xbdfa676d	-0.12226758
104	0x3ce4ec31	0.027944656
105	0xbd38ee82	-0.045149334
106	0xbd873a36	-0.066029
107	0xbd811085	-0.06301979
108	0xbc49dafb	-0.012320275
109	0xbda63385	-0.08115295
110	0xbdae66d9	-0.085157104
111	0xbc67975e	-0.01413521
112	0x3da343df	0.0797193
113	0x3e0587f9	0.1304015
114	0x3da91e0e	0.082576856
115	0x3da5d4e8	0.08097249
116	0xbc017d10	-0.007903352
117	0xbc6a6e46	-0.014308518
118	0xbd74245f	-0.059605
119	0xbcff98bc	-0.03120076
120	0x3d3f1407	0.04664996
121	0x3cb41e80	0.0219872
122	0xbc8a7334	-0.016900636
123	0xbca12da5	-0.019675085
124	0xbd83242c	-0.064033836
125	0x3b161ca3	0.0022905252
126	0x3c9b2705	0.018939504
127	0x3c467ff2	0.0121154655
128	0xbd06ddee	-0.032926492
129	0xbbaa7364	-0.005201744
130	0xbd0baf3f	-0.034102675
131	0x3c98e962	0.018665973
132	0xbd3db429	-0.046314392
133	0xbd513b23	-0.051081788
134	0xbb3fa51e	-0.0029242705
135	0x3d207168	0.039170653
136	0x3d5c8fee	0.0538482
137	0xbd697aa5	-0.05700173
138	0xbcca74f8	-0.024713978
139	0xbd94d2be	-0.072667584
140	0x3d32efbe	0.043685667
141	0xbd647fb8	-0.055785865
142	0x3ca99b0b	0.020703813
143	0x3daefe8c	0.08544645
144	0x3d49be3d	0.04925369
145	0x3d320eef	0.043471273
146	0xbd1788c0	-0.03699565
147	0x3d9587d2	0.07301296
148	0xbd89858e	-0.06714927
149	0x3d4768f4	0.048684075
150	0xbcbe3c90	-0.023222238
151	0x3c832405	0.016008386
152	0xbd4b08fb	-0.04956911
153	0xbcc8aead	-0.024497354
154	0xbbd97caf	-0.006637178
155	0x3ac6a2c3	0.0015154708
156	0x3d0154bc	0.03157495
157	0x3c4527aa	0.012033382
158	0x3c42d8a4	0.011892471
159	0xbc72b9b1	-0.01481478
160	0x3cfd3846	0.030910622
161	0x3c8907f6	0.016727429
162	0xbd5f5e66	-0.054533385
163	0xbcf4541d	-0.029825265
164	0xbc5145d4	-0.012772996
165	0xbd6572ed	-0.056017805
166	0x3d2b0ed6	0.041762196
167	0x3cc7b3b3	0.02437768
168	0xbccb0d3b	-0.024786582
169	0xbc97519a	-0.018471528
170	0xbcf1c3ef	-0.029512374
171	0xbccd5fc6	-0.025070082
172	0xbd2ea7c5	-0.042640466
173	0x3d411503	0.04713918
174	0xbd808da3	-0.06277015
175	0xbaf035cd	-0.0018326581
176	0x3d2734f1	0.040821973
177	0xbd6bf273	-0.057604264
178	0x3d0a1653	0.033712696
179	0x3c8ae83a	0.016956437
180	0xbcaaa2fc	-0.02082967
181	0x3ce034ae	0.02736887
182	0x3c0f99bd	0.008764681
183	0xbd5e9173	-0.05433793
184	0xbc911b69	-0.017713265
185	0xbcae10e9	-0.021248298
186	0xbd41d59d	-0.047322858
187	0x3d69adca	0.057050504
188	0x3cbd11bc	0.023079745
189	0x3d1c1f9b	0.03811608
190	0xbd5fa82c	-0.05460374
191	0xbd4ad3b4	-0.049518302
192	0xbd9aad40	-0.07552576
193	0x3d089e7f	0.03335428
194	0x3c96948a	0.018381376
195	0x3c3ec3e9	0.011643388
196	0xbcc9a81f	-0.0246163
197	0xbd956833	-0.07295265
198	0xbbd6051c	-0.006531371
199	0xbc6b1df8	-0.014350407
200	0xbd766581	-0.060155395
201	0xbb8cffe7	-0.004302967
202	0xbd510131	-0.051026527
203	0x3a3cfb00	0.0007209033
204	0x3d26acd0	0.04069215
205	0xbd966f48	-0.07345444
206	0x3d0b0a3b	0.033945303
207	0xbd238d4f	-0.039929684
208	0x3b94ffc8	0.004547093
209	0x3d78c142	0.06073118
210	0xbbe86f54	-0.0070933495
211	0xbda6ccac	-0.08144507
212	0xbd9bd33e	-0.076086506
213	0xbd23fa9e	-0.04003393
214	0xbd98391f	-0.0743277
215	0xbce6b617	-0.028163
216	0x3dbf6bf4	0.09346762
217	0x3d22beb9	0.03973267
218	0xbdb4cd52	-0.08828224
219	0x3d9c1712	0.07621588
220	0xbd21a1ea	-0.039461054
221	0x3cf41802	0.029796604
222	0xbd00678d	-0.031348754
223	0xbd9e2eab	-0.07723745
224	0x3c9ef186	0.019402277
225	0xbd442324	-0.047885075
226	0xbd8c07a5	-0.068373956
227	0xbc4355f0	-0.011922345
228	0xbd9545de	-0.07288717
229	0x3c7ee8c4	0.015558425
230	0x3c31ee66	0.010860061
231	0xbd8498f4	-0.06474486
232	0xbd78f9d5	-0.060785133
233	0x39bc1071	0.00035870404
234	0x3d741204	0.059587494
235	0x3c84b1cd	0.016198063
236	0xbd6d0438	-0.05786535
237	0xbcd1de62	-0.025618736
238	0xbcad4ae6	-0.021153878
239	0xbd15bde5	-0.03655805
240	0xbce0214f	-0.027359633
241	0x3cf3835d	0.029725725
242	0xbd11fcb8	-0.035641402
243	0xbd658b08	-0.056040794
244	0x3c340fea	0.010990122
245	0xbcca34d3	-0.024683392
246	0x3cda28c1	0.026630761
247	0xbd42f25f	-0.047594424
248	0x3bf47969	0.0074607623
249	0xbd9786d2	-0.07398762
250	0x3d48110e	0.04884439
251	0x3d4dbcf2	0.05022902
252	0x3d1ca372	0.03824181
253	0xbcff1b23	-0.03114087
254	0x3d3cd2c1	0.046099428
255	0xbd44d355	-0.048053104

encoder.convs.1.nn.0.bias f4 [128]
0	0x3d791ca1	0.06081832
1	0xbd64dabe	-0.05587267
2	0x35814231	9.630513e-07
3	0xbbffa375	-0.007801468
4	0x3ce8a29c	0.02839785
5	0xbcfbc6e2	-0.030734483
6	0x3dffbe6f	0.12487494
7	0xbd6b2a1e	-0.057413213
8	0x3c34f165	0.011043881
9	0xbcf4145a	-0.02979486
10	0xbbb64347	-0.0055622193
11	0xbc6805d2	-0.014161544
12	0xbc6576e0	-0.014005393
13	0x3d42beae	0.047545128
14	0xbd144c21	-0.036205415
15	0xbd5dcee8	-0.0541524
16	0x3d11ffb7	0.03564426
17	0xbd4583c0	-0.04822135
18	0xbda05d19	-0.07830257
19	0xbd1a516f	-0.037675317
20	0x3a9e70bf	0.0012088044
21	0x3d3f5059	0.046707485
22	0xbd523570	-0.051320493
23	0x3c614ee6	0.013751721
24	0xbc46be74	-0.0121303685
25	0xbcbc2d6e	-0.022970881
26	0xbd4cf543	-0.050038587
27	0xb61e981f	-2.363238e-06
28	0x3d1993c4	0.037494436
29	0xbd1438c0	-0.036186934
30	0xbbe12d4e	-0.006871856
31	0xbc548813	-0.012971896
32	0x3b4880b8	0.00305943
33	0xbcd6d373	-0.026223874
34	0xbd8440fa	-0.06457706
35	0xbc5a8f94	-0.013339896
36	0x3d401559	0.04689536
37	0xbd5cf771	-0.053946916
38	0x3e01d3e3	0.12678485
39	0x3c9120f4	0.017715909
40	0xbd20a734	-0.039221957
41	0xbd2b40d5	-0.041809876
42	0xbcea6d23	-0.028616494
43	0x3cf0dfa8	0.029403523
44	0x3cb648af	0.022251455
45	0x3c4b0a63	0.012392613
46	0x3aa5b729	0.0012643087
47	0x3da6f780	0.08152676
48	0xbcb8e873	-0.022571778
49	0xbd85b600	-0.06528854
50	0x3cb0be33	0.021575069
51	0x3d80992a	0.06279214
52	0x3d2a4d7e	0.04157781
53	0xbd960657	-0.07325428
54	0x3da48dfd	0.080348946
55	0xbd8c8592	-0.06861414
56	0x3c79de35	0.015250732
57	0x3d27d729	0.040976677
58	0x3dcd79ae	0.10032974
59	0xbc222f90	-0.009899035
60	0x3bd3741b	0.00645305
61	0x3b042013	0.002016072
62	0xbcca49ef	-0.024693457
63	0xbcf28a5b	-0.029606989
64	0xbd9228bb	-0.07136675
65	0xbb8bba4f	-0.004264153
66	0x3d857fcf	0.06518518
67	0x3da0d874	0.07853785
68	0x3c0c773a	0.008573348
69	0x3dcc4080	0.0997324
70	0x3ba3ccb1	0.0049987664
71	0x3c92c5f8	0.017916664
72	0xbc40e129	-0.011772432
73	0x3d13274b	0.035926145
74	0x3cf67581	0.030085327
75	0xbd5d6478	-0.054050893
76	0x3cbddbd0	0.023176104
77	0xbd062e43	-0.032758962
78	0xbd2eae34	-0.0426466
79	0x3c9d3983	0.019192463
80	0x3d9eb0f5	0.077485956
81	0xbd129744	-0.03578879
82	0x3d329873	0.04360242
83	0x3cbec6f5	0.02328823
84	0xbd2a33de	-0.04155337
85	0xbc1b9dc9	-0.009498068
86	0xbd2f6e32	-0.0428297
87	0xbd64a4f4	-0.055821374
88	0x3ca49da0	0.020094693
89	0x3c3ac9fe	0.011400698
90	0x3d6eb396	0.058276735
91	0xbd14b2ce	-0.036303334
92	0x3d6883c4	0.056766286
93	0x3c209641	0.009801448
94	0xbcc3ceb3	-0.023902273
95	0x3da83f95	0.08215252
96	0xbbc52285	-0.006016078
97	0x3ca598ac	0.020214401
98	0x3dc55f67	0.09637337
99	0x3d3841f8	0.044984788
100	0x3d365fc1	0.04452491
101	0x3de21a1b	0.110401355
102	0xbbe6433b	-0.0070270575
103	0xbc872f0c	-0.016501926
104	0xba63117c	-0.0008661968
105	0x3cf6e89a	0.03014021
106	0xbd711906	-0.058861755
107	0xbd7ffa37	-0.062494483
108	0xbcd253a1	-0.025674643
109	0x3dc796ad	0.09745536
110	0x3b4e0eae	0.0031441855
111	0x3cb88dfb	0.022528639
112	0x3d05ba7c	0.03264855
113	0xbd016e78	-0.03159949
114	0x3d21337b	0.039355736
115	0x3d88122b	0.0664409
116	0x3d806b41	0.06270457
117	0x3ac2b0fa	0.0014853769
118	0x3d395108	0.045243293
119	0xbd81c983	-0.063372634
120	0x3c2c2846	0.010507649
121	0xbd398c68	-0.045299917
122	0x3d60979a	0.05483208
123	0x3d93e687	0.07221704
124	0xbd5a8106	-0.053345703
125	0x3d4fce7a	0.05073402
126	0xbc6cb1e3	-0.014446708
127	0xbcee21a2	-0.029068772

encoder.convs.1.nn.2.weight f4 [128, 128]
0	0x3cc4f756	0.02404372
1	0xbd06659b	-0.032811742
2	0x3d41fbe4	0.047359362
3	0xbca4348c	-0.020044588
4	0x3d6140a6	0.054993294
5	0xbc429751	-0.011876897
6	0xbd7d6f7f	-0.06187391
7	0xb8632c53	-5.4162298e-05
8	0x3d4f3126	0.05058398
9	0x3c0b7ed0	0.008514121
10	0x3d9f4032	0.07775916
11	0x3c3d4cc8	0.011553951
12	0xbd738640	-0.059454203
13	0xbda8eefe	-0.08248709
14	0xbdadddc5	-0.08489565
15	0xbb14a39e	-0.0022680531
16	0x3d60f067	0.054916766
17	0xbc7366ea	-0.01485608
18	0x3d206d74	0.039166883
19	0xbb3c2235	-0.0028706912
20	0x3d82be75	0.06383983
21	0xbdc9dc0b	-0.09856423
22	0xbc0d5b59	-0.008627736
23	0xbc3d9e74	-0.011573423
24	0xbcf03bbf	-0.029325364
25	0xbce7db88	-0.028302923
26	0xbcf064a0	-0.029344857
27	0x35256935	6.1620386e-07
28	0xbdb3b1ea	-0.08774169
29	0xbe095d26	-0.1341444
30	0xbaa774c5	-0.0012775889
31	0x3d7d88fa	0.06189821
32	0xbd742396	-0.05960425
33	0x3d395e45	0.045255918
34	0xbd80d234	-0.06290093
35	0x3b9277f9	0.0044698683
36	0xbc6ec9ce	-0.014574481
37	0xbc4db757	-0.012555919
38	0xbb7cbce3	-0.0038564734
39	0xbd06ba46	-0.032892488
40	0xbd31dcaa	-0.043423332
41	0xbc937c9a	-0.01800375
42	0xbc9c4fac	-0.01908096
43	0x3badce7b	0.0053041554
44	0x3c1017bd	0.008794722
45	0xbc759265	-0.014988516
46	0xbcf6f81c	-0.030147605
47	0x3d25af60	0.040450454
48	0x3cd389ba	0.02582251
49	0x3da79c87	0.08184152
50	0x3d0d10d6	0.034439884
51	0xbdafe641	-0.08588839
52	0xbcb966db	-0.022632053
53	0x3d9651ba	0.07339807
54	0xbd851bf9	-0.06499476
55	0xbbfb402f	-0.0076675634
56	0xbdd4b2bb	-0.10385653
57	0xbd8fc16e	-0.07019316
58	0x3dfa19c3	0.12211945
59	0xbc178bff	-0.009249686
60	0xbc1fd6ed	-0.009755832
61	0xbcad2079	-0.021133648
62	0x3c4a63fd	0.012352941
63	0xbdf5a225	-0.11993817
64	0x3cb4864d	0.022036696
65	0xbde2e179	-0.11078162
66	0x3d274719	0.04083929
67	0x3cf7d1b3	0.03025136
68	0xbd205cb6	-0.039150916
69	0xbc3ebd7e	-0.011641858
70	0xbd1db193	-0.038499426
71	0xbdbf5ac2	-0.093434826
72	0x3cb4f08a	0.022087354
73	0x3da2e58d	0.079539396
74	0x3d3b4824	0.045723096
75	0xbb92c432	-0.0044789547
76	0x3d10721f	0.035265084
77	0x3d3362a0	0.043795228
78	0xbd7f29f0	-0.062295854
79	0xbe25cc3f	-0.16191195
80	0xbc2a33b7	-0.010388306
81	0x3d304737	0.043036666
82	0x3cd2a1d0	0.025711924
83	0x3d491a5a	0.049097396
84	0x3cc55f04	0.024093159
85	0xbd65f4ea	-0.05614177
86	0x3d339d2b	0.04385106
87	0xbd1380d3	-0.03601153
88	0x3b3d17b3	0.0028853237
89	0xb9aa1bf2	-0.00032445748
90	0xbd86459e	-0.06556247
91	0xbadc6662	-0.001681518
92	0xbc6ccb21	-0.014452727
93	0xbdaae0d3	-0.08343663
94	0xbd0e3dd6	-0.03472694
95	0x3cac57da	0.021037985
96	0x3cb64e22	0.022254054
97	0xbd4ceb25	-0.05002894
98	0xbd82ff99	-0.06396408
99	0xbcf9ca7d	-0.030492062
100	0x3d88f809	0.06687934
101	0xbd357fe8	-0.044311434
102	0xba6b9548	-0.0008986783
103	0xbcd51dac	-0.026015125
104	0xbab9aa9d	-0.0014165227
105	0x3c98e343	0.018663054
106	0xbd283249	-0.04106358
107	0xbcca8b82	-0.024724726
108	0x3d045845	0.032310743
109	0x3d739f88	0.059478313
110	0x3d03b528	0.032155186
111	0x3c0ae8a3	0.0084783165
112	0x3ba48c1f	0.0050215865
113	0xbd3c0f8f	-0.045913275
114	0xbc953f23	-0.018218582
115	0xbcf3d46c	-0.029764377
116	0xbd4fdbe0	-0.0507468
117	0x3c4ae131	0.012382791
118	0x3d2977d7	0.041374054
119	0x3d75989a	0.059959985
120	0x3c619de0	0.0137705505
121	0xbd2bfdb4	-0.041989997
122	0x3ce480cb	0.027893445
123	0xbd894da6	-0.067042634
124	0x3d497860	0.049187064
125	0xbbc98369	-0.0061496985
126	0x3d7bfb6c	0.06151907
127	0x3c92a19c	0.017899327
128	0xbca2179b	-0.019786647
129	0xbd9a5fed	-0.07537828
130	0x3cec7063	0.028862184
131	0x3d02da14	0.031946257
132	0xbd720342	-0.05908514
133	0x3d510ff5	0.05104061
134	0xbc322da9	-0.010875144
135	0xbcbf4cb4	-0.023352005
136	0x3b993620	0.0046756417
137	0x3d8f0c25	0.06984738
138	0xbd722347	-0.059115674
139	0xba66999b	-0.0008796693
140	0xbd965a76	-0.07341473
141	0xbd6b0e1d	-0.057386506
142	0x3d6ee791	0.058326308
143	0x3cede7db	0.029041221
144	0x3d29f741	0.041495565
145	0xbc666d41	-0.014064134
146	0x3cede7de	0.029041227
147	0xbc4438f2	-0.011976467
148	0xbd81ce69	-0.06338198
149	0x3d5bf652	0.053701706
150	0xbd8ed3aa	-0.069739655
151	0x3d01afd6	0.03166183
152	0x3cc6be34	0.024260618
153	0xbd334329	-0.04376522
154	0x3cdc747e	0.026911017
155	0xb5d6fc77	-1.6017719e-06
156	0xbc0cf8b6	-0.008604219
157	0xbbfb0005	-0.0076599144
158	0x3d16ac2a	0.036785282
159	0x3d983534	0.07432023
160	0x3d1dbe63	0.038511645
161	0xbd416546	-0.047215723
162	0x3daa6bfe	0.08321379
163	0x3dde7c9f	0.10863613
164	0xbc6f3be2	-0.0146016795
165	0xbd02bbd6	-0.031917416
166	0x3d494eea	0.049147524
167	0xbd92b01f	-0.07162499
168	0x3c34c388	0.011032946
169	0x3d4d055f	0.05005395
170	0x3a033069	0.0005004467
171	0x3d414f4f	0.047194775
172	0x3c841fd4	0.016128458
173	0xbd4a2650	-0.049352944
174	0x39c3fa59	0.00037379822
175	0x3d39aabc	0.04532884
176	0x3dd1bdbf	0.10241269
177	0xbcb0df0e	-0.021590736
178	0xbd3da85b	-0.046303134
179	0x3dac3b41	0.08409739
180	0x3d8265cd	0.06367073
181	0x3c9ae6f6	0.018908959
182	0x3bfb8cd0	0.0076766983
183	0x3dc9112c	0.098177284
184	0x3d0a8e69	0.03382722
185	0x3b034ff1	0.0020036662
186	0x3cfdc212	0.030976329
187	0xbaa6e2fd	-0.0012732443
188	0xbd27c00d	-0.04095464
189	0xbd3f7a86	-0.046747707
190	0x3d19aa6e	0.03751605
191	0x3da44e50	0.080227494
192	0xbc28d1d9	-0.010303938
193	0x3dcad6ab	0.09904226
194	0xbd41dc6a	-0.047329344
195	0x3cb5b985	0.02218319
196	0xba2e19ba	-0.0006641407
197	0xbc1b1826	-0.009466207
198	0xba486a1d	-0.00076452066
199	0xbd744f8e	-0.05964618
200	0xbd5bea26	-0.0536901
201	0x3bdde00b	0.006771093
202	0x3c579e41	0.013160289
203	0xbbd0a2a2	-0.0063670436
204	0x3d9c4c27	0.076317124
205	0x3dcc79fc	0.09984204
206	0xbcdf3b14	-0.02724985
207	0xbd84c77e	-0.064833626
208	0xbd2a1a84	-0.041529194
209	0x3be67ff8	0.007034298
210	0xbd54bcf6	-0.05193802
211	0x3dbd99d9	0.0925786
212	0xbd2da964	-0.04239787
213	0xbd0d489b	-0.03449307
214	0x3d469238	0.04847929
215	0x3d96b35a	0.07358427
216	0x3d37534a	0.044757165
217	0xbc5ba146	-0.01340515
218	0xbce7d273	-0.028298592
219	0xb930d3fb	-0.00016863637
220	0x3dd4a11e	0.10382293
221	0x3ca9a59c	0.020708852
222	0xbce2f575	-0.027704934
223	0x3ddea336	0.10870974
224	0x3d0df7aa	0.03466002
225	0x3d1bd2d8	0.038042873
226	0xbd277366	-0.040881537
227	0x3c8bd065	0.017067144
228	0x3dd51751	0.10404838
229	0xbda052d1	-0.07828296
230	0xb9166f78	-0.0001434664
231	0x3d7dcbcc	0.061961934
232	0x39d61c61	0.00040838405
233	0x3d2b2d50	0.04179126
234	0xbc3d208a	-0.011543402
235	0x3d142575	0.036168534
236	0xbd57edd0	-0.05271703
237	0x3c459554	0.012059528
238	0x3c08050a	0.008301983
239	0x3d247bfe	0.04015731
240	0xbd800770	-0.062514186
241	0xbd472a7a	-0.048624493
242	0x3d0e9ec8	0.034819394
243	0xbd741e4d	-0.05959921
244	0xbda1e1b3	-0.07904377
245	0x3dd6988e	0.10478316
246	0xbcdfcc28	-0.027319029
247	0xbd4bc80f	-0.049751338
248	0x3d86ad38	0.065760076
249	0xbc289cbc	-0.010291275
250	0x3b8b549e	0.0042520305
251	0x3cc5f84f	0.024166254
252	0xbcc18500	-0.02362299
253	0x3d15fed9	0.036619995
254	0xbc7f2ceb	-0.015574674
255	0x3d1aa375	0.03775354

encoder.convs.1.nn.2.bias f4 [128]
0	0xb5df5d08	-1.664187e-06
1	0xb42ef062	-1.6292464e-07
2	0xb4eaa3ae	-4.370499e-07
3	0xb61edda2	-2.3672842e-06
4	0x3576ca57	9.1936585e-07
5	0x3669e8e1	3.485526e-06
6	0x3410177f	1.3419593e-07
7	0x347f13b2	2.3755891e-07
8	0xb69f5eed	-4.74962e-06
9	0xb43c9bc3	-1.756553e-07
10	0x34beb2dd	3.5520398e-07
11	0xb3e954cb	-1.0865332e-07
12	0xb4c6136c	-3.6894505e-07
13	0xb5afadc4	-1.3089088e-06
14	0xb535ede3	-6.7773925e-07
15	0x3549c534	7.5165303e-07
16	0x34e1b0e5	4.2038224e-07
17	0xb48c9d14	-2.6191321e-07
18	0xb5c6e769	-1.4819499e-06
19	0x35822c31	9.698616e-07
20	0x3340e229	4.4909175e-08
21	0x35ddba21	1.6519954e-06
22	0xb62c9b75	-2.5720485e-06
23	0x338f93de	6.685853e-08
24	0xb3f7c59c	-1.1537779e-07
25	0xb4c58c19	-3.6796044e-07
26	0xb5574264	-8.019035e-07
27	0xb5944528	-1.1046986e-06
28	0xb4d0957d	-3.8851786e-07
29	0xb5097085	-5.1200215e-07
30	0xb560bb77	-8.37193e-07
31	0xb54fb56c	-7.737751e-07
32	0xb5d0e05c	-1.5562505e-06
33	0x343901db	1.7230143e-07
34	0x3428ae57	1.5709644e-07
35	0xb61d0024	-2.3394905e-06
36	0xb357dc7f	-5.025913e-08
37	0xb4a4910a	-3.065291e-07
38	0xb5953af6	-1.1118525e-06
39	0xb4f2f84e	-4.5256678e-07
40	0xb695f84a	-4.4694507e-06
41	0x355fb624	8.3339023e-07
42	0xb5ad71ff	-1.2922682e-06
43	0xb5130501	-5.476905e-07
44	0x36f82afc	7.39598e-06
45	0xb643a166	-2.915121e-06
46	0x35b8e877	1.3776724e-06
47	0x360f691d	2.1369844e-06
48	0xb512acf4	-5.464092e-07
49	0xb5ca4017	-1.5068825e-06
50	0x3578b4a0	9.2650043e-07
51	0x3580ba3c	9.590945e-07
52	0x35cc0ca0	1.5202859e-06
53	0x3450ed35	1.9457805e-07
54	0x35576fcb	8.025642e-07
55	0x349cfc56	2.9240863e-07
56	0xb513bd69	-5.5037395e-07
57	0xb49e8a85	-2.953058e-07
58	0xb57e1d40	-9.466494e-07
59	0xb4e1710b	-4.1991765e-07
60	0x33604901	5.222046e-08
61	0x3530ae0f	6.58184e-07
62	0xb32def09	-4.0497103e-08
63	0x35ac9798	1.2859118e-06
64	0xb5f00b1d	-1.7884628e-06
65	0x350b6dec	5.194149e-07
66	0xb593f657	-1.1024048e-06
67	0x349ca8c6	2.9180063e-07
68	0x34d4f65f	3.9667336e-07
69	0xb62dd5e2	-2.5903505e-06
70	0xb5d2950a	-1.5689595e-06
71	0x335c16d2	5.1243497e-08
72	0x3405845f	1.2434747e-07
73	0xb70a2f65	-8.236476e-06
74	0x34a3d880	3.051864e-07
75	0x353a19b5	6.932781e-07
76	0x34d17cfc	3.9020222e-07
77	0xb5059863	-4.976811e-07
78	0xb6866ac8	-4.005942e-06
79	0xb55da8c1	-8.2574485e-07
80	0x351ac1b1	5.765133e-07
81	0xb500e2bb	-4.801365e-07
82	0xb4e761b0	-4.309818e-07
83	0xb4ade857	-3.239281e-07
84	0x341f0154	1.4808512e-07
85	0xb5572f70	-8.016277e-07
86	0xb3df9630	-1.0411566e-07
87	0xb621b4db	-2.4096141e-06
88	0x35843b77	9.852073e-07
89	0xb4298046	-1.5786017e-07
90	0xb58dd776	-1.0568026e-06
91	0x34edd5ec	4.430034e-07
92	0x33b52aa3	8.436225e-08
93	0x35169aa7	5.6104403e-07
94	0xb52e72f9	-6.498736e-07
95	0x353da1f0	7.0643637e-07
96	0x34fc2803	4.696777e-07
97	0x359bee01	1.1617668e-06
98	0x349789be	2.8226162e-07
99	0xb57ab871	-9.3400655e-07
100	0x36829c91	3.8925286e-06
101	0x35982267	1.1334895e-06
102	0xb583995f	-9.804897e-07
103	0x3603ef22	1.9659715e-06
104	0xb5aa855f	-1.2704803e-06
105	0xb54c9c19	-7.6223074e-07
106	0xb6174b62	-2.2544632e-06
107	0x366e536b	3.551332e-06
108	0xb5109a08	-5.3868325e-07
109	0xb4b406ba	-3.3532507e-07
110	0xb487f3ff	-2.532324e-07
111	0x351bc2a0	5.8025216e-07
112	0x353896ad	6.8764604e-07
113	0x3559c529	8.1125705e-07
114	0xb5fc3d6f	-1.8793343e-06
115	0x33342cf3	4.1950397e-08
116	0xb600a2b2	-1.9168187e-06
117	0xb6433aee	-2.9091566e-06
118	0x339d3729	7.320916e-08
119	0x340114a6	1.2021573e-07
120	0x35f9188a	1.8559087e-06
121	0x34982667	2.8340148e-07
122	0xb3c9ddce	-9.400138e-08
123	0x35051059	4.957015e-07
124	0x3384b2d2	6.179256e-08
125	0x34efda25	4.467594e-07
126	0xb53ebd94	-7.105639e-07
127	0x35ea8174	1.7472034e-06

encoder.convs.2.nn.0.weight f4 [128, 128]
0	0xbd81e979	-0.063433595
1	0x3c8b3734	0.016994096
2	0xbd489a3c	-0.048975214
3	0x3db88e3e	0.090115055
4	0x3d1211d3	0.03566153
5	0x3db2a911	0.08723653
6	0xbcff5dd6	-0.031172674
7	0x3cf4f1b0	0.029900402
8	0x3da9f8fe	0.082994446
9	0xbd74c073	-0.059753846
10	0xbc846647	-0.01616205
11	0xbd74e9b1	-0.059793178
12	0xbbf08bd3	-0.007340887
13	0x3d8e0abc	0.06935641
14	0x3d262c70	0.040569723
15	0x3ce3f301	0.027825834
16	0xbba3ef9b	-0.0050029284
17	0xbc097ab7	-0.008391074
18	0xbcf6266e	-0.030047622
19	0xbd186a27	-0.03721061
20	0x3dcc1c13	0.09966292
21	0xbd2140c3	-0.039368402
22	0x3d911a43	0.07085087
23	0xbd0cad7d	-0.03434514
24	0xbd5012d3	-0.050799202
25	0xbb5e76f4	-0.0033945413
26	0x3cb1e63c	0.02171623
27	0xbd793178	-0.060838193
28	0xbda34550	-0.07972205
29	0xbcbe776b	-0.023250302
30	0x3bac334b	0.005255138
31	0x3cc2b916	0.023769896
32	0xbd1de202	-0.038545616
33	0x3d9e2752	0.077223435
34	0xbd8fd153	-0.07022347
35	0x3ddc7c52	0.107659
36	0xbcb10b99	-0.021611976
37	0xbca49059	-0.020088362
38	0xbd2b6dc7	-0.04185274
39	0x3d0d215a	0.034455635
40	0x3cc89c31	0.02448854
41	0x3d52cdd9	0.051465843
42	0x3d90688e	0.07051192
43	0xbd6ec3af	-0.058292087
44	0x3d420626	0.047369145
45	0x3c8409c6	0.016117942
46	0xbd4b2c60	-0.049602866
47	0x3c85714d	0.016289378
48	0x3cc1654f	0.023607878
49	0xbd440888	-0.0478597
50	0x3d2be889	0.04196981
51	0xbd90bae5	-0.07066897
52	0xbcff668e	-0.031176832
53	0xbd16863b	-0.036749106
54	0x3de745ca	0.11292608
55	0x3c5b43c5	0.013382857
56	0x3ddf10a2	0.10891844
57	0xbc6c1999	-0.0144104
58	0xbd85d7a5	-0.065352716
59	0xbd434b4b	-0.047679227
60	0xbd8031d9	-0.06259508
61	0xbd0644b8	-0.03278038
62	0xbd267100	-0.04063511
63	0x3cfb7999	0.03069763
64	0xbc322579	-0.010873192
65	0x3d6a847a	0.057255246
66	0x3d6e6a71	0.05820698
67	0x3cc6d8f4	0.024273373
68	0x3db2d25d	0.0873153
69	0xbc98588b	-0.018596908
70	0x3d3fe99b	0.046853643
71	0xbd946f0c	-0.07247743
72	0x3d2bf644	0.041982904
73	0x3d316e63	0.043318164
74	0xbd3b4b5c	-0.045726165
75	0xbd0b1772	-0.033957906
76	0xbbac4e3f	-0.005258351
77	0x3d8620f0	0.06549251
78	0x3cbcbad6	0.023038309
79	0xbd80d93d	-0.06291435
80	0xbdba02e2	-0.09082581
81	0xbcb72d55	-0.022360483
82	0xbac31aaa	-0.0014885266
83	0x3cb8fd56	0.022581737
84	0x3d85d231	0.065342315
85	0x3d3066a2	0.04306663
86	0x3da51a04	0.08061603
87	0xbd93f89c	-0.07225153
88	0xbd607ceb	-0.05480663
89	0xbd35efcd	-0.044418145
90	0x3d53b790	0.05168873
91	0x3d5df4a2	0.05418838
92	0x3d0cc26f	0.034365114
93	0x3a976594	0.0011550658
94	0xbcffc854	-0.031223454
95	0xbbffae8f	-0.0078027914
96	0x3db48abb	0.08815523
97	0xbce74863	-0.028232759
98	0x3c8593b7	0.016305787
99	0x3d6a96eb	0.057272833
100	0x3d550957	0.05201086
101	0x3caea341	0.02131808
102	0x3d3f32f1	0.04667944
103	0xbc32181d	-0.010870007
104	0xbdbb6d86	-0.09151749
105	0x3d4c320b	0.049852412
106	0xbd14ff37	-0.036376204
107	0x3c8d8724	0.017276354
108	0xbdb890dd	-0.090120055
109	0xbd698677	-0.057013
110	0xbc0fb0df	-0.008770197
111	0xb93901ee	-0.00017643694
112	0xbd4cb50a	-0.04997734
113	0x3d4ef32d	0.05052488
114	0x3c9bf5e6	0.019038152
115	0xbcf1906c	-0.029487811
116	0x3be93235	0.007116581
117	0xbc91a182	-0.017777208
118	0x3dc1dafa	0.094655946
119	0x3c034ad9	0.008013451
120	0xbd0b3e0d	-0.033994723
121	0x3d17b296	0.037035547
122	0xbd562091	-0.05227715
123	0xbcb6601f	-0.022262631
124	0xbc511890	-0.012762204
125	0xbd0288fd	-0.031868923
126	0xbc337652	-0.010953503
127	0x3d59cf75	0.053176362
128	0x3dc0684b	0.09394892
129	0x3d3db455	0.046314556
130	0x3db1086b	0.08644184
131	0x3d82dca8	0.06389743
132	0xbc9947b7	-0.018710954
133	0xbca58a6d	-0.020207608
134	0xbde13d22	-0.10997988
135	0xba72e2a3	-0.0009265339
136	0x3c97eeaa	0.018546421
137	0xbda6f04c	-0.08151302
138	0xbcc22eed	-0.023704017
139	0x3da05a74	0.078297526
140	0x3cdc4ff8	0.0268936
141	0x3d9e9116	0.07742517
142	0xbc8d84c3	-0.01727522
143	0x3d70245b	0.05862842
144	0x3c10cc2a	0.008837739
145	0x3d68db5e	0.05684983
146	0xbd8591e9	-0.06521971
147	0x3dd06096	0.10174672
148	0x3de96cdc	0.113977164
149	0xbde37a81	-0.1110735
150	0x3d9d6439	0.076851316
151	0x3dd1d1b4	0.10245076
152	0x3d7e56f1	0.062094633
153	0xbda7a980	-0.081866264
154	0x3be31225	0.006929653
155	0x3d4bf11d	0.04979049
156	0x3d8ac0c1	0.06775046
157	0x3bff282c	0.0077867713
158	0xbde6be0f	-0.112667195
159	0xbbe93ca6	-0.0071178256
160	0xbcc27066	-0.023735236
161	0xbdba9549	-0.09110505
162	0xbcc88faf	-0.024482576
163	0xbbb8a2bf	-0.005634635
164	0x3d948b8b	0.07253178
165	0x3c202a90	0.009775773
166	0xbdcecb1e	-0.10097335
167	0x3dbb2951	0.0913874
168	0x3dbfab89	0.093588896
169	0x3dbcee1f	0.092251055
170	0xbe065a62	-0.13120416
171	0xbdbfe5c7	-0.093699984
172	0xbd789513	-0.060689043
173	0xbcdd22dd	-0.026994163
174	0x3d824468	0.06360704
175	0x3df23957	0.11827343
176	0x3d1d03ee	0.038333826
177	0xbd28f7e3	-0.04125203
178	0x3dbab0ad	0.091157295
179	0x3c7cdd89	0.0154336775
180	0xbd2dd50a	-0.042439498
181	0xbdd3b719	-0.103376575
182	0xbb8b9613	-0.0042598336
183	0xbd11fd8a	-0.035642184
184	0x3c87e762	0.016589824
185	0xbc41fb65	-0.011839722
186	0x3d1b7c94	0.037960604
187	0xbdc747a0	-0.09730458
188	0xbcceda1c	-0.025250487
189	0xbdb6e96c	-0.089312404
190	0xbdb7cb50	-0.08974326
191	0xbd8238f9	-0.06358523
192	0xbdf08f67	-0.11746102
193	0xbcea528c	-0.028603815
194	0x3cffd953	0.031231558
195	0xbd1e966d	-0.038717676
196	0xbc9d97d5	-0.019237438
197	0x3e1039cf	0.14084552
198	0x3d064314	0.032778814
199	0x3de348b4	0.110978514
200	0x3c9d847a	0.019228209
201	0x3e0c4100	0.1369667
202	0x3de10f68	0.10989267
203	0x3c2b2a33	0.010447073
204	0xbd48c23a	-0.049013354
205	0x3e012239	0.12610711
206	0xbcafaad9	-0.021443771
207	0x3cd91520	0.026499331
208	0xbd7a86d4	-0.06116374
209	0xbc15ee39	-0.009151035
210	0xbdab9057	-0.0837714
211	0x3be3dda9	0.006953914
212	0x3da8c3aa	0.08240445
213	0x3e2ed39e	0.17072913
214	0xbd50b458	-0.05095324
215	0x3d41c7af	0.047309574
216	0xbcc87b3a	-0.024472822
217	0xbceba006	-0.028762829
218	0x3d9bad5f	0.07601427
219	0xbd258699	-0.040411565
220	0xbe01f5ac	-0.12691373
221	0x3b7c4cc0	0.0038497895
222	0x3ce2e560	0.027697265
223	0xbb1af7b8	-0.0023646187
224	0x3cb6753f	0.022272704
225	0x3d41a92d	0.04728048
226	0x3d83b049	0.06430108
227	0xbbdf58aa	-0.0068159895
228	0x3c78cb56	0.015185198
229	0xbdbfac1c	-0.09358999
230	0x3de8a3ec	0.113593906
231	0x3da3551b	0.07975217
232	0x3ce114eb	0.027475795
233	0x3d5314a0	0.05153334
234	0x3da66480	0.081246376
235	0xbcdcdeb0	-0.026961654
236	0xbde5069b	-0.111829005
237	0x3de6b725	0.11265401
238	0xbd27b5f8	-0.040945023
239	0xbdb48917	-0.0881521
240	0xbdd51942	-0.10405208
241	0xbb617822	-0.003440388
242	0x3d399476	0.0453076
243	0x3c445fe1	0.01198575
244	0x3b679b39	0.0035340323
245	0x3de856aa	0.11344655
246	0x3da6b059	0.081391044
247	0xbd3829ed	-0.04496186
248	0xbd4c1cd2	-0.049832173
249	0xbcd09963	-0.025463765
250	0x3b3e2a9d	0.0029017099
251	0x3d933c08	0.071891844
252	0x3df3d248	0.11905342
253	0x3c148dde	0.009067027
254	0x3db3b8da	0.08775492
255	0xbd14f059	-0.036362026
