joinrank/models/ranker_v4_plans/final_model.pt (torch, 812451 bytes, 33 tensors)

encoder.convs.0.nn.0.weight f4 [128, 64]
0.10525509 0.041578032 0.0060808295 0.03175012 -0.02163326 -0.124295 -0.07231316 0.12860021
-0.05690615 0.15088104 -0.14865479 0.07272519 4.96386e-40 -5.04738e-40 5.67603e-40 5.08493e-40
4.98447e-40 5.05137e-40 -5.08932e-40 -4.93145e-40 4.91043e-40 4.91766e-40 -5.71237e-40 -5.44871e-40
5.35892e-40 4.91801e-40 5.26487e-40 5.29499e-40 -5.01027e-40 -4.93749e-40 -5.0424e-40 4.93024e-40
-4.955e-40 -5.29579e-40 -6.23614e-40 5.48416e-40 -4.90976e-40 -5.31172e-40 5.05112e-40 5.03576e-40
4.92598e-40 5.29254e-40 -5.08514e-40 -5.16723e-40 4.98558e-40 4.96951e-40 4.98921e-40 5.0017e-40
4.97702e-40 5.03635e-40 5.47427e-40 -5.10108e-40 5.08634e-40 4.92842e-40 -5.09965e-40 5.05715e-40
-4.94377e-40 -4.99657e-40 5.04302e-40 5.28322e-40 5.11852e-40 -5.21087e-40 4.9859e-40 4.98844e-40
0.15159792 0.08976935 -0.017822322 -0.10660671 -0.022313556 0.014432532 0.048267134 0.08714247
0.030888584 -0.002523554 -0.034594852 0.08527881 -5.04416e-40 -5.04784e-40 4.99363e-40 5.31291e-40
-5.0801e-40 -5.02172e-40 -5.83665e-40 4.9075e-40 -5.09914e-40 5.00209e-40 -4.93343e-40 6.04478e-40
-5.24217e-40 -4.91145e-40 5.0057e-40 -4.96765e-40 -5.40335e-40 -4.94563e-40 -5.32247e-40 -4.96777e-40
5.18698e-40 5.91653e-40 -4.94738e-40 4.9776e-40 6.20416e-40 -5.06368e-40 5.03536e-40 5.41207e-40
5.04957e-40 -5.04895e-40 -4.9694e-40 -5.01551e-40 -4.99654e-40 -6.08325e-40 4.99364e-40 5.0265e-40
4.97741e-40 -4.96434e-40 -4.97277e-40 5.00823e-40 5.75157e-40 6.22863e-40 -5.16683e-40 5.0463e-40
5.19239e-40 4.95845e-40 5.54317e-40 6.0325e-40 4.91058e-40 4.91201e-40 5.02535e-40 -5.07441e-40
0.05100604 0.0048581883 -0.070505984 -0.047528524 0.040703606 -0.015678573 -0.09993183 0.10351492
0.07030393 0.06784246 0.053935032 -0.0908541 -5.11415e-40 5.03984e-40 -5.69877e-40 -4.94444e-40
-4.93201e-40 4.92279e-40 5.00283e-40 -5.01976e-40 5.0104e-40 4.95363e-40 5.01069e-40 -5.12877e-40
-4.98501e-40 4.91581e-40 6.04585e-40 -4.95774e-40 5.52616e-40 4.94119e-40 -4.90757e-40 -5.06239e-40
-5.23119e-40 4.92761e-40 4.95025e-40 -5.0499e-40 -4.95397e-40 -4.95251e-40 -4.98665e-40 -4.9359e-40
-4.93778e-40 5.5025e-40 -4.91641e-40 4.98648e-40 -5.18968e-40 -4.9999e-40 -5.65211e-40 5.11317e-40
5.17159e-40 5.24624e-40 5.03831e-40 4.94615e-40 -4.92216e-40 -5.09379e-40 -6.23066e-40 -4.92189e-40
5.1428e-40 -5.63273e-40 5.18082e-40 5.25529e-40 5.05516e-40 -5.71346e-40 5.12308e-40 -5.75766e-40
0.010539952 -0.12458888 -0.048544306 0.0014623639 0.11365511 0.047341466 -0.0094746 -0.003786813
-0.0579365 -0.030734124 0.13171054 -0.076987095 -5.14952e-40 -4.93617e-40 -5.10584e-40 -5.02242e-40
5.14845e-40 -4.91972e-40 5.03052e-40 4.96786e-40 5.15988e-40 -4.9333e-40 -4.9757e-40 -6.19895e-40
5.0881e-40 5.2998e-40 5.0202e-40 5.25422e-40 -5.87183e-40 4.97269e-40 -4.96431e-40 5.12483e-40
-5.83122e-40 -5.2387e-40 5.06705e-40 -5.0233e-40 -5.09469e-40 -4.94063e-40 5.54292e-40 5.14986e-40
5.12355e-40 -5.0028e-40 6.11954e-40 5.03904e-40 5.3988e-40 -5.63342e-40 6.02474e-40 -4.99772e-40
5.00845e-40 -4.96275e-40 5.94372e-40 4.97935e-40 -5.82556e-40 5.16397e-40 -5.5374e-40 -5.31734e-40
-5.07895e-40 -5.13195e-40 4.9227e-40 -4.92506e-40 6.10135e-40 -5.24541e-40 -5.03407e-40 5.3191e-40
00000000: fb8f d73d ba4d 2a3d b241 c73b 6a0c 023d
00000010: 3c38 b1bc 618e febd ec18 94bd c6af 033e
00000020: 6c16 69bd 8f80 1a3e f638 18be f2f0 943d
00000030: b967 0500 017f 0580 3f2e 0600 7989 0500
00000040: 786d 0500 1e80 0500 b28a 0580 b05e 0580
00000050: d458 0500 d85a 0500 6038 0680 e1ee 0580
00000060: d9d5 0500 f15a 0500 a2bb 0500 07c4 0500
00000070: a974 0580 5f60 0580 9e7d 0580 5a5e 0500
00000080: 4165 0580 40c4 0580 62ca 0680 c3f8 0500
00000090: a458 0580 b1c8 0580 0c80 0500 c47b 0500
000000a0: 2a5d 0500 58c3 0500 8889 0580 6aa0 0580
000000b0: c76d 0500 4c69 0500 ca6e 0500 4572 0500
000000c0: 646b 0500 ee7b 0500 01f6 0500 f98d 0580
000000d0: dd89 0500 d85d 0500 938d 0580 ba81 0500
000000e0: 1f62 0580 d770 0580 ca7d 0500 bfc0 0500
000000f0: d692 0500 94ac 0580 de6d 0500 936e 0500
00000100: 7c3c 1b3e fed8 b73d 1e00 92bc 9e54 dabd
00000110: ebca b6bc 6d76 6c3c c2b3 453d c077 b23d
00000120: 0e0a fd3c 3662 25bb 55b3 0dbd a8a6 ae3d
00000130: 1b7e 0580 227f 0580 0570 0500 06c9 0500
00000140: 2088 0580 da77 0580 055b 0680 0358 0500
00000150: 6f8d 0580 6172 0500 3d5f 0580 0a95 0600
00000160: 4eb5 0580 1d59 0580 6373 0500 c768 0580
00000170: 3ce2 0580 a462 0580 b0cb 0580 d068 0580
00000180: eba5 0500 4a71 0600 2163 0580 8d6b 0500
00000190: 78c1 0600 8c83 0580 a77b 0500 aae4 0500
000001a0: 9d7f 0500 717f 0580 4469 0580 1f76 0580
000001b0: d570 0580 c39f 0680 0670 0500 2f79 0500
000001c0: 806b 0500 db67 0580 356a 0580 1774 0500
000001d0: 4e43 0600 4ac8 0600 4da0 0580 b47e 0500
000001e0: 6da7 0500 3766 0500 3609 0600 9e91 0600
000001f0: df58 0500 4559 0500 dd78 0500 8a86 0580
00000200: b6eb 503d 7031 9f3b 7165 90bd 45ad 42bd
00000210: d3b8 263d 5a70 80bc 0fa9 ccbd a1ff d33d
00000220: 82fb 8f3d fdf0 8a3d fbea 5c3d b711 babd
00000230: 9e91 0580 e77c 0500 9634 0680 4f62 0580
00000240: d85e 0580 465c 0500 9672 0500 4e77 0580
00000250: b274 0500 df64 0500 c774 0500 b195 0580
00000260: 9e6d 0580 545a 0500 5695 0600 0466 0580
00000270: 7804 0600 6761 0500 0858 0580 3083 0580
00000280: 3eb2 0580 9e5d 0500 ee63 0500 b57f 0580
00000290: f764 0580 8f64 0580 136e 0580 ee5f 0580
000002a0: 7460 0580 e0fd 0500 7f5a 0580 076e 0500
000002b0: aca6 0580 c571 0580 9427 0680 5891 0500
000002c0: a1a1 0500 70b6 0500 7a7c 0500 c962 0500
000002d0: 195c 0580 f18b 0580 dbc8 0680 065c 0580
000002e0: 9a99 0500 2d22 0680 34a4 0500 f6b8 0500
000002f0: 2c81 0500 ae38 0680 1b94 0500 0045 0680
00000300: c3af 2c3c 7428 ffbd 65d6 46bd caac bf3a
00000310: 03c4 e83d 20e9 413d 5a3b 1bbc 2e2c 78bb
00000320: d34e 6dbd 21c6 fbbc 21df 063e 69ab 9dbd
00000330: 7a9b 0580 0160 0580 4d8f 0580 0c78 0580
00000340: 2e9b 0500 6b5b 0580 4e7a 0500 d668 0500
00000350: 5d9e 0500 345f 0580 066b 0580 04c0 0680
00000360: 5b8a 0500 5ec5 0500 6d77 0500 aab8 0500
00000370: d464 0680 2f6a 0500 d967 0580 9894 0500
00000380: 8259 0680 56b4 0580 7d84 0500 4b78 0580
00000390: 318c 0580 3f61 0580 2409 0600 929b 0500
000003a0: 3d94 0500 9472 0580 e1a9 0600 ae7c 0500
000003b0: f7e0 0500 5e22 0680 748f 0600 2971 0580
000003c0: 2774 0500 6a67 0580 de78 0600 0a6c 0500
000003d0: ee57 0680 819f 0500 9a07 0680 42ca 0580
000003e0: ce87 0580 9496 0580 405c 0500 e85c 0580
000003f0: cfa4 0600 35b6 0580 4b7b 0580 c0ca 0500

encoder.convs.0.nn.0.bias f4 [128]
-0.009487552 -4.4499734e-06 0.041915473 0.11632213 -0.026909202 -0.0488632 -5.706972e-17 -0.03453176
-0.093729466 5.325358e-05 0.06037992 0.018799681 -0.0025544236 -0.010153571 -0.029301977 0.09496391
0.048505686 -2.716436e-06 -2.6655027e-05 -0.0020568408 0.01204588 0.038258478 -0.0034677717 -0.026267366
-0.05704079 0.083759405 -0.04685309 0.055517998 0.018830398 0.03289217 -1.2353328e-06 0.012400574
0.051874567 -0.007916134 0.0059826113 -0.089966714 5.08834e-40 0.082892664 0.10876029 0.03877341
-3.121719e-06 0.0021468792 -0.052063096 -5.991548e-07 -0.035349242 -0.096471205 -1.9109812e-10 -0.029587429
-7.404354e-05 -0.06764004 0.05237998 0.072303824 0.06723248 0.035045885 -3.992713e-18 -4.5927786e-06
-6.206981e-08 4.91169e-40 -0.0039741085 -4.9403e-40 -3.71052e-14 0.061728217 -3.973665e-06 0.04488628
4.92936e-40 0.013473774 0.087476596 0.025885642 0.020281676 -5.06418e-06 7.570015e-07 -7.3761065e-20
0.0331314 -0.076530516 0.025511906 0.010481833 -4.977325e-06 -4.8862926e-06 -0.06631875 0.026414666
-0.09726589 -0.099979274 0.073218934 -0.024649022 0.031588636 0.067739956 -2.2305175e-18 -0.05515505
-0.06299006 -0.031957105 0.15811133 0.0802508 -0.09095366 -0.0037995486 -0.09712405 -4.92463e-40
2.477241e-13 4.91629e-40 -1.4924929e-05 1.7433596e-11 -0.0035604537 -0.033559237 0.0029810495 0.15555295
-8.726612e-19 -5.0214003e-06 -3.710241e-11 -0.06451405 0.082710214 0.008943781 0.06833284 -2.18156e-40
0.032660857 0.114135936 -0.0006153112 0.06133134 0.093761 -0.0038494784 -2.8111451e-06 0.02648789
-0.0001829863 -4.94726e-40 -0.108315185 0.05329603 0.0593608 0.00082553143 -1.1617564e-06 0.010583928
00000000: ad71 1bbc fb50 95b6 8faf 2b3d 4c3a ee3d
00000010: b070 dcbc c724 48bd 0498 83a4 2d71 0dbd
00000020: 3cf5 bfbd 995c 5f38 ef50 773d ca01 9a3c
00000030: 1e68 27bb 2a5b 26bc b30a f0bc 707c c23d
00000040: e6ad 463d 044c 36b6 3c99 dfb7 10cc 06bb
00000050: 155c 453c ecb4 1c3d 8e43 63bb a92e d7bc
00000060: 9aa3 69bd 0d8a ab3d 07e9 3fbd d766 633d
00000070: 3542 9a3c f1b9 063d b6cd a5b5 c72b 4b3c
00000080: 6d7a 543d acb2 01bc c809 c43b 7840 b8bd
00000090: 6c8a 0500 a1c3 a93d b7bd de3d ded0 1e3d
000000a0: b97e 51b6 a8b2 0c3b 1d40 55bd 9bd5 20b5
000000b0: 5eca 10bd b292 c5bd 571d 52af 5661 f2bc
000000c0: d347 9bb8 dc86 8abd 648c 563d 0714 943d
000000d0: 2fb1 893d 468c 0f3d 1c4e 93a2 ab1b 9ab6
000000e0: 3d4b 85b3 2e59 0500 3d39 82bb 2861 0580
000000f0: 621b 27a9 bad6 7c3d 8655 85b6 adda 373d
00000100: 1b5e 0500 1bc1 5c3c ee26 b33d 200e d43c
00000110: c225 a63c faec a9b6 bf34 4b35 d429 ae9f
00000120: cab4 073d 08bc 9cbd 58fe d03c febb 2b3c
00000130: e502 a7b6 eff4 a3b6 20d2 87bd 9263 d83c
00000140: 5733 c7bd efc1 ccbd cff3 953d bfec c9bc
00000150: 1663 013d 3fbb 8a3d 4995 24a2 43ea 61bd
00000160: ef00 81bd 74e5 02bd f0e7 213e 885a a43d
00000170: ea45 babd d901 79bb f9e8 c6bd c95c 0580
00000180: ce74 8b2a 765a 0500 1566 7ab7 f858 992d
00000190: 8056 69bb 6975 09bd b65d 433b 4649 1f3e
000001a0: 35c8 80a1 807d a8b6 9a2d 23ae f11f 84bd
000001b0: f963 a93d f088 123c 17f2 8b3d 2160 0280
000001c0: 64c7 053d 1ac0 e93d d64c 21ba 9236 7b3d
000001d0: c405 c03d 8847 7cbb 1ba7 3cb6 22fd d83c
000001e0: 03e0 3fb9 1863 0580 5ad4 ddbd f04c 5a3d
000001f0: 4f24 733d 7a68 583a a5ed 9bb5 3668 2d3c

encoder.convs.0.nn.2.weight f4 [128, 128]
0.028798642 -0.045584463 0.085997224 0.041021395 0.064830795 -0.04567353 -4.91902e-40 -0.048727233
-0.015687143 -0.037497547 0.06356354 0.017595377 -0.0032816192 -0.071048655 0.010044145 0.05776768
0.038185295 -0.04853963 -4.93204e-40 4.94224e-40 -0.0234578 -0.04466525 -3.65575e-08 -0.008017474
-0.025979387 -0.014679611 -0.076930776 -0.017706204 -0.077456 -2.204211e-10 -0.019503335 -0.04794568
-0.011765857 -0.053135652 -0.00025009047 -0.0017391548 -4.99102e-40 0.0009382989 0.0021756194 -0.007640962
0.0831893 -1.211013e-19 0.051021244 -6.864542e-12 -0.0003061411 0.08502868 -1.5596414e-10 0.04166301
-0.0001233278 0.00039976405 0.053878073 0.06699861 0.023238026 0.03714687 4.96092e-40 -0.0639089
1.3383436e-24 -5.0034e-40 -0.09220302 -5.08443e-40 5.16205e-40 -0.05438933 0.030218944 0.025824292
6.07656e-40 0.018523566 0.013256247 -0.05409219 -3.6684687e-05 -2.6795658e-11 -0.025403168 -4.93736e-40
-0.06122075 0.051339973 -0.014644362 -2.6630451e-09 -0.020273797 -0.0400019 0.0012217596 -2.9868506e-06
-0.031362895 -0.091292046 -0.051993378 -0.023730425 0.0007022302 -0.07670196 -4.3954496e-19 0.030215958
-0.031995583 -0.077922985 0.03741078 0.0423576 0.06612763 6.795277e-10 -0.0073492737 -5.22045e-40
-4.95058e-40 -4.90516e-40 5.6635938e-05 -4.91861e-40 -0.07315215 -0.015869198 -0.03481572 0.07350203
-5.06725e-40 -0.027917136 -2.4152112e-37 -0.06101497 -0.050571796 0.07263595 0.021515599 -4.99036e-40
-0.0008258951 -0.0006429058 -9.679062e-06 -0.042966444 -7.98032e-05 0.018276144 -0.11251428 3.8347145e-05
-0.004047438 -5.2212e-40 -0.056112673 -0.014467991 -0.017106641 0.0038467632 3.9501123e-05 0.109145075
-0.03443417 -0.075709045 0.040829137 0.021910349 0.029657448 -0.06373436 -1.3503774e-19 -0.10290851
0.039542846 -0.09377096 -0.002869083 0.03889168 0.0034604352 -0.04084791 0.023060326 -0.06185584
0.0056457897 -0.0030460074 4.93033e-40 -4.891321e-16 0.096980706 -0.0915704 4.058823e-05 -0.0012887599
0.05657738 -0.031591497 -0.0046570576 -0.028024888 -0.069301054 4.7729654e-10 0.06790245 -0.04399005
-0.00010424041 0.06090315 0.0006511807 0.051087506 5.08659e-40 0.09622222 0.00935425 0.06413452
-0.050551675 2.0233155e-29 0.048355356 2.1965386e-06 7.8631143e-07 0.0467386 1.496891e-24 0.08684816
-1.8456976e-05 8.757167e-05 0.014140597 -0.016356723 -0.01049788 0.032771878 -6.00507e-40 -0.087178595
5.389442e-19 -5.19809e-40 -0.044439428 -5.01299e-40 5.0134e-40 -0.026751257 0.013079039 -0.121381015
5.01697e-40 -0.049352296 0.02259072 0.051406525 -0.00045216366 5.5299882e-08 -0.024582352 4.95899e-40
0.009895799 -0.06542595 0.032324683 -5.1656223e-14 -0.035023466 0.06476291 -0.00025275818 6.052111e-09
-0.012541626 -0.042969108 0.006871539 -0.024835087 9.4777315e-05 -0.08343478 -1.6414852e-18 0.018407758
0.017054884 -0.014399289 0.042157087 0.002721192 0.026574876 0.00046412722 0.024427522 -5.37063e-40
4.94244e-40 6.3835865e-09 -3.3026524e-06 -5.0247e-40 0.0065152086 -0.0009786033 0.018964412 0.12660958
4.95886e-40 0.007065172 -4.92911e-40 -0.0361329 0.007963158 0.034265786 0.046097767 -4.94961e-40
0.00020547184 0.05555368 1.4755166e-07 0.043600775 -0.09699529 0.0035216303 -0.019697964 -0.0012790252
-0.02294578 5.66574e-40 0.09726342 -0.039207477 0.107451595 0.00609462 3.5510825e-09 0.038006563
00000000: 21eb eb3c c6b6 3abd 501f b03d 0d06 283d
00000010: 02c6 843d 2b14 3bbd 395b 0580 3596 47bd
00000020: 5382 80bc 0797 19bd 9a2d 823d 2e24 903c
00000030: 6f10 57bb f581 91bd 3390 243c ce9d 6c3d
00000040: 2f68 1c3d 7ed1 46bd da5e 0580 b261 0500
00000050: 922a c0bc e9f2 36bd 6503 1db3 b95b 03bc
00000060: b9d2 d4bc c082 70bc e28d 9dbd 9a0c 91bc
00000070: 40a1 9ebd 065b 72af 75c5 9fbc b062 44bd
00000080: 95c5 40bc c5a4 59bd 931e 83b9 5af4 e3ba
00000090: 4b6f 0580 2cf8 753a d694 0e3b 0961 fabb
000000a0: 275f aa3d 9ff8 0ea0 a7fb 503d 4c86 f1ac
000000b0: 9081 a0b9 8423 ae3d 017c 2baf d5a6 2a3d
000000c0: 8e51 01b9 6c97 d139 41af 5c3d 9136 893d
000000d0: ac5d be3c 5127 183d e766 0500 abe2 82bd
000000e0: 4119 cf17 bf72 0580 f0d4 bcbd 5589 0580
000000f0: f89e 0500 59c7 5ebd b88d f73c 778d d33c
00000100: e69d 0600 bcbe 973c bb30 593c c68f 5dbd
00000110: e2dd 19b8 75b2 ebad 4e1a d0bc 5660 0580
00000120: 9cc2 7abd dd49 523d e8ee 6fbc c900 37b1
00000130: 3c15 a6bc 08d9 23bd 7323 a03a b471 48b6
00000140: 6176 00bd 53f7 babd 02f7 54bd 4f66 c2bc
00000150: df15 383a eb15 9dbd 14bb 01a1 7587 f73c
00000160: cd0d 03bd 1696 9fbd 0c3c 193d 2a7f 2d3d
00000170: ec6d 873d 83c9 3a30 2dd2 f0bb 40af 0580
00000180: 0564 0580 5c57 0580 608c 6d38 1c5b 0580
00000190: cbd0 95bd 1f00 82bc ee9a 0ebd 3b88 963d
000001a0: 8b84 0580 7ab2 e4bc ea5e a482 d5ea 79bd
000001b0: 5f24 4fbd 28c2 943d 7b41 b03c 1c6f 0580
000001c0: e280 58ba ae88 28ba 4163 22b7 95fd 2fbd
000001d0: 045c a7b8 dab7 953c e36d e6bd efd6 2038
000001e0: 5fa0 84bb 75af 0580 67d6 65bd 270b 6dbc
000001f0: 3a23 8cbc fa19 7c3b 02ae 2538 7487 df3d
00000200: d80a 0dbd 580d 9bbd 743c 273d 557d b33c
00000210: 2df4 f23c 2987 82bd a76c 1fa0 b2c1 d2bd
00000220: aef7 213d fd0a c0bd 3a07 3cbb e24c 1f3d
00000230: 78c8 623b 2350 27bd 02e9 bc3c 8d5c 7dbd
00000240: 5100 b93b 869f 47bb 605e 0500 94fb 0ca6
00000250: d29d c63d 4389 bbbd 483d 2a38 9beb a8ba
00000260: afbd 673d 1666 01bd 3b9a 98bb 7394 e5bc
00000270: b6ed 8dbd c232 0330 7110 8b3d e92e 34bd
00000280: a59b dab8 9575 793d ffb3 2a3a 2241 513d
00000290: ef89 0500 2810 c53d 9142 193c f658 833d
000002a0: 460f 4fbd 4630 cd0f 4410 463d 3f68 1336
000002b0: e912 5335 f970 3f3d f6a1 e717 73dd b13d
000002c0: 0ed4 9ab7 afa6 b738 f6ad 673c 89fe 85bc
000002d0: 4dff 2bbc ce3b 063d f889 0680 b18a b2bd
000002e0: 7911 1f21 04a9 0580 1e06 36bd 6b75 0580
000002f0: 8875 0500 7425 dbbc 7749 563c 9c96 f8bd
00000300: 8776 0500 a225 4abd 2c10 b93c a68f 523d
00000310: 6110 edb9 dd82 6d33 ee60 c9bc 5d66 0500
00000320: fd21 223c 0afe 85bd e366 043d 92a3 68a9
00000330: c474 0fbd 6ba2 843d a184 84b9 eef2 cf31
00000340: 647b 4dbc 6000 30bd a62a e13b f472 cbbc
00000350: 2fc3 c638 dbdf aabd 8f3d f2a1 decb 963c
00000360: afb6 8b3c ffea 6bbc e9ac 2c3d 0756 323b
00000370: 8eb3 d93c 1a56 f339 3a1c c83c 1dd9 0580
00000380: c061 0500 9f56 db31 23a3 5db6 af78 0580
00000390: 887d d53b 7a44 80ba 415b 9b3c f1a5 013e
000003a0: 5466 0500 f582 e73b 095e 0580 1700 14bd
000003b0: e877 023c 485a 0c3d 03d1 3c3d c063 0580
000003c0: ed73 5739 418c 633d b16e 1e34 ba96 323d
000003d0: 77a5 c6bd 27cb 663b a05d a1bc f7a4 a7ba
000003e0: caf8 bbbc 612b 0600 0b32 c73d 0598 20bd
000003f0: 950f dc3d 61b5 c73b 4e07 7431 c5ac 1b3d

encoder.convs.0.nn.2.bias f4 [128]
-3.3360398e-06 -1.6466136e-06 -3.6103957e-06 5.8810433e-06 4.754685e-06 2.4999733e-06 -1.9836136e-06 8.606332e-07
-1.0653587e-06 1.5285251e-06 -4.595866e-06 -5.134942e-06 1.9576207e-06 -1.8170641e-06 5.821268e-06 3.592943e-08
-1.324078e-06 4.7758886e-06 -1.932214e-08 -1.144243e-05 4.873798e-06 3.8044786e-06 -6.4306374e-07 -1.1168704e-05
3.2237824e-06 7.644654e-07 4.8313527e-06 4.7918675e-06 7.956423e-06 -1.1426068e-06 3.2561913e-06 5.524042e-06
-6.5135678e-06 -1.547093e-06 -1.4376548e-07 -1.1954562e-06 3.2977027e-07 1.4869623e-06 5.2412147e-06 -9.716728e-07
-2.4596752e-06 -7.5980797e-06 -5.398078e-06 -4.927552e-06 4.3146522e-07 -5.350264e-06 -9.833261e-07 1.8139701e-07
2.5691766e-06 -7.3022886e-07 -2.5523398e-06 1.8992429e-08 -1.2316645e-05 4.1117287e-06 3.830145e-06 2.3776114e-07
3.8424414e-06 3.6472065e-06 -6.9309735e-08 -1.2673739e-06 -4.142941e-06 3.911985e-06 -1.6828154e-06 -9.868484e-06
6.402724e-06 1.3684266e-06 -6.776164e-06 4.844382e-07 -3.3731972e-06 1.4652947e-07 2.5383572e-06 2.531744e-06
2.4307559e-08 -1.3924471e-06 2.2785154e-05 -6.650693e-07 5.6564877e-06 -2.4485378e-06 -1.326969e-06 -3.0705132e-06
5.120626e-06 9.119642e-06 5.415649e-07 3.5353721e-06 3.7053871e-06 -8.762642e-06 -1.1166815e-05 -1.7719551e-06
7.5465823e-06 7.2767267e-07 2.551918e-06 1.1724752e-06 3.1428824e-06 1.602238e-06 1.4538798e-06 -7.344442e-07
4.5935185e-06 1.4327042e-06 2.1041217e-06 -1.5407668e-06 1.7132076e-07 1.2107851e-07 5.632841e-06 -2.790317e-06
-5.7984175e-06 2.9801444e-07 -5.614813e-07 2.891467e-07 -6.9476882e-06 -1.8075312e-06 1.295181e-06 2.842987e-06
6.147052e-06 -4.653591e-06 7.317014e-06 -1.2251473e-06 -1.5235668e-07 -1.6742204e-06 1.0182875e-07 4.5064485e-06
-5.315098e-06 1.5148375e-06 -2.4916358e-06 2.0884252e-07 -4.4742587e-06 -8.728418e-07 3.1769716e-06 6.4009635e-07
00000000: bae0 5fb6 3601 ddb5 204a 72b6 c755 c536
00000010: 6f8a 9f36 37c5 2736 391e 05b6 4306 6735
00000020: 72fd 8eb5 b927 cd35 3036 9ab6 d14c acb6
00000030: ab5f 0336 d9e1 f3b5 5054 c336 d350 1a33
00000040: f9b6 b1b5 9240 a036 d6f9 a5b2 ddf8 3fb7
00000050: 9b89 a336 7250 7f36 019f 2cb5 3861 3bb7
00000060: 2958 5836 aa35 4d35 011d a236 d4c9 a036
00000070: 947c 0537 ac5b 99b5 f184 5a36 295b b936
00000080: 1f8f dab6 b6a5 cfb5 f45d 1ab4 9073 a0b5
00000090: 480b b134 a393 c735 b1dd af36 6c6a 82b5
000000a0: e610 25b6 02f3 feb6 2321 b5b6 5957 a5b6
000000b0: 21a4 e734 6b86 b3b6 d4fa 83b5 08c6 4234
000000c0: 1e6a 2c36 f204 44b5 dd48 2bb6 cb24 a332
000000d0: 96a3 4eb7 7bf7 8936 b284 8036 494b 7f34
000000e0: 52ee 8036 88c2 7436 6ed7 94b3 a31a aab5
000000f0: 9803 8bb6 b243 8336 19dd e1b5 d190 25b7
00000100: fbd6 d636 c8aa b735 ce5e e3b6 570a 0235
00000110: 165f 62b6 b755 1d34 a558 2a36 08e7 2936
00000120: e3cc d032 1ee4 bab5 bf22 bf37 3787 32b5
00000130: dccc bd36 8f51 24b6 4f1a b2b5 040f 4eb6
00000140: d8d1 ab36 9000 1937 0e60 1135 3b41 6d36
00000150: 11aa 7836 4303 13b7 1b59 3bb7 ead3 edb5
00000160: a638 fd36 4955 4335 9e41 2b36 f15d 9d35
00000170: 4fea 5236 7a0c d735 ee22 c335 9f26 45b5
00000180: 0622 9a36 574b c035 8934 0d36 58cc ceb5
00000190: 4bf4 3734 cf01 0234 bc01 bd36 4841 3bb6
000001a0: 0790 c2b6 cbfe 9f34 b3b8 16b5 053c 9b34
000001b0: 3020 e9b6 4d9a f2b5 15d6 ad35 25ca 3e36
000001c0: c642 ce36 0b26 9cb6 ac84 f536 be6f a4b5
000001d0: 7c97 23b4 c6b5 e0b5 f3ac da33 1936 9736
000001e0: 5858 b2b6 6c51 cb35 fa35 27b6 323e 6034
000001f0: 9721 96b6 3b4d 6ab5 f533 5536 16d3 2b35

encoder.convs.1.nn.0.weight f4 [128, 128]
-0.035927758 -0.013435466 0.005873976 -0.0026153054 0.037898585 0.0022319276 -0.007195122 -0.008001042
-0.018625185 -0.011678146 -0.012033253 0.022795178 0.019251065 -0.015390784 -0.012792633 -0.020611687
0.009184466 0.010496678 -0.015180021 -0.0075734793 -0.030185044 -0.01009394 -0.020245764 -0.02832761
-0.018688908 -0.023605928 -0.07493994 0.0056104497 -0.04887652 -0.004948195 -0.0020137217 -0.033653576
-0.0004235848 0.022167036 -0.009521387 0.011582254 -0.0031835868 -0.013289366 0.05908171 0.008360961
0.02261965 -0.006295241 -0.017579809 -0.0206972 -0.0045803622 -0.026938858 0.04338743 -0.027324295
0.007592069 -0.011251524 -0.0066696587 -0.02489354 -0.00027926816 -0.02223194 0.04924646 0.036533464
-0.0069606393 -0.04223758 -0.019367268 -0.018645434 -0.008604935 -0.027929781 -0.00084186334 0.014849902
-0.01275361 -0.003817062 0.01300252 -0.06748994 -0.018312879 0.004807366 0.02062146 -0.006378827
-0.008871721 -0.0070322035 -0.045931894 0.015941884 0.01913774 -0.010148238 0.023527358 0.016043203
-0.08037023 -0.03986129 -0.012018777 -0.008431767 -0.02444928 -0.035653 -0.023997469 0.019949522
-0.06262871 -0.013245347 0.0028692384 0.014578967 -0.015856067 -0.05448724 0.0068029515 0.042233765
-0.01906387 0.0008089267 0.009597903 -0.00612276 -0.020837521 -0.0095100915 -0.0065438594 -0.011523115
0.002903584 -0.021323776 0.023808802 -0.010412983 -0.019971661 0.020753795 -0.0074206092 -0.043727607
0.008908226 -0.012416693 -0.028039394 -0.023235248 -0.0068722945 -0.0006031306 -0.004153126 -0.00810189
-0.06479339 0.010349524 -0.012523269 0.008678906 -0.01050817 -0.0043163737 0.013666873 0.0047508655
-0.020614423 0.0682597 0.07362813 0.055359475 0.027054658 0.022407021 0.07696283 0.026156811
0.0048944238 -0.013470044 -0.04494363 -0.070728555 0.043897673 -0.08189596 0.14662822 -0.004705869
-0.00016530685 -0.011210642 0.09529937 0.045672502 0.10746837 -0.0074798507 0.13949725 -0.04762526
-0.015504118 0.0063513573 0.04830766 0.075689405 -0.08693534 0.032480687 -0.09908656 -0.06764331
0.04914309 -0.09595137 0.0743038 0.087633 -0.0014160947 0.049473967 0.10031609 -0.038517397
0.05886963 0.11518482 0.058958925 -0.009312646 0.055474658 0.00070073147 0.018848317 0.10045977
-0.020300433 0.055036318 0.009573934 0.008393235 0.05331819 0.06346234 -0.14414372 -0.081335306
0.017446863 -0.16712798 0.030587409 0.14403732 -0.002244793 -0.0603338 -0.041775174 0.031604838
0.007937586 -0.030915977 -0.089609414 -0.02383272 -0.014328589 0.006383666 0.044319753 0.05168251
-0.024654007 -0.04493866 -0.016837193 0.027102686 0.038413484 0.11644729 -0.052777667 -0.0721369
-0.016818285 0.058504436 0.034437563 0.08228947 -0.07137152 0.010926576 0.068960644 0.03001632
-0.09116102 0.010330414 0.0070739705 0.006416258 0.007800301 -0.07139118 0.0632165 0.07001604
0.05318527 -0.03652057 -0.056973863 0.016926773 0.0570783 -0.07787058 0.1032372 0.12992556
0.019386198 0.031250924 -0.05313344 0.056249995 0.1061637 -0.02605484 0.09148215 0.094570495
-0.0023374446 -0.06606112 -0.028875424 -0.01986953 0.03311677 -0.10798625 -0.053154174 0.13546045
0.024691338 -0.08802671 -0.0040071816 0.03607876 0.10416041 -0.09010202 0.057781875 0.05186681
00000000: fc28 13bd 6e20 5cbc 7b7a c03b 8b65 2bbb
00000010: 8c3b 1b3d 8845 123b 0fc5 ebbb cd16 03bc
00000020: d893 98bc b255 3fbc 1f27 45bc f4bc ba3c
00000030: 69b4 9d3c a029 7cbc 3198 51bc d7d9 a8bc
00000040: 717a 163c 42fa 2b3c 9fb5 78bc f32a f8bb
00000050: a046 f7bc 0e61 25bc 72da a5bc 4e0f e8bc
00000060: 7b19 99bc 3861 c1bc 1c7a 99bd ddd7 b73b
00000070: bf32 48bd 7824 a2bb a5f8 03bb 55d8 09bd
00000080: 9714 deb9 a597 b53c 97ff 1bbc 7fc3 3d3c
00000090: b9a3 50bb a4bb 59bc aaff 713d 6afc 083c
000000a0: d84c b93c 4f48 cebb 8803 90bc 2d8d a9bc
000000b0: dd16 96bb e1ae dcbc 05b7 313d 33d7 dfbc
000000c0: e4c6 f83b 5058 38bc 278d dabb 8aed cbbc
000000d0: bd6a 92b9 c21f b6bc a8b6 493d 1da4 153d
000000e0: 1316 e4bb 5001 2dbd 1ba8 9ebc 4fbe 98bc
000000f0: b7fb 0cbc ffcc e4bc 7eb0 5cba 014d 733c
00000100: 84f4 50bc ac27 7abb 8608 553c 2a38 8abd
00000110: e404 96bc 1c87 9d3b 56ee a83c 7b05 d1bb
00000120: b25a 11bc 666e e6bb 1523 3cbd 8e98 823c
00000130: c0c6 9c3c cc44 26bc 72bc c03c 096d 833c
00000140: 2699 a4bd 9845 23bd 68ea 44bc 6525 0abc
00000150: db49 c8bc e108 12bd 5796 c4bc 2e6d a33c
00000160: 7b43 80bd 0303 59bc d509 3c3b 9fdc 6e3c
00000170: 95e4 81bc 032e 5fbd 4beb de3b 50fd 2c3d
00000180: d52b 9cbc 270e 543a 8640 1d3c 6fa1 c8bb
00000190: 73b3 aabc 37d0 1bbc df6d d6bb 73cb 3cbc
000001a0: 0e4a 3e3b 33af aebc ad0a c33c 379b 2abc
000001b0: 9c9b a3bc dd03 aa3c 9528 f3bb b81b 33bd
000001c0: cff3 113c 636f 4bbc dfb2 e5bc d957 bebc
000001d0: fc30 e1bb 691b 1eba f216 88bb cabd 04bc
000001e0: 66b2 84bd 0d91 293c 662e 4dbc f831 0e3c
000001f0: 762a 2cbc 5e70 8dbb 05eb 5f3c 26ad 9b3b
00000200: 94df a8bc becb 8b3d 58ca 963d 9ec0 623d
00000210: bba1 dd3c ee8e b73c b09e 9d3d cf46 d63c
00000220: 6761 a03b 76b1 5cbc d016 38bd 22da 90bd
00000230: 0cce 333d 12b9 a7bd b525 163e b133 9abb
00000240: 3856 2db9 d7ac 37bc 512c c33d 1713 3b3d
00000250: 6018 dc3d 8919 f5bb 5ed8 0e3e b412 43bd
00000260: fc04 7ebc 0c1f d03b 41de 453d 0c03 9b3d
00000270: 280b b2bd 780a 053d e5ed cabd 9388 8abd
00000280: 444a 493d 2782 c4bd 972c 983d ee78 b33d
00000290: 419c b9ba 37a5 4a3d 8672 cd3d 6bc4 1dbd
000002a0: 4821 713d 05e6 eb3d ea7e 713d 1294 18bc
000002b0: 6539 633d 4bb1 373a c967 9a3c dabd cd3d
000002c0: 184d a6bc c36d 613d fddb 1c3c c783 093c
000002d0: 2d64 5a3d 8bf8 813d 699a 13be 2093 a6bd
000002e0: b9ec 8e3c 9923 2bbe 7292 fa3c 857e 133e
000002f0: 611d 13bb 9320 77bd 721c 2bbd 1374 013d
00000300: a60c 023c 8143 fdbc 2485 b7bd d63c c3bc
00000310: 75c2 6abc 122e d13b a188 353d 0ab1 533d
00000320: 33f7 c9bc 9a11 38bd 27ee 89bc 7406 de3c
00000330: 7557 1d3d eb7b ee3d 652d 58bd 83bc 93bd
00000340: 80c6 89bc 59a2 6f3d 670e 0d3d 6287 a83d
00000350: 3b2b 92bd 6205 333c 3d3b 8d3d c9e4 f53c
00000360: a1b2 babd e640 293c c4cc e73b 793f d23b
00000370: ab99 ff3b 8a35 92bd a777 813d 9264 8f3d
00000380: ccd8 593d 9896 15bd 6d5d 69bd 04aa 8a3c
00000390: efca 693d 9c7a 9fbd 066e d33d 350b 053e
000003a0: cecf 9e3c f800 003d 73a2 59bd 6566 663d
000003b0: 5b6c d93d f670 d5bc fe5a bb3d 2dae c13d
000003c0: d02f 19bb 0d4b 87bd 278c ecbc 6dc5 a2bc
000003d0: 73a5 073d e527 ddbd 31b8 59bd 25b6 0a3e
000003e0: 7d45 ca3c 5947 b4bd ad4e 83bb 52c7 133d
000003f0: 0e52 d53d 6887 b8bd b0ac 6c3d 4b72 543d

encoder.convs.1.nn.0.bias f4 [128]
-0.02555488 0.098199315 -0.08901758 0.08175455 0.09504733 0.068491854 -0.021980725 0.11254878
0.011595053 0.069874905 0.011249084 0.012744528 0.0023042671 -0.017533068 0.094452605 -0.030571755
0.033762116 0.04044074 0.08392981 0.01240247 0.020611461 -0.022077579 -0.0015051648 0.021982405
0.043962482 -0.027158305 0.042417314 -0.0795476 0.032669835 -0.022606082 0.08338799 0.005585389
-0.051682394 0.045284778 0.032899562 0.0105908755 0.05993957 0.039257515 0.024008412 0.048210356
0.08452314 0.054117337 0.06305677 0.043424547 0.00950787 -0.011195227 0.017760279 -0.010112176
-0.0084538525 -0.05059404 -0.035865594 -0.0005649636 -0.01581721 -0.021903642 0.040880404 0.08422405
0.06074898 0.08105562 0.06446349 -0.05075445 -0.023355747 0.03461653 -0.05590216 0.11642048
0.017905349 0.044689316 -0.028368073 -0.027679265 -0.011511348 0.03786653 0.0064954297 -0.023967344
-0.02239122 -0.0091325445 0.026732964 0.12142922 -0.019387595 0.029623361 -0.019801926 -0.045590002
-0.031666532 -0.0066212355 -0.044346746 -0.0080637345 -0.008433497 -0.021032846 0.09658872 0.08154921
0.03530361 -0.0049236543 0.039110016 -0.031134104 0.02424801 0.0798316 0.0009016158 0.03208117
0.017320106 0.0075256666 0.00615502 0.014102014 0.05583084 -0.037459996 -0.012002653 0.03947055
0.09452495 0.03730429 0.018500552 -0.012242284 -0.0024572015 0.02553847 0.077183664 -0.032666072
0.05274914 0.0049645924 0.064193696 -0.020098733 -0.036200386 0.07451039 -0.020432232 -0.01918487
0.049107794 0.028256645 -0.00031101963 0.08391119 0.099058315 0.058330618 -0.011616721 -0.023179566
00000000: 7858 d1bc b91c c93d d94e b6bd ee6e a73d
00000010: 2da8 c23d 7545 8c3d ec10 b4bc fa7f e63d
00000020: 2df9 3d3c 931a 8f3d 144e 383c 6dce 503c
00000030: 3003 173b 82a1 8fbc 5e70 c13d 9e71 fabc
00000040: 254a 0a3d 30a5 253d 64e3 ab3d bb33 4b3c
00000050: 5ed9 a83c 0adc b4bc f348 c5ba 7214 b43c
00000060: 0112 343d 187b debc c7bd 2d3d dae9 a2bd
00000070: ced0 053d 6430 b9bc 53c7 aa3d a405 b73b
00000080: ebb0 53bd 887c 393d b1c1 063d 5a85 2d3c
00000090: 3283 753d 7dcc 203d 4aad c43c 3978 453d
000000a0: 781a ad3d 24aa 5d3d e823 813d f0dd 313d
000000b0: e6c6 1b3c 2f6c 37bc 017e 913c 8aad 25bc
000000c0: 0782 0abc b23b 4fbd cde7 12bd 111a 14ba
000000d0: 1893 81bc 446f b3bc 3672 273d a97d ac3d
000000e0: ecd3 783d 7d00 a63d 6f05 843d e6e3 4fbd
000000f0: 8d54 bfbc 10ca 0d3d aaf9 64bd dc6d ee3d
00000100: 3dae 923c 250c 373d 2964 e8bc a0bf e2bc
00000110: 189a 3cbc ef19 1b3d 9dd7 d43b 2a57 c4bc
00000120: cb6d b7bc aba0 15bc 17ff da3c e2af f83d
00000130: bcd2 9ebc b1ac f23c a637 a2bc 95bc 3abd
00000140: c4b4 01bd f3f6 d8bb efa4 35bd c11d 04bc
00000150: a62c 0abc 134d acbc 4fd0 c53d 4603 a73d
00000160: 859a 103d 9b56 a1bb d331 203d f30c ffbc
00000170: c3a3 c63c c07e a33d 695a 6c3a 8b67 033d
00000180: e5e2 8d3c de99 f63b 0db0 c93b 220c 673c
00000190: e1ae 643d a76f 19bd c7a6 44bc dfab 213d
000001a0: 4c96 c13d 62cc 183d 788e 973c dc93 48bc
000001b0: 0009 21bb 0e36 d13c 7812 9e3d dccc 05bd
000001c0: 7b0f 583d 05ae a23b fc77 833d 19a6 a4bc
000001d0: db46 14bd e798 983d 7f61 a7bc 9729 9dbc
000001e0: 4125 493d 7b7a e73c 5910 a3b9 a1d9 ab3d
000001f0: 16df ca3d 16ec 6e3d 0f54 3ebc 13e3 bdbc

encoder.convs.1.nn.2.weight f4 [128, 128]
-0.027889013 -0.021023784 0.0036116785 0.044968057 0.07540202 -0.08991635 -0.0058465623 -0.07625706
0.00023902934 -0.060784265 -0.0038673882 -0.015470732 0.06885192 -0.018054714 -0.07303223 0.032883912
-0.0574478 -0.024063135 -0.07419583 0.016140569 -0.07108205 0.015225154 0.00016831477 -0.09651931
-0.014838939 -0.042256024 0.04155465 -0.05680389 -0.013836573 -0.036624044 0.005578862 -0.010270481
0.041865997 0.06626873 0.029616425 0.057438307 -0.09460454 0.040769838 -0.08319365 -0.06765332
0.10276124 -0.066346295 0.050460387 0.031943183 -0.007892242 -0.05532518 -0.00569646 -0.021910714
0.000777409 -0.008852107 0.025620874 0.012127022 -0.051484827 0.08371546 -0.012751806 -0.01601292
-0.034039356 -0.11241235 -0.031475957 -0.012868639 -0.01492454 -0.008237405 -0.00052226154 0.124310404
0.07173416 0.039092 -0.0716442 -0.019190481 0.033448577 -0.0075547076 -0.040744506 0.04820123
0.019355772 0.0035998572 0.039485704 0.09359 0.02291557 0.072860405 0.0008486274 -0.050137423
0.008605021 -0.14497104 0.0059605255 0.003500978 0.07552267 -0.03515979 -0.122967295 0.05424392
0.08590048 -0.08828989 -0.045223087 -0.06287552 0.04430647 -0.0009699348 4.946299e-05 -0.07732518
-0.018845601 -0.010798354 0.052280042 -0.024129769 0.021230362 -0.06717406 -0.0037201282 -0.0059210095
-0.00990846 -0.05508267 -0.056045286 0.021430472 0.00023827876 0.050593328 0.03263729 0.05604303
0.0034441103 -0.014952994 0.0007300505 0.036072057 -0.05539004 0.064286225 0.011833037 0.035975143
0.03681226 0.09987263 -4.7438967e-05 0.01339003 -0.038195703 0.10673019 0.01058531 -0.0074706697
-0.0045171194 -0.05001884 0.017482596 0.062150344 0.10923765 -0.08003364 0.018991375 -0.09863383
-0.00039543564 -0.046069108 -0.00056080264 0.040185846 -0.03728263 -0.023121074 0.0034755566 0.029496927
-0.0075252717 0.010248556 -0.04749371 -0.008502945 -0.061800364 -0.021501975 0.002912734 -0.033492114
-0.004666485 -0.053792354 -0.033047494 -0.063142315 -0.035676144 -0.006899783 -0.07441739 0.047166023
-0.042767785 -0.04277492 -0.0019605702 -0.005808734 -0.0031530606 -0.10287796 0.026630914 -0.02372113
-0.045921516 -0.044034205 -0.024387889 -0.018992284 -0.008219289 0.0024420756 -0.0028821023 -0.03209055
4.716074e-05 -0.016844908 0.026217809 -0.030988954 -0.008595775 -0.05799155 0.06497717 -0.073514074
0.03994464 -0.05014704 -0.073706016 0.010083701 0.02815258 0.05940481 0.0020819753 -0.020815708
0.075121894 0.07100917 0.0012078983 -0.004147549 -0.08168717 -0.01445335 -0.043411534 -0.026890488
-0.029207839 0.009146859 -0.006694297 0.12944573 0.018339394 0.06729751 0.0001463414 0.038630772
0.017480183 -0.03189768 -0.0036678987 -0.00017796447 -0.018102758 -0.03813025 -0.111906804 0.11500315
0.02111228 -0.025318353 -0.012175258 -0.008470496 0.01347826 -0.032694694 -4.2154297e-05 0.036732115
-0.06201611 0.0410628 0.06257195 -0.0017964527 -0.026205441 0.032913562 -0.01138122 -0.01340585
-0.02262544 -0.0042456966 0.03371761 0.018309247 1.7089455e-05 -0.05493167 0.01654089 0.026384413
-0.08083177 -0.0022349185 -0.01356498 -0.057146437 -0.06987306 0.115237616 0.0030379512 -0.009456691
0.021430042 0.039368756 7.2765188e-06 0.010853037 -0.064005665 0.13404712 0.022102198 0.01933935
00000000: 8077 e4bc 123a acbc e9b1 6c3b 6d30 383d
00000010: 606c 9a3d 1026 b8bd 8594 bfbb a92c 9cbd
00000020: f3a3 7a39 ecf8 78bd 0274 7dbb f478 7dbc
00000030: 3c02 8d3d 7be7 93bc ec91 95bd 48b1 063d
00000040: 624e 6bbd 0d20 c5bc fcf3 97bd 3a39 843c
00000050: 7793 91bd ed72 793c a77d 3039 eaab c5bd
00000060: 051f 73bc a714 2dbd 3535 2a3d 32ab 68bd
00000070: cbb2 62bc 1803 16bd e3ce b63b 8545 28bc
00000080: ae7b 2b3d e6b7 873d 259e f23c 6e44 6b3d
00000090: 06c0 c1bd 46fe 263d 6f61 aabd d38d 8abd
000000a0: 7c74 d23d 91e0 87bd 8daf 4e3d dbd6 023d
000000b0: 764e 01bc a89c 62bd 5fa9 babb 197e b3bc
000000c0: 09cb 4b3a 6e08 11bc dee2 d13c 6bb0 463c
000000d0: c1e1 52bd 0373 ab3d f3ec 50bc 872d 83bc
000000e0: da6c 0bbd 7238 e6bd efec 00bd fcd6 52bc
000000f0: 0f86 74bc 2ef6 06bc 61e8 08ba 7496 fe3d
00000100: 5ce9 923d ef1e 203d 32ba 92bd 5b35 9dbc
00000110: 6001 093d 7b8d f7bb b6e3 26bd a76e 453d
00000120: ff8f 9e3c 95eb 6b3b c3bb 213d 1dac bf3d
00000130: 6fb9 bb3c d637 953d 6c76 5e3a e65c 4dbd
00000140: 13fc 0c3c 4a73 14be 8350 c33b aa70 653b
00000150: a1ab 9a3d b603 10bd 47d6 fbbd df2e 5e3d
00000160: 97ec af3d 54d1 b4bd d83b 39bd e1c4 80bd
00000170: b37a 353d 3943 7eba 7b76 4f38 aa5c 9ebd
00000180: 1762 9abc 94eb 30bc 9923 563d cbab c5bc
00000190: 4ceb ad3c 8e92 89bd 65cd 73bb 0705 c2bb
000001a0: 1857 22bc 5e9e 61bd be8f 65bd f58e af3c
000001b0: 78da 7939 f33a 4f3d aeae 053d 608d 653d
000001c0: 95b6 613b 67fd 74bc dc60 3f3a 4bc0 133d
000001d0: abe0 62bd 7fa8 833d 5bdf 413c ac5a 133d
000001e0: 74c8 163d 058a cc3d 34f9 46b8 db61 5b3c
000001f0: 1973 1cbd 5c95 da3d 026e 2d3c 85cc f4bb
00000200: 5804 94bb 8ee0 4cbd a937 8f3c 5c91 7e3d
00000210: fdb7 df3d ade8 a3bd cd93 9b3c 8900 cabd
00000220: 7952 cfb9 f6b2 3cbd d402 13ba ea99 243d
00000230: acb5 18bd 6868 bdbc 2ac6 633b 8aa3 f13c
00000240: 8e96 f6bb 8fe9 273c c488 42bd f04f 0bbc
00000250: 6122 7dbd e924 b0bc 91e3 3e3b 072f 09bd
00000260: 50e9 98bb 5f55 5cbd cf5c 07bd c250 81bd
00000270: 2621 12bd 9317 e2bb 2568 98bd 2931 413d
00000280: 462d 2fbd c134 2fbd e97c 00bb 3157 bebb
00000290: 94a3 4ebb aeb1 d2bd 1329 da3c d152 c2bc
000002a0: 3318 3cbd 365d 34bd 1cc9 c7bc b595 9bbc
000002b0: 32aa 06bc 3b0b 203b a7e1 3cbb 6171 03bd
000002c0: 76ce 4538 55fe 89bc bbc6 d63c 8cdc fdbc
000002d0: 4bd5 0cbc 8c88 6dbd c012 853d 8c8e 96bd
000002e0: fe9c 233d fc66 4dbd 2ef3 96bd 1c36 253c
000002f0: 3da0 e63c 7552 733d c071 083b b485 aabc
00000300: 82d9 993d 416d 913d 5752 9e3a 2ae8 87bb
00000310: 9a4b a7bd becd 6cbc 4bd0 31bd 7149 dcbc
00000320: 4745 efbc b5dc 153c d55b dbbb 6c8d 043e
00000330: 7f3c 963c 47d3 893d 3873 1939 4d3b 1e3d
00000340: 9a32 8f3c 24a7 02bd 2161 70bb f99b 3ab9
00000350: 3c4c 94bc 772e 1cbd 652f e5bd c686 eb3d
00000360: a9f3 ac3c 6f68 cfbc bc7a 47bc d6c7 0abc
00000370: ebd3 5c3c dfea 05bd d5ce 30b8 6a74 163d
00000380: 9b04 7ebd 7731 283d b925 803d f376 ebba
00000390: cbac d6bc 5fd0 063d 4c78 3abc 36a4 5bbc
000003a0: fd58 b9bc 7c1f 8bbb 7a1b 0a3d 46fd 953c
000003b0: 535b 8f37 0800 61bd c380 873c 2024 d83c
000003c0: 218b a5bd b677 12bb a63f 5ebc 6212 6abd
000003d0: 9b19 8fbd b301 ec3d 5d18 473b 3df0 1abc
000003e0: 0e8e af3c 2241 213d d228 f436 f0d0 313c
000003f0: 6715 83bd a643 093e ab0f b53c 8e6d 9e3c

encoder.convs.1.nn.2.bias f4 [128]
-9.4536864e-07 -1.4009973e-07 -2.7106245e-07 1.2273849e-05 7.3980647e-07 -7.531837e-07 -1.8791277e-06 -4.985764e-07
1.8690415e-06 1.61634e-07 -1.862781e-06 1.349612e-08 1.2378169e-07 1.7704708e-05 5.3923646e-08 -1.2158398e-07
2.7828448e-06 4.4445162e-08 -1.7252717e-06 -4.248669e-07 -6.428515e-07 -1.8071865e-06 -6.2752827e-07 5.988875e-07
-1.3508567e-07 5.158823e-07 3.2133516e-07 -1.0475959e-06 -3.3125076e-07 -6.642571e-08 5.7462923e-09 9.412671e-07
2.0282675e-07 -2.008093e-07 -3.4280924e-07 5.6333256e-06 -2.4391252e-07 -7.3494825e-06 4.0273104e-08 8.668526e-07
1.3144356e-06 -1.3401906e-06 -2.9727373e-06 8.989485e-06 -1.3211314e-07 5.9650904e-07 -3.6974419e-07 1.7417271e-06
2.1369954e-06 -5.530441e-07 -9.786756e-08 -2.3930486e-06 3.1314378e-06 1.3734385e-06 -1.7842492e-06 4.5658157e-07
6.291588e-06 -1.5019197e-07 3.0000087e-06 -2.0442562e-06 3.3062676e-07 -3.2729874e-06 5.0323064e-07 1.3813102e-05
-4.003013e-07 -7.659796e-07 -1.5223094e-06 1.393231e-07 -1.0952657e-06 2.6991536e-06 2.9827714e-07 6.368063e-08
3.1908513e-07 -1.1132533e-06 -2.5573315e-06 -9.4790363e-07 6.56812e-07 3.6999228e-07 2.467334e-06 -3.177169e-08
6.509837e-08 -5.153859e-07 4.1058932e-08 3.3603646e-06 4.560999e-06 -1.1205386e-06 1.6376839e-06 7.789377e-07
-7.367846e-08 1.5615592e-06 -3.2895663e-08 1.389373e-06 -1.493576e-06 -1.5796926e-05 -2.519369e-06 -2.7347747e-07
4.811614e-06 -9.756835e-06 -8.0241045e-07 2.6993487e-07 -1.7318543e-07 -5.5399295e-07 -2.4350982e-06 -4.6929588e-07
-8.3962715e-07 1.4508715e-06 3.6838597e-07 6.214501e-08 -5.013659e-07 1.5864613e-07 -1.7387354e-07 8.370165e-07
1.8467098e-07 3.0652055e-07 -1.8393339e-06 -1.170588e-06 2.7980275e-07 -1.0640882e-05 1.1726084e-05 -3.3879128e-06
1.8724766e-08 2.3044772e-06 9.325452e-07 1.0115311e-06 -1.6110379e-06 -1.483472e-06 -5.0937604e-07 -1.2982375e-07
00000000: 3dc5 7db5 526e 16b4 8a86 91b4 c8eb 4d37
00000010: 1d97 4635 642e 4ab5 5636 fcb5 e9d5 05b5
00000020: c7db fa35 9e8d 2d34 ab04 fab5 90dc 6732
00000030: dae8 0434 9284 9437 ad99 6733 c08c 02b4
00000040: e9c0 3a36 f9e3 3e33 e28f e7b5 4319 e4b4
00000050: 6b90 2cb5 758e f2b5 6a73 28b5 3cc3 2035
00000060: 110c 11b4 297b 0a35 f883 ac34 1f9b 8cb5
00000070: c2d6 b1b4 eca5 8eb3 ec70 c531 62ab 7c35
00000080: 98c8 5934 0a9e 57b4 580b b8b4 e605 bd36
00000090: 15f3 82b4 939b f6b6 bff8 2c33 a8b1 6835
000000a0: aa6b b035 99e0 b3b5 3d7f 47b6 8bd1 1637
000000b0: fcda 0db4 ca1f 2035 4181 c6b4 4ac5 e935
000000c0: 4d69 0f36 e774 14b5 432b d2b3 4398 20b6
000000d0: b125 5236 fd56 b835 567a efb5 1820 f534
000000e0: 541c d336 7444 21b4 c253 4936 0e30 09b6
000000f0: ff80 b134 7fa5 5bb6 bf15 0735 d2be 6737
00000100: fee8 d6b4 b89d 4db5 2752 ccb5 d898 1534
00000110: 0b01 93b5 1b23 3536 e622 a034 ccc0 8833
00000120: ba4e ab34 186b 95b5 9f9e 2bb6 7173 7eb5
00000130: c74f 3035 5aa3 c634 7a94 2536 5875 08b3
00000140: 35cc 8b33 0d59 0ab5 c658 3033 a082 6136
00000150: af0a 9936 6a65 96b5 64ce db35 3118 5135
00000160: 2939 9eb3 c496 d135 2a49 0db3 7e7a ba35
00000170: e176 c8b5 a483 84b7 6e12 29b6 75d2 92b4
00000180: 7373 a136 4ab1 23b7 3a65 57b5 91eb 9034
00000190: d9f4 39b4 1bb6 14b5 ab6a 23b6 89f3 fbb4
000001a0: bd62 61b5 91bb c235 95c6 c534 9574 8533
000001b0: 9a95 06b5 5158 2a34 ffb1 3ab4 56af 6035
000001c0: f949 4634 dd8f a434 08df f6b5 191d 9db5
000001d0: cc37 9634 3d86 32b7 26bb 4437 e65b 63b6
000001e0: 32d8 a032 9ea6 1a36 0554 7a35 f2c3 8735
000001f0: d73a d8b5 b61b c7b5 0ebc 08b5 ae65 0bb4

encoder.convs.2.nn.0.weight f4 [128, 128]
-0.086411 0.01928615 0.025120195 0.10566944 -0.09248859 -0.061489064 0.069370225 -0.023208015
0.045203082 -0.012129303 0.0333653 0.075605474 -0.053818256 0.02167615 -0.009847484 -0.0074827923
-0.06427078 0.084576994 -0.0001846076 0.059759438 -0.07381371 0.029852077 8.954194e-05 -0.029830668
-0.12576514 0.023449434 0.06637072 0.0405245 -0.011234586 0.01916639 0.020083686 -0.080960825
-0.06363826 0.039469868 0.06934764 -0.04802649 0.029610585 0.04246285 0.032989617 -0.08199945
0.005795996 0.025245974 0.02901709 -0.13317376 -0.062288065 -0.060249846 -0.047214545 0.056264617
-0.071438126 -0.051474635 0.07486831 -0.015747892 -0.07758903 -0.0046042106 -0.07134109 0.053863406
-0.07130423 0.081440456 0.0061819847 -0.12268755 -0.098523356 0.01646114 -0.011737796 -0.0072852606
0.030825894 -0.009724494 0.021381242 0.043096896 0.0070829834 0.045682248 -0.009264872 -0.027245738
0.038003493 0.07542854 -0.012529556 -0.069087446 -0.06388094 0.10138601 0.0071609174 0.07926489
0.013318351 0.026282134 0.06476598 -0.08362006 -0.01461327 -0.02146359 -0.101075724 0.030559886
-0.06779549 -0.01950244 -0.027434928 0.031912435 -0.07585529 0.06943343 -0.00058855844 0.064758025
-0.08493033 -0.11248938 -0.027042627 0.028218802 -0.005868706 -0.027444478 0.0064391624 0.067946754
0.021619871 -0.08188541 -0.03513161 -0.03490785 -0.033110052 0.05667898 -0.041326776 -0.010798687
-0.06983106 0.06554627 0.035338774 0.050554473 -0.052329656 -0.0116570005 -0.023044823 0.05702348
0.025172153 -0.045787994 0.096365094 -0.062471636 0.020804258 0.07150484 -0.019735688 0.094010904
0.11253529 -0.0740639 0.072024636 -0.010487203 -0.0032282313 0.028363148 0.04106867 0.040374268
0.08340444 0.008190261 0.078090794 0.011742353 0.025839133 -0.09770786 0.01315673 0.092560224
0.094108105 0.03782583 -0.026865082 -0.041901346 -0.038268507 0.024836985 0.050014872 0.048803613
-0.08508589 0.029572718 0.07461638 0.004316036 0.071410924 0.047362436 -0.0620233 -0.065052986
-0.049943652 0.026091853 0.08391417 -0.06254501 0.039484203 -0.034255333 -0.08344243 0.042597625
0.077642255 -0.037770532 0.038858104 -0.0019588028 0.047511887 -0.064955354 -0.013479175 0.05164229
-0.032539558 -0.08206524 -0.051973734 0.092102684 0.02140593 -0.005074773 0.0070952405 0.042788725
0.004387611 -0.052092157 0.07228651 0.13700475 -0.008102467 -0.07238518 0.023805872 -0.034159828
0.029266544 -0.012683579 0.039113715 -0.066779256 0.0024490862 -0.005775848 0.006488668 -0.009043867
-0.08492182 0.039673265 0.06854686 -0.04286796 -0.07370075 0.10807542 -0.13513537 -0.032825693
-0.051968955 -0.00594713 0.035892792 -0.061806202 -0.058945674 -0.041063968 0.048671737 -0.07515008
-0.022744546 0.060739614 0.033615854 -0.08765976 0.15631619 -0.10156565 0.10459076 0.038460206
0.01774119 0.06174853 -0.022047266 0.049891807 0.09551206 0.0950957 0.044053975 0.0004968483
0.056228124 0.035263646 0.007734022 0.07139197 -0.0063838046 0.070746705 0.0633691 0.1165146
-0.02337131 0.020928355 0.025180258 0.044947192 -0.03641877 -0.09624572 -0.078169815 -0.051694762
-0.04525993 0.039496243 -0.025431005 0.10040062 0.027854491 0.117832944 0.06961014 -0.08283154
00000000: 40f8 b0bd fdfd 9d3c dec8 cd3c 3869 d83d
00000010: a86a bdbd f5db 7bbd fa11 8e3d bc1e bebc
00000020: de26 393d fcb9 46bc 0eaa 083d 0bd7 9a3d
00000030: 8870 5cbd 2e92 b13c 5757 21bc 3632 f5bb
00000040: 66a0 83bd b436 ad3d 3a93 41b9 50c6 743d
00000050: a42b 97bd 588c f43c 77c8 bb38 725f f4bc
00000060: 94c8 00be 0719 c03c 5fed 873d 05fd 253d
00000070: 4511 38bc d502 9d3c 8b86 a43c cace a5bd
00000080: c754 82bd 28ab 213d 2306 8e3d 6db7 44bd
00000090: e691 f23c 87ed 2d3d 1f20 073d 54ef a7bd
000000a0: 57ec bd3b a5d0 ce3c 40b5 ed3c b45e 08be
000000b0: c521 7fbd 8bc8 76bd 0a64 41bd ba75 663d
000000c0: 274e 92bd 11d7 52bd 8e54 993d b901 81bc
000000d0: ffe6 9ebd ebde 96bb 471b 92bd e09f 5c3d
000000e0: f407 92bd 41ca a63d 3f92 ca3b 9c43 fbbd
000000f0: 9dc6 c9bd 83d9 863c e24f 40bc 32b9 eebb
00000100: 9686 fc3c 7c53 1fbc b727 af3c 5f86 303d
00000110: 5f18 e83b 4f1d 3b3d b1cb 17bc 7432 dfbc
00000120: 8da9 1b3d 477a 9a3d c448 4dbc b87d 8dbd
00000130: 03d4 82bd 78a3 cf3d 21a6 ea3b a155 a23d
00000140: 3635 5a3c a14d d73c 07a4 843d fe40 abbd
00000150: 7f6c 6fbc 69d4 afbc ca00 cfbd ba58 fa3c
00000160: 5dd8 8abd 95c3 9fbc 37bf e0bc 9db6 023d
00000170: 055a 9bbd 1d33 8e3d 7d49 1aba db9f 843d
00000180: f4ef adbd d560 e6bd 8088 ddbc 1e2b e73c
00000190: 464e c0bb 3ed3 e0bc 9cff d23b ab27 8b3d
000001a0: 281c b13c 8ab3 a7bd 2ae6 0fbd 89fb 0ebd
000001b0: 689e 07bd 3828 683d 4446 29bd faec 30bc
000001c0: 9603 8fbd 1f3d 863d 64bf 103d 3512 4f3d
000001d0: 9f57 56bd 01fd 3ebc 7fc8 bcbc 7491 693d
000001e0: d535 ce3c 318c 3bbd 105b c53d 42e2 7fbd
000001f0: b16d aa3c 2171 923d bdac a1bc ca88 c03d
00000200: e778 e63d d0ae 97bd a781 933d 84d2 2bbc
00000210: bc90 53bb d559 e83c 9f37 283d 7d5f 253d
00000220: f2cf aa3d 7230 063c 11ee 9f3d 0063 403c
00000230: 97ac d33c 0f1b c8bd 538f 573c 3790 bd3d
00000240: c0bb c03d 42ef 1a3d 2914 dcbc bfa0 2bbd
00000250: 70bf 1cbd ef76 cb3c 65dc 4c3d 4ce6 473d
00000260: 8341 aebd 7c42 f23c 79d0 983d 896d 8d3b
00000270: e43f 923d 1dff 413d 250c 7ebd 803a 85bd
00000280: b791 4cbd 95be d53c 31db ab3d 9917 80bd
00000290: 30ba 213d 524f 0cbd dde3 aabd d97a 2e3d
000002a0: e702 9f3d 46b5 1abd ad29 1f3d 425f 00bb
000002b0: d39b 423d 5007 85bd c2d7 5cbc de86 533d
000002c0: 3348 05bd d211 a8bd 69e2 54bd 55a0 bc3d
000002d0: 7d5b af3c 484a a6bb 317f e83b 3b43 2f3d
000002e0: f3c5 8f3b 965e 55bd f30a 943d f94a 0c3e
000002f0: 36c0 04bc ae3e 94bd 8804 c33c 2deb 0bbd
00000300: 64c0 ef3c c9ce 4fbc b435 203d 90c3 88bd
00000310: d980 203b 5343 bdbb e49e d43b ba2c 14bc
00000320: 7eeb adbd 6f80 223d 4c62 8c3d 5096 2fbd
00000330: 6bf0 96bd a556 dd3d ed60 0abe 3c74 06bd
00000340: 66dd 54bd 24e0 c2bb 5204 133d 8028 7dbd
00000350: 0571 71bd b132 28bd 045c 473d 49e8 99bd
00000360: c552 babc 1aca 783d c7b0 093d f686 b3bd
00000370: 5a11 203e a701 d0bd ae33 d63d 7388 1d3d
00000380: f955 913c 07ec 7c3d 789c b4bc 5a5b 4c3d
00000390: d49b c33d 89c1 c23d f171 343d ed3e 023a
000003a0: 764f 663d 9d70 103d ae6d fd3b f435 923d
000003b0: 3c2f d1bb a6e3 903d a9c7 813d 359f ee3d
000003c0: 3175 bfbc f171 ab3c d446 ce3c 8c1a 383d
000003d0: d92b 15bd 7a1c c5bd 7f17 a0bd e3bd 53bd
000003e0: 7a62 39bd d0c6 213d af54 d0bc d79e cd3d
000003f0: 1a2f e43c 6652 f13d c38f 8e3d 95a3 a9bd

encoder.convs.2.nn.0.bias f4 [128]
-0.08599363 0.04672788 0.10134154 -0.04222019 -0.023456445 0.036541518 0.016400775 -0.031267937
-0.0232206 -0.039322805 -0.01633563 0.116127886 0.028020056 0.030062621 0.036973227 -0.03692939
0.015996471 0.040164825 0.027051007 0.027343282 -0.0020948742 0.024456127 0.057927843 0.0523667
0.02854171 -0.047993634 -0.0042827106 0.02142997 -0.03303502 0.078613445 -0.036557533 0.04315792
-0.0119453445 0.060844656 0.009823894 -0.041017376 -0.026856527 0.028673504 -0.010638255 -0.010189342
0.054414764 0.028551023 0.05040299 0.048766967 0.011547128 0.061017327 0.01625059 -8.482271e-05
0.022639532 -0.015551897 -0.016794665 0.053979978 0.037619885 0.009292251 -0.07604321 0.054051664
-0.05312714 -0.056301326 0.049897537 0.009505207 0.031414393 -0.005222422 0.04751385 -0.0025412652
0.01161291 0.057240505 0.005562769 -0.030304179 0.0010412481 -6.428763e-05 -0.009732239 0.06379922
-0.026912691 -0.034181338 0.03713787 -0.0054070605 0.0046516247 -0.0063195154 -0.054032683 -0.0018676983
0.010015445 0.011998698 0.044296816 -0.0039717746 0.020976113 -0.067665115 0.052770957 0.028870357
-0.07201841 -0.0062523806 -0.0031043866 0.0027882443 -0.03235515 -0.0103255175 0.0064057126 -0.050897393
0.014038144 -0.04090106 -0.038039498 -0.012073724 -0.031027047 0.07024886 -0.03200609 -0.086134076
0.014838188 0.026978629 0.03153619 0.006004057 0.0064450144 0.017117715 -0.032373194 0.032643493
-0.031920925 -0.03244318 -0.010854512 0.041607026 0.05045581 -0.06557788 0.032528117 0.0023721845
-0.003769197 -0.07552225 0.039857116 -0.049324013 -0.014857765 0.037669964 -0.006256838 -0.085155465
00000000: 6e1d b0bd bc65 3f3d 278c cf3d 14ef 2cbd
00000010: bb27 c0bc 8fac 153d eb5a 863c cf12 00bd
00000020: 2139 bebc f310 21bd 4dd2 85bc 75d4 ed3d
00000030: 518a e53c e345 f63c 3d71 173d 4643 17bd
00000040: 080b 833c df83 243d 139a dd3c 05ff df3c
00000050: 284a 09bb 3758 c83c bf45 6d3d 777e 563d
00000060: 4ed0 e93c f994 44bd fb55 8cbb e88d af3c
00000070: bb4f 07bd 1600 a13d 5abd 15bd 5cc6 303d
00000080: 68b6 43bc 3f38 793d 66f4 203c d601 28bd
00000090: 3802 dcbc b2e4 ea3c 134c 2ebc 33f1 26bc
000000a0: 04e2 5e3d d6e3 e93c 5e73 4e3d dfbf 473d
000000b0: 2a30 3d3c 4eed 793d f51f 853c d8e2 b1b8
000000c0: 8a76 b93c 62cd 7ebc f794 89bc 1c1a 5d3d
000000d0: 4f17 1a3d 873e 183c 8bbc 9bbd 4765 5d3d
000000e0: d89b 59bd 389c 66bd 5c61 4c3d babb 1b3c
000000f0: 61ac 003d da20 abbb e29d 423d 5b8b 26bb
00000100: 1344 3e3c 0575 6a3d e347 b63b 7840 f8bc
00000110: 7d7a 883a 29d2 86b8 f873 1fbc 2aa9 823d
00000120: 0178 dcbc bb01 0cbd e11d 183d b62d b1bb
00000130: a86c 983b f013 cfbb 6051 5dbd 8ecd f4ba
00000140: d217 243c 3096 443c 9470 353d a925 82bb
00000150: 19d6 ab3c 0294 8abd 5c26 583d 8781 ec3c
00000160: 637e 93bd c5e0 ccbb f772 4bbb faba 363b
00000170: d586 04bd 5c2c 29bc 03e7 d13b c979 50bd
00000180: 3e00 663c df87 27bd 4ecf 1bbd ded0 45bc
00000190: 6f2c febc a2de 8f3d d118 03bd 1067 b0bd
000001a0: df1b 733c 4902 dd3c 182c 013d aebd c43b
000001b0: b330 d33b 733a 8c3c c199 04bd 2fb5 053d
000001c0: 84bf 02bd 24e3 04bd 20d7 31bc 216c 2a3d
000001d0: c0aa 4e3d b24d 86bd 343c 053d a776 1b3b
000001e0: a204 77bb 69ab 9abd 3741 233d fa07 4abd
000001f0: fc6d 73bc d24b 1a3d 2906 cdbb fd65 aebd
